sp11_sim/params_W_jit.pt (torch, 59292 bytes, 5 tensors)

weight f4 [100, 1]
000000 de 0d 3a 3f 47 4f 7d be e0 c0 53 3f b6 63 b5 3c
       0.7267741 -0.24737273 0.8271618 0.022142272
000010 8a 1f 60 bf fe 1d fd be f6 0c de be 69 b8 ff be
       -0.87548125 -0.49436945 -0.43369263 -0.4994538
000020 31 bb b4 bf 53 1b 7d 3f 2a f3 6c be 66 45 28 be
       -1.4119626 0.9886982 -0.23139635 -0.16432723
000030 fb 3a 64 3f 8b 25 a9 3e 1f a3 2f bf 1c 9f 24 3f
       0.891525 0.33036456 -0.6860828 0.6430528
000040 32 bd 03 3f 1e 67 91 bf 5e d4 b3 3f f1 00 18 bf
       0.51460564 -1.1359594 1.4049184 -0.59376436
000050 4e 65 08 bf e5 e1 91 bf 61 b4 b5 3f ee 66 87 3e
       -0.5327958 -1.1397063 1.4195672 0.26445717
000060 2e a0 bd 3f b7 d1 90 3d 7b 65 2a 3f d6 9a c0 be
       1.4814508 0.0707125 0.66561097 -0.3761813
000070 56 fd 48 bf f8 15 55 3e 66 aa 9d bd 7a c0 ef bd
       -0.7851156 0.20809162 -0.076985165 -0.11706634
000080 60 77 05 bf 67 11 f8 3e 48 bd 9c 3e d8 8e 86 3f
       -0.52135277 0.48450777 0.3061316 1.0512342
000090 61 3b 09 bf e5 58 0b 3f 85 6f 68 3e c6 e4 63 3f
       -0.5360623 0.5443252 0.22698791 0.89020956
0000a0 94 fe 58 3f 4f 5d 45 bf 68 07 a4 3f 63 c9 12 bf
       0.84763455 -0.770955 1.281476 -0.5733854
0000b0 9b e0 b0 3f 0e aa f1 bc b9 5f 19 3f fa e9 14 bf
       1.3818544 -0.029500034 0.59911686 -0.5816952
0000c0 cb ff 7e 3f d0 56 11 bf b4 01 3f bf ab ea 09 3f
       0.9960906 -0.5677309 -0.74611974 0.538737
0000d0 7d bc 31 3f 52 47 94 3f 96 aa ab bd a4 45 c7 3f
       0.69428235 1.1584265 -0.08382146 1.5568128
0000e0 3d 12 4e 3f d3 71 0b bf 62 2e 64 bf d2 05 41 3f
       0.8049658 -0.54470557 -0.89133275 0.75399506
0000f0 95 e1 22 bf 20 a4 1d 3f 68 89 60 bf da 94 bb 3f
       -0.6362546 0.6157856 -0.87709665 1.4654801
000100 59 ef bb 3e 3b d3 10 be e9 b9 33 3f 46 f3 4f bf
       0.36706045 -0.14143078 0.7020555 -0.8123058
000110 8b fc 68 be de c5 ff bb d2 1c 26 bf 32 ec 61 39
       -0.22752587 -0.00780557 -0.64887726 0.00021545662
000120 97 5d e2 be 33 2f 8c 3f 4c f6 58 3f f3 85 c2 3f
       -0.44212028 1.0951904 0.8475082 1.5197128
000130 13 4e c6 3f 70 d7 67 bf 55 95 42 3e d2 7d c5 3e
       1.5492576 -0.90563107 0.19002278 0.38572556
000140 02 d6 45 bf 7d 30 fe 3e 7e 69 1c bf fe 0e 8f 3e
       -0.77279675 0.4964637 -0.6109847 0.27941126
000150 03 e3 c1 3e f3 4b 73 3f 4a 2d 0d bf fa 69 c8 be
       0.3786851 0.95037764 -0.5514723 -0.39143354
000160 71 45 88 3f 77 58 72 3f 05 61 12 3f 60 79 10 3f
       1.0646192 0.94666237 0.5717929 0.56435204
000170 e6 96 aa be b5 11 36 3f 21 09 54 bf a0 f0 b4 3d
       -0.3331825 0.7112077 -0.8282643 0.08834958
000180 d9 61 00 3f 67 df 69 3f 1a 98 00 bf 74 c9 33 bf
       0.50149304 0.9135651 -0.5023209 -0.7022927

bias f4 [100]
000000 b0 c5 a4 3e 80 3d 26 bf bc d2 49 bf 9e 91 6d bf
       0.32182074 -0.6493759 -0.7883718 -0.9280032
000010 5e ec b7 be 23 73 66 be 33 a3 cd be b1 35 a0 be
       -0.3592252 -0.22504859 -0.40163574 -0.31290963
000020 32 97 4c bf 16 93 1c 3f dd 8e 11 be 4d 66 1e bf
       -0.79918206 0.61161935 -0.14214654 -0.6187485
000030 57 1c a5 3e 02 99 5b bf 5e 0f 43 3f 62 a9 08 3f
       0.32248184 -0.85780346 0.76195323 0.5338346
000040 83 5d 74 bf 05 bf 07 bf 9e 60 1f bf a7 8d d9 be
       -0.9545519 -0.5302585 -0.622568 -0.42490885
000050 2e d6 97 3e ad f6 65 bf 02 35 33 bf f1 bb c5 3e
       0.29655594 -0.8982952 -0.7000276 0.3861995
000060 f9 7d ad be f3 ab 8c be 63 eb 46 bf 27 34 b5 3e
       -0.33885172 -0.27474937 -0.7770292 0.35391352
000070 1e 26 a4 3e da 06 9d be 7f 14 11 bf 52 0f d6 3d
       0.3206033 -0.3066929 -0.566719 0.10452141
000080 eb 26 b5 3e 64 aa 1e 3f 74 25 4b 3e 8a 88 1a be
       0.35381255 0.61978745 0.19838506 -0.15091148
000090 36 c9 ed be d2 c6 0e 3f 5d fa bc bd 33 e8 1a bf
       -0.46442574 0.55772126 -0.092274405 -0.6051056
0000a0 95 72 4b 3f 18 da 20 3f 54 22 42 bf 36 d7 aa be
       0.79471713 0.62832785 -0.7583363 -0.33367318
0000b0 a6 86 a3 be 3c b1 0b bf 5b 26 ce 3e 04 c1 24 bf
       -0.31938666 -0.54567313 0.40263638 -0.6435702
0000c0 da 6f 71 3f 20 2c ac be 47 34 2c 3f dd b8 1d bd
       0.94311297 -0.33627415 0.6726727 -0.038506377
0000d0 e3 fc 09 bf cf 2a 17 3f 87 f8 39 bf 38 ba f4 be
       -0.539015 0.59049696 -0.7264485 -0.47798324
0000e0 d6 8e 8e 3d 01 56 32 3f 03 3d a3 be 36 57 17 bf
       0.069608375 0.6966248 -0.31882486 -0.5911745
0000f0 a1 b2 07 bf 54 0a ca be 16 da 90 be 50 64 84 be
       -0.5300694 -0.39461005 -0.28291386 -0.25857782
000100 5a 96 0c bf ce 43 6c 3e 8e 42 1a bd d7 29 03 bf
       -0.5491692 0.2307274 -0.037661128 -0.5123572
000110 00 e1 1d bf 66 d9 36 3c c0 fc d7 3d 63 d3 53 3f
       -0.6167145 0.01116023 0.10546255 0.82744426
000120 e5 f7 94 bd 2f 07 44 bf 4e 21 55 bf 80 e6 8b be
       -0.07273845 -0.7657346 -0.83253944 -0.27324295
000130 86 45 72 be 62 32 cb 3e de f5 b9 be b2 89 b8 3e
       -0.23659334 0.39686877 -0.36320394 0.36042553
000140 69 06 87 be 41 4b 2c 3f cc 62 a6 3e 72 0a 9f be
       -0.26372078 0.6730233 0.3249725 -0.31062657
000150 86 cc 5c 3f 43 a3 8e 3e e1 62 25 bf 4c 49 d3 be
       0.8624958 0.27858934 -0.64604 -0.4126686
000160 a7 7e 19 3f fe f1 19 3f 55 77 32 3f 65 89 17 be
       0.5995888 0.60134876 0.69713336 -0.14798506
000170 10 86 3f 3f fe c6 f0 3e d6 e9 e4 3e 31 22 1e be
       0.7481394 0.4702682 0.44709653 -0.1544273
000180 66 25 67 3f bf f0 26 3e 5a 20 55 be 29 df 2d 3e
       0.9029144 0.16302775 -0.20813122 0.1697966

weight f4 [100, 100]
000000 7a c1 6d 3e 2d 26 16 be 0f d4 7a be 1f 6a 03 be
       0.23218337 -0.14663 -0.24494956 -0.1283345
000010 35 3a 2f be 44 84 70 be 08 3a 91 be e7 dc 02 be
       -0.17112048 -0.23487955 -0.28364587 -0.1277958
000020 62 84 0c be 44 12 27 3e a7 7d 85 bd ab a4 5a be
       -0.13722375 0.16315562 -0.06518107 -0.21351878
000030 6b ae 09 3e 43 18 8b be ec 40 88 3e 67 6f 6b 3e
       0.13445441 -0.27166948 0.2661203 0.22991715
000040 39 54 28 be 42 e7 42 be 21 bd 13 be 4d 0a f2 bd
       -0.16438378 -0.1903353 -0.14427616 -0.11818371
000050 54 19 75 3e 67 6e 5c be ae e0 7e be f6 4a 84 3e
       0.23935443 -0.2152649 -0.24890396 0.2583844
000060 4f c6 e7 bd 6d 7f 0d be 7f 07 0d be 5a 71 57 3e
       -0.11317121 -0.1381814 -0.13772391 0.21039334
000070 03 56 6e 3e 2f 8d 7a be 35 3f 02 be c0 dc 83 3e
       0.23274998 -0.2446792 -0.12719424 0.25754356
000080 ae 68 ef 3d 83 2b 87 3e 27 c1 da 3d 56 ca 08 be
       0.11689888 0.26400384 0.10681372 -0.13358435
000090 31 0b 63 be b5 73 45 3e e4 00 70 be c2 a2 a5 be
       -0.22172238 0.1928242 -0.2343784 -0.32350737
0000a0 40 c5 14 3e f5 ab 47 3e f9 99 83 be f9 f4 e3 bd
       0.1452837 0.1949919 -0.2570341 -0.11130709
0000b0 1e 79 fc 3c d4 bd 20 be 45 63 60 3e b1 93 98 be
       0.030819472 -0.15697414 0.21912868 -0.2980018
0000c0 2c da a4 3e aa 73 90 be 64 1b 20 3e 97 e8 dc bd
       0.32197702 -0.28213245 0.15635449 -0.107865505
0000d0 ed 41 49 be fa 13 96 3d 11 cb 89 be a0 0d 4f be
       -0.19654055 0.07328029 -0.2691274 -0.20220041
0000e0 29 03 fd bc b4 b9 3e 3e a6 2c f4 bd eb 63 78 be
       -0.030885296 0.18625528 -0.119225785 -0.24256866
0000f0 55 34 3d be e3 94 a6 be 21 93 b0 bd 91 ed f9 bd
       -0.18476994 -0.32535467 -0.086218126 -0.12203515
000100 28 c5 a6 be ac 2b 8e 3e 2d 35 55 bd 73 cb 03 be
       -0.32572293 0.27767694 -0.052052666 -0.12870578
000110 f2 3c 93 be d0 33 d8 3c 3c ac 6e 3c ab d4 95 3e
       -0.28757435 0.026391894 0.014567431 0.29263815
000120 6f 06 02 bd 80 eb a5 be 72 41 6b be 7f 28 d1 bd
       -0.031744417 -0.32406235 -0.22974184 -0.10212802
000130 7e 84 28 bd 00 99 01 3e fb 24 9e be fb 88 7e 3e
       -0.04114198 0.12656021 -0.3088759 0.24856941
000140 ff 0b 50 be 96 94 8b 3e 0b b4 8c 3e 19 8e 9b be
       -0.20317076 0.272618 0.27481112 -0.3038185
000150 93 53 28 3e 1a fe d6 3d 67 de 9f be f6 08 29 be
       0.16438131 0.10497685 -0.31224367 -0.16507325
000160 c9 f7 06 3e 09 71 59 3e 5c 4d f4 3d b8 3e c2 bd
       0.1318046 0.21234526 0.11928818 -0.09484619
000170 34 60 2f 3e 47 ab f3 3d c7 5a 31 3e 0b d6 83 be
       0.17126542 0.11897903 0.17319785 -0.2574924
000180 a3 69 df 3d 07 bb de 3d 7f a0 29 be 58 c3 2e 3e
       0.109088205 0.108755164 -0.1656513 0.17066705
000190 99 34 d2 3d 34 d7 c7 bd 5b de d8 bd f4 c7 a1 bd
       0.102639385 -0.097578436 -0.10589286 -0.07899466
0001a0 51 8a ac 3d 8a 8c 55 3d a7 a9 3a bd a8 cc a1 3d
       0.08424819 0.05213598 -0.04557195 0.07900363
0001b0 6c 02 60 3d 32 20 b3 3d 3e 98 12 bc 0f 66 6d bd
       0.05468981 0.08746375 -0.00894743 -0.05795866
0001c0 ed 68 22 3d 64 63 04 3d 3d 33 1f bc 09 ef bc bd
       0.039650846 0.03232135 -0.009716806 -0.0922528
0001d0 e9 fd 3c bd 95 7f 2d bd 7e 76 96 3d 36 1e 17 3b
       -0.046140585 -0.042358 0.07346819 0.0023058779
0001e0 10 e8 1b bd c7 2d 04 3d dc 32 77 3d 91 68 c9 3c
       -0.03806311 0.03227022 0.060351238 0.024585994
0001f0 f8 4d 91 bd 19 bc 47 3c d0 28 8a 3c 13 fa 96 3d
       -0.070949495 0.012190842 0.016865164 0.073719166
000200 cb 10 9b bc 92 ee 24 bd a1 cc 9b bd c3 c3 fa 3d
       -0.018928906 -0.04026658 -0.07607389 0.1224437
000210 b9 3a 1b 3d a4 3a 70 3c c3 6c c0 bd 95 0a f2 3d
       0.0378978 0.0146624185 -0.09395745 0.118184246
000220 dc 06 19 3d c0 a7 06 3d e7 02 e2 bd 4b 95 98 3a
       0.037360057 0.032874823 -0.1103571 0.0011641172
000230 2e 78 91 bd 65 f4 ed bd b9 ea af bd 09 06 7a 3d
       -0.071030006 -0.1161888 -0.08589692 0.06104091
000240 7b 3d 69 3e 03 1d 02 be 9e 0f 19 3d e1 e7 39 3d
       0.22777359 -0.1270638 0.03736841 0.045387153
000250 dd a6 62 3d 80 3b 90 3d e4 ce 7f bd 63 bc c8 3d
       0.055334914 0.07042599 -0.062453166 0.09801557
000260 48 1f 45 3d 98 05 a7 3d d9 3d e4 bd d7 83 0a 3d
       0.048125535 0.08155364 -0.11144609 0.03381714
000270 8d b4 f8 3d 9c 1e 00 3e 97 e3 da 3d 07 2b af bd
       0.12143812 0.12511677 0.106879406 -0.08553129
000280 50 1d 31 bd 2d 64 d9 bd 7a f8 17 bd 0f 7e cd 3d
       -0.043240845 -0.1061481 -0.0371022 0.100338094
000290 be 2b 07 be a5 41 77 3c ef 0b 64 3d 78 2f a2 bd
       -0.1320028 0.0150913345 0.055675443 -0.0791921
0002a0 2e e6 4f bc a8 c7 c1 bb 6b e6 f3 3c a1 a2 c2 bc
       -0.012689156 -0.0059136935 0.029772958 -0.023759188
0002b0 8f 78 8b bc e4 98 e6 bd ea 08 8a 3c cd 0d 01 3e
       -0.01702526 -0.1125963 0.016849954 0.12602921
0002c0 34 78 c4 bb 3c 30 2b 3d 3d 0b 82 be e1 54 c3 bd
       -0.0059957746 0.041794047 -0.253992 -0.09537674
0002d0 ba 16 f6 bc 67 90 35 bd fe 94 9a 3c d4 e3 82 bd
       -0.030040134 -0.044327166 0.018869873 -0.06391111
0002e0 e9 4e fc 3c bd 4c 04 bd 0a 85 bf bd b1 66 cf bd
       0.030799346 -0.032299746 -0.09351547 -0.10127009
0002f0 38 5a 42 bd 95 94 d9 3d b3 1d f8 3c 08 db c8 bd
       -0.04744932 0.10624043 0.0302876 -0.09807402
000300 90 6f 09 3d 8a f7 5d 3c 14 53 94 3d 6f 3f 72 3d
       0.03355366 0.013547787 0.072424084 0.059142526
000310 bf 58 25 3d 26 19 f3 3d 27 0a ac bc 68 70 2a bc
       0.040367838 0.11870031 -0.021000935 -0.010402776
000320 1e db e3 3d ff 34 62 be 2e 6f 1d be 9e 51 42 be
       0.11125778 -0.22090529 -0.15374443 -0.18976447
000330 36 81 1a be 9b e9 86 be eb 68 76 be b2 10 4f be
       -0.15088353 -0.26350102 -0.2406346 -0.20221213
000340 12 6f 36 be 17 ec 35 3e 72 f2 48 be ac b5 6d be
       -0.17815807 0.17765842 -0.19623736 -0.23213834
000350 1a 07 0b 3e 32 b1 65 be e5 5c 66 3e 7f 77 60 3e
       0.13576928 -0.22430876 0.22496374 0.21920584
000360 d6 f3 4c be 94 47 40 be 10 b9 44 bd 48 88 47 be
       -0.20014891 -0.18777305 -0.04802805 -0.19485581
000370 53 8f 4e 3e ef 48 32 be 5d 26 d7 bd 2f d9 2e 3e
       0.20171861 -0.17410634 -0.10505364 0.17075036
000380 af 52 9e bd c7 e1 5d be ba 04 96 be bf c2 57 3e
       -0.077306144 -0.21668158 -0.2930048 0.21070383
000390 5e 5a 27 3e 7b 6b a0 be 9f 59 8d be ec ff 6c 3e
       0.16343066 -0.31332 -0.27607438 0.23144501
0003a0 11 0a 54 3e 87 fc 91 3e f0 ae c4 3d 89 df ea bb
       0.20706965 0.28512976 0.09603679 -0.0071677607
0003b0 a5 72 88 be d9 84 a4 3e 3a 47 a0 be f5 d5 7b be
       -0.26649967 0.32132605 -0.31304342 -0.24593337
0003c0 84 e1 a4 3e ad cc 53 3e 2f 38 82 be ef 35 9e be
       0.32203305 0.20683546 -0.2543349 -0.30900523
0003d0 7c 87 f7 3c d0 6f 54 be 98 fe 0c 3e 25 6b aa be
       0.030215971 -0.20745778 0.13768995 -0.3328487
0003e0 44 39 86 3e 71 99 80 be 0c 76 4d 3e a4 fc 0e be
       0.26215565 -0.25117067 0.20064563 -0.13963562
0003f0 70 33 6e be 6f 60 f4 3d e9 45 86 be c2 cb 18 be
       -0.2326181 0.11932456 -0.26225212 -0.14921477

bias f4 [100]
000000 95 f5 57 3e b2 33 0e 3d b5 c8 50 3e 78 d7 53 3c
       0.21089776 0.03471727 0.20389064 0.01292979
000010 b8 b7 e0 bc fe de 71 bd e8 a6 9c bd f0 2c d8 bd
       -0.027431354 -0.059050553 -0.07649022 -0.10555446
000020 5b 9c 21 bd 8e 63 93 3d d7 fa 94 be d1 3d df bd
       -0.039455753 0.07196723 -0.29097626 -0.109004624
000030 db 2e 42 3c 1e 7a fc bd e3 47 05 3d e0 b7 7e bd
       0.0118519915 -0.123279795 0.03253926 -0.062187076
000040 fc ba ae bc e8 3c 07 be fc 5b 32 bc 47 0b 3d bd
       -0.021329395 -0.13206828 -0.010886189 -0.046153333
000050 f0 85 81 bd ea 47 bc 3c c0 e3 33 bb 11 ad b8 3c
       -0.06324375 0.02298351 -0.0027448982 0.022543462
000060 96 bd 45 3d 16 31 e7 bc d2 78 20 bd d4 c8 24 3d
       0.048276506 -0.028221648 -0.039177723 0.040230587
000070 5b de 9d bd 6b e1 58 be 4b 0f 3e be ee 2a db 3d
       -0.077084266 -0.2117974 -0.18560521 0.107015476
000080 8e 98 45 bd 64 a3 12 be 66 1c 99 bd 8f df 36 3d
       -0.04824119 -0.14320141 -0.0747612 0.044646796
000090 04 68 97 bd 9d 12 47 be f8 70 a8 bd d7 06 38 bd
       -0.07392886 -0.19440694 -0.08224672 -0.044928398
0000a0 a6 0d c2 bc 88 ea 37 3d b0 ba 48 bd 6e 1d 8e 3e
       -0.023688149 0.0449014 -0.049006164 0.27756828
0000b0 a5 37 27 be d0 64 c8 bd 77 79 82 3e 5a 11 02 be
       -0.1632982 -0.097848535 0.25483295 -0.12701932
0000c0 9c 5b 86 bd 6e 7c df 3d be fa d4 bd 4b 9b 31 bd
       -0.06560442 0.10912405 -0.10399388 -0.04336099
0000d0 ab 18 a2 3d 23 81 2f 3e ad 5c fb 3d 72 5a ba bc
       0.07914861 0.17139105 0.12273536 -0.022748206
0000e0 24 2f d2 bc 28 9b 9b 3c ff 02 0b bd bc 74 92 3d
       -0.025657244 0.018994883 -0.033938404 0.071511716
0000f0 06 bd 84 bd 9d c2 92 bd 75 49 20 be c8 a4 a5 bd
       -0.06481366 -0.07166026 -0.15653022 -0.0808807
000100 3b 3a c4 3c c7 a7 37 3e f8 f6 be bd 22 88 09 bd
       0.023953548 0.17935096 -0.09324449 -0.033577092
000110 a6 36 fa 3a 1b b1 74 bd 9d 21 00 3d ec 46 25 be
       0.0019089773 -0.059739213 0.031282056 -0.16140336
000120 73 c4 a2 bd 2a 78 78 3e b8 ed 67 be e0 71 f3 3d
       -0.07947626 0.24264589 -0.22649276 0.11886954
000130 0d 30 2e be b0 0e de 3c f2 0c cb 3c 4b 71 9a 3d
       -0.17010517 0.027106613 0.024786446 0.0754114
000140 41 09 6b be 0c fc 62 3d a1 8a 20 3e da 05 bc bd
       -0.22952749 0.055416152 0.15677883 -0.091808036
000150 c3 41 c7 3d 8e 58 19 be c8 4c 0d bd 6e 08 05 bd
       0.0972934 -0.14975187 -0.034497052 -0.032478742
000160 f9 f8 ca bd 04 15 b5 3d cb d3 50 bd 81 eb 03 be
       -0.09910769 0.08841899 -0.05098323 -0.12882806
000170 f2 27 8f 3c 60 1f 57 3d f6 05 0b 3d d0 2b 1c bd
       0.017475102 0.052520156 0.03394123 -0.03812772
000180 b5 3c b0 3d 32 64 16 3d c9 0d b7 3d fe c6 24 bd
       0.08605329 0.036716647 0.08938176 -0.040228836

weight f4 [1, 100]
000000 61 1b 48 3e 44 ff 10 ba db 75 67 3e d5 c7 49 bd
       0.19541694 -0.00055312016 0.22603552 -0.04926284
000010 70 ad e7 bd 23 ff 09 38 64 85 c8 bd 5d bf 31 bd
       -0.113123775 3.290096e-05 -0.09791067 -0.04339539
000020 8f 76 a3 37 e1 53 9d bd 24 90 87 bf 09 4f 53 bc
       1.9486322e-05 -0.07682014 -1.0590863 -0.012897261
000030 00 04 33 ba c0 4d 7a bd 41 df 93 bd 55 5e 12 3a
       -0.0006828904 -0.061109304 -0.07220317 0.00055835146
000040 77 7e 87 bc 7d b4 d7 bb ed 5c d3 bd 41 09 74 be
       -0.016539795 -0.006582795 -0.103204586 -0.23831655
000050 1d f8 08 be a2 66 f0 bd 93 e2 38 39 2d 57 6a bd
       -0.13375898 -0.11738326 0.00017632013 -0.057212044
000060 d4 a7 e7 39 e9 9a 20 39 29 c1 0d b9 3e bf 65 b7
       0.00044184795 0.00015316498 -0.00013518766 -1.3693991e-05
000070 24 36 33 bd a1 db 4a bf 32 39 30 3a 25 80 db 39
       -0.043752804 -0.7924138 0.000672239 0.0004186641
000080 a6 7b aa 3a e9 7a 13 bf ef 31 99 bb ee 42 37 39
       0.0013006821 -0.5760942 -0.004675142 0.00017477173
000090 8a 21 83 bd 59 35 b8 bb b7 85 75 bd 45 46 62 3d
       -0.064028814 -0.005621594 -0.059941974 0.055242795
0000a0 b6 ac e5 b8 6e c1 33 ba 44 34 9e 3b 8f ce 4c 3e
       -0.00010951741 -0.00068571314 0.004828008 0.20000671
0000b0 15 da ff bd bf 1c 38 be 8e ff 73 3e f9 e4 93 bd
       -0.12492768 -0.17979716 0.23827955 -0.072214074
0000c0 5e ec 19 bd 28 1b 13 39 14 64 ef bd 8c 95 2a 39
       -0.037578933 0.00014029129 -0.1168901 0.00016268174
0000d0 f2 f5 03 3d 43 15 03 3d 2e 8b 25 39 02 ab 14 3e
       0.032216974 0.0320027 0.00015787475 0.1451836
0000e0 86 c6 95 bd f1 ad b5 bd e2 e8 ed 39 95 9f bc 38
       -0.07313256 -0.08871067 0.00045377674 8.994263e-05
0000f0 f6 06 80 3a 9a 9c a7 be 46 0b af bd d3 16 5a bd
       0.00097677 -0.32736665 -0.08547072 -0.053244423
000100 91 c6 9b bd 3d 58 23 3b 41 f8 0a be d0 5c 07 39
       -0.07606233 0.002492442 -0.13571264 0.00012909179
000110 52 b0 c2 38 88 9b de bc e7 68 82 39 2a 2d 4a bb
       9.283483e-05 -0.027173772 0.0002487369 -0.0030849674
000120 29 a9 0f bd a1 a3 2c 3e d1 c1 05 bc df cf 17 3e
       -0.035073433 0.16859294 -0.008163885 0.1482539
000130 29 1e d2 bb b3 ef f6 bd 0f 30 8f 3b 14 08 c3 39
       -0.006412287 -0.12057438 0.0043697427 0.00037199317
000140 b7 79 f9 bb ff 43 b3 38 cc a5 1c 3e 5e 13 99 bd
       -0.0076133865 8.5480504e-05 0.15297621 -0.07474397
000150 9e 16 0e ba cb ba 88 bd 4a 0c c6 3c a9 14 d6 bd
       -0.00054202403 -0.06676253 0.024175782 -0.10453159
000160 58 d6 79 3a 03 c3 89 38 16 2a 22 b8 27 73 80 bd
       0.0009530536 6.568993e-05 -3.8663005e-05 -0.062719636
000170 c6 9f cd 36 64 62 18 b9 83 7d 9a bd 58 c4 b4 3d
       6.128076e-06 -0.00014532503 -0.07543471 0.08826512
000180 20 16 2e ba 12 95 63 39 24 50 2c 38 89 d9 bb b9
       -0.000664087 0.0002170394 4.1082632e-05 -0.00035829496
