trained_models/star_polymer_11/params_jit.pt (torch, 249286 bytes, 25 tensors)

weight f4 [100, 1]
0.7267741 -0.24737273 0.8271618 0.022142272 -0.87548125 -0.49436945 -0.43369263 -0.4994538
-1.4119626 0.9886982 -0.23139635 -0.16432723 0.891525 0.33036456 -0.6860828 0.6430528
0.51460564 -1.1359594 1.4049184 -0.59376436 -0.5327958 -1.1397063 1.4195672 0.26445717
1.4814508 0.0707125 0.66561097 -0.3761813 -0.7851156 0.20809162 -0.076985165 -0.11706634
-0.52135277 0.48450777 0.3061316 1.0512342 -0.5360623 0.5443252 0.22698791 0.89020956
0.84763455 -0.770955 1.281476 -0.5733854 1.3818544 -0.029500034 0.59911686 -0.5816952
0.9960906 -0.5677309 -0.74611974 0.538737 0.69428235 1.1584265 -0.08382146 1.5568128
0.8049658 -0.54470557 -0.89133275 0.75399506 -0.6362546 0.6157856 -0.87709665 1.4654801
0.36706045 -0.14143078 0.7020555 -0.8123058 -0.22752587 -0.00780557 -0.64887726 0.00021545662
-0.44212028 1.0951904 0.8475082 1.5197128 1.5492576 -0.90563107 0.19002278 0.38572556
-0.77279675 0.4964637 -0.6109847 0.27941126 0.3786851 0.95037764 -0.5514723 -0.39143354
1.0646192 0.94666237 0.5717929 0.56435204 -0.3331825 0.7112077 -0.8282643 0.08834958
0.50149304 0.9135651 -0.5023209 -0.7022927
00000000: de0d 3a3f 474f 7dbe e0c0 533f b663 b53c
00000010: 8a1f 60bf fe1d fdbe f60c debe 69b8 ffbe
00000020: 31bb b4bf 531b 7d3f 2af3 6cbe 6645 28be
00000030: fb3a 643f 8b25 a93e 1fa3 2fbf 1c9f 243f
00000040: 32bd 033f 1e67 91bf 5ed4 b33f f100 18bf
00000050: 4e65 08bf e5e1 91bf 61b4 b53f ee66 873e
00000060: 2ea0 bd3f b7d1 903d 7b65 2a3f d69a c0be
00000070: 56fd 48bf f815 553e 66aa 9dbd 7ac0 efbd
00000080: 6077 05bf 6711 f83e 48bd 9c3e d88e 863f
00000090: 613b 09bf e558 0b3f 856f 683e c6e4 633f
000000a0: 94fe 583f 4f5d 45bf 6807 a43f 63c9 12bf
000000b0: 9be0 b03f 0eaa f1bc b95f 193f fae9 14bf
000000c0: cbff 7e3f d056 11bf b401 3fbf abea 093f
000000d0: 7dbc 313f 5247 943f 96aa abbd a445 c73f
000000e0: 3d12 4e3f d371 0bbf 622e 64bf d205 413f
000000f0: 95e1 22bf 20a4 1d3f 6889 60bf da94 bb3f
00000100: 59ef bb3e 3bd3 10be e9b9 333f 46f3 4fbf
00000110: 8bfc 68be dec5 ffbb d21c 26bf 32ec 6139
00000120: 975d e2be 332f 8c3f 4cf6 583f f385 c23f
00000130: 134e c63f 70d7 67bf 5595 423e d27d c53e
00000140: 02d6 45bf 7d30 fe3e 7e69 1cbf fe0e 8f3e
00000150: 03e3 c13e f34b 733f 4a2d 0dbf fa69 c8be
00000160: 7145 883f 7758 723f 0561 123f 6079 103f
00000170: e696 aabe b511 363f 2109 54bf a0f0 b43d
00000180: d961 003f 67df 693f 1a98 00bf 74c9 33bf

bias f4 [100]
0.32182074 -0.6493759 -0.7883718 -0.9280032 -0.3592252 -0.22504859 -0.40163574 -0.31290963
-0.79918206 0.61161935 -0.14214654 -0.6187485 0.32248184 -0.85780346 0.76195323 0.5338346
-0.9545519 -0.5302585 -0.622568 -0.42490885 0.29655594 -0.8982952 -0.7000276 0.3861995
-0.33885172 -0.27474937 -0.7770292 0.35391352 0.3206033 -0.3066929 -0.566719 0.10452141
0.35381255 0.61978745 0.19838506 -0.15091148 -0.46442574 0.55772126 -0.092274405 -0.6051056
0.79471713 0.62832785 -0.7583363 -0.33367318 -0.31938666 -0.54567313 0.40263638 -0.6435702
0.94311297 -0.33627415 0.6726727 -0.038506377 -0.539015 0.59049696 -0.7264485 -0.47798324
0.069608375 0.6966248 -0.31882486 -0.5911745 -0.5300694 -0.39461005 -0.28291386 -0.25857782
-0.5491692 0.2307274 -0.037661128 -0.5123572 -0.6167145 0.01116023 0.10546255 0.82744426
-0.07273845 -0.7657346 -0.83253944 -0.27324295 -0.23659334 0.39686877 -0.36320394 0.36042553
-0.26372078 0.6730233 0.3249725 -0.31062657 0.8624958 0.27858934 -0.64604 -0.4126686
0.5995888 0.60134876 0.69713336 -0.14798506 0.7481394 0.4702682 0.44709653 -0.1544273
0.9029144 0.16302775 -0.20813122 0.1697966
00000000: b0c5 a43e 803d 26bf bcd2 49bf 9e91 6dbf
00000010: 5eec b7be 2373 66be 33a3 cdbe b135 a0be
00000020: 3297 4cbf 1693 1c3f dd8e 11be 4d66 1ebf
00000030: 571c a53e 0299 5bbf 5e0f 433f 62a9 083f
00000040: 835d 74bf 05bf 07bf 9e60 1fbf a78d d9be
00000050: 2ed6 973e adf6 65bf 0235 33bf f1bb c53e
00000060: f97d adbe f3ab 8cbe 63eb 46bf 2734 b53e
00000070: 1e26 a43e da06 9dbe 7f14 11bf 520f d63d
00000080: eb26 b53e 64aa 1e3f 7425 4b3e 8a88 1abe
00000090: 36c9 edbe d2c6 0e3f 5dfa bcbd 33e8 1abf
000000a0: 9572 4b3f 18da 203f 5422 42bf 36d7 aabe
000000b0: a686 a3be 3cb1 0bbf 5b26 ce3e 04c1 24bf
000000c0: da6f 713f 202c acbe 4734 2c3f ddb8 1dbd
000000d0: e3fc 09bf cf2a 173f 87f8 39bf 38ba f4be
000000e0: d68e 8e3d 0156 323f 033d a3be 3657 17bf
000000f0: a1b2 07bf 540a cabe 16da 90be 5064 84be
00000100: 5a96 0cbf ce43 6c3e 8e42 1abd d729 03bf
00000110: 00e1 1dbf 66d9 363c c0fc d73d 63d3 533f
00000120: e5f7 94bd 2f07 44bf 4e21 55bf 80e6 8bbe
00000130: 8645 72be 6232 cb3e def5 b9be b289 b83e
00000140: 6906 87be 414b 2c3f cc62 a63e 720a 9fbe
00000150: 86cc 5c3f 43a3 8e3e e162 25bf 4c49 d3be
00000160: a77e 193f fef1 193f 5577 323f 6589 17be
00000170: 1086 3f3f fec6 f03e d6e9 e43e 3122 1ebe
00000180: 6625 673f bff0 263e 5a20 55be 29df 2d3e

weight f4 [100, 100]
0.23218337 -0.14663 -0.24494956 -0.1283345 -0.17112048 -0.23487955 -0.28364587 -0.1277958
-0.13722375 0.16315562 -0.06518107 -0.21351878 0.13445441 -0.27166948 0.2661203 0.22991715
-0.16438378 -0.1903353 -0.14427616 -0.11818371 0.23935443 -0.2152649 -0.24890396 0.2583844
-0.11317121 -0.1381814 -0.13772391 0.21039334 0.23274998 -0.2446792 -0.12719424 0.25754356
0.11689888 0.26400384 0.10681372 -0.13358435 -0.22172238 0.1928242 -0.2343784 -0.32350737
0.1452837 0.1949919 -0.2570341 -0.11130709 0.030819472 -0.15697414 0.21912868 -0.2980018
0.32197702 -0.28213245 0.15635449 -0.107865505 -0.19654055 0.07328029 -0.2691274 -0.20220041
-0.030885296 0.18625528 -0.119225785 -0.24256866 -0.18476994 -0.32535467 -0.086218126 -0.12203515
-0.32572293 0.27767694 -0.052052666 -0.12870578 -0.28757435 0.026391894 0.014567431 0.29263815
-0.031744417 -0.32406235 -0.22974184 -0.10212802 -0.04114198 0.12656021 -0.3088759 0.24856941
-0.20317076 0.272618 0.27481112 -0.3038185 0.16438131 0.10497685 -0.31224367 -0.16507325
0.1318046 0.21234526 0.11928818 -0.09484619 0.17126542 0.11897903 0.17319785 -0.2574924
0.109088205 0.108755164 -0.1656513 0.17066705 0.102639385 -0.097578436 -0.10589286 -0.07899466
0.08424819 0.05213598 -0.04557195 0.07900363 0.05468981 0.08746375 -0.00894743 -0.05795866
0.039650846 0.03232135 -0.009716806 -0.0922528 -0.046140585 -0.042358 0.07346819 0.0023058779
-0.03806311 0.03227022 0.060351238 0.024585994 -0.070949495 0.012190842 0.016865164 0.073719166
-0.018928906 -0.04026658 -0.07607389 0.1224437 0.0378978 0.0146624185 -0.09395745 0.118184246
0.037360057 0.032874823 -0.1103571 0.0011641172 -0.071030006 -0.1161888 -0.08589692 0.06104091
0.22777359 -0.1270638 0.03736841 0.045387153 0.055334914 0.07042599 -0.062453166 0.09801557
0.048125535 0.08155364 -0.11144609 0.03381714 0.12143812 0.12511677 0.106879406 -0.08553129
-0.043240845 -0.1061481 -0.0371022 0.100338094 -0.1320028 0.0150913345 0.055675443 -0.0791921
-0.012689156 -0.0059136935 0.029772958 -0.023759188 -0.01702526 -0.1125963 0.016849954 0.12602921
-0.0059957746 0.041794047 -0.253992 -0.09537674 -0.030040134 -0.044327166 0.018869873 -0.06391111
0.030799346 -0.032299746 -0.09351547 -0.10127009 -0.04744932 0.10624043 0.0302876 -0.09807402
0.03355366 0.013547787 0.072424084 0.059142526 0.040367838 0.11870031 -0.021000935 -0.010402776
0.11125778 -0.22090529 -0.15374443 -0.18976447 -0.15088353 -0.26350102 -0.2406346 -0.20221213
-0.17815807 0.17765842 -0.19623736 -0.23213834 0.13576928 -0.22430876 0.22496374 0.21920584
-0.20014891 -0.18777305 -0.04802805 -0.19485581 0.20171861 -0.17410634 -0.10505364 0.17075036
-0.077306144 -0.21668158 -0.2930048 0.21070383 0.16343066 -0.31332 -0.27607438 0.23144501
0.20706965 0.28512976 0.09603679 -0.0071677607 -0.26649967 0.32132605 -0.31304342 -0.24593337
0.32203305 0.20683546 -0.2543349 -0.30900523 0.030215971 -0.20745778 0.13768995 -0.3328487
0.26215565 -0.25117067 0.20064563 -0.13963562 -0.2326181 0.11932456 -0.26225212 -0.14921477
00000000: 7ac1 6d3e 2d26 16be 0fd4 7abe 1f6a 03be
00000010: 353a 2fbe 4484 70be 083a 91be e7dc 02be
00000020: 6284 0cbe 4412 273e a77d 85bd aba4 5abe
00000030: 6bae 093e 4318 8bbe ec40 883e 676f 6b3e
00000040: 3954 28be 42e7 42be 21bd 13be 4d0a f2bd
00000050: 5419 753e 676e 5cbe aee0 7ebe f64a 843e
00000060: 4fc6 e7bd 6d7f 0dbe 7f07 0dbe 5a71 573e
00000070: 0356 6e3e 2f8d 7abe 353f 02be c0dc 833e
00000080: ae68 ef3d 832b 873e 27c1 da3d 56ca 08be
00000090: 310b 63be b573 453e e400 70be c2a2 a5be
000000a0: 40c5 143e f5ab 473e f999 83be f9f4 e3bd
000000b0: 1e79 fc3c d4bd 20be 4563 603e b193 98be
000000c0: 2cda a43e aa73 90be 641b 203e 97e8 dcbd
000000d0: ed41 49be fa13 963d 11cb 89be a00d 4fbe
000000e0: 2903 fdbc b4b9 3e3e a62c f4bd eb63 78be
000000f0: 5534 3dbe e394 a6be 2193 b0bd 91ed f9bd
00000100: 28c5 a6be ac2b 8e3e 2d35 55bd 73cb 03be
00000110: f23c 93be d033 d83c 3cac 6e3c abd4 953e
00000120: 6f06 02bd 80eb a5be 7241 6bbe 7f28 d1bd
00000130: 7e84 28bd 0099 013e fb24 9ebe fb88 7e3e
00000140: ff0b 50be 9694 8b3e 0bb4 8c3e 198e 9bbe
00000150: 9353 283e 1afe d63d 67de 9fbe f608 29be
00000160: c9f7 063e 0971 593e 5c4d f43d b83e c2bd
00000170: 3460 2f3e 47ab f33d c75a 313e 0bd6 83be
00000180: a369 df3d 07bb de3d 7fa0 29be 58c3 2e3e
00000190: 9934 d23d 34d7 c7bd 5bde d8bd f4c7 a1bd
000001a0: 518a ac3d 8a8c 553d a7a9 3abd a8cc a13d
000001b0: 6c02 603d 3220 b33d 3e98 12bc 0f66 6dbd
000001c0: ed68 223d 6463 043d 3d33 1fbc 09ef bcbd
000001d0: e9fd 3cbd 957f 2dbd 7e76 963d 361e 173b
000001e0: 10e8 1bbd c72d 043d dc32 773d 9168 c93c
000001f0: f84d 91bd 19bc 473c d028 8a3c 13fa 963d
00000200: cb10 9bbc 92ee 24bd a1cc 9bbd c3c3 fa3d
00000210: b93a 1b3d a43a 703c c36c c0bd 950a f23d
00000220: dc06 193d c0a7 063d e702 e2bd 4b95 983a
00000230: 2e78 91bd 65f4 edbd b9ea afbd 0906 7a3d
00000240: 7b3d 693e 031d 02be 9e0f 193d e1e7 393d
00000250: dda6 623d 803b 903d e4ce 7fbd 63bc c83d
00000260: 481f 453d 9805 a73d d93d e4bd d783 0a3d
00000270: 8db4 f83d 9c1e 003e 97e3 da3d 072b afbd
00000280: 501d 31bd 2d64 d9bd 7af8 17bd 0f7e cd3d
00000290: be2b 07be a541 773c ef0b 643d 782f a2bd
000002a0: 2ee6 4fbc a8c7 c1bb 6be6 f33c a1a2 c2bc
000002b0: 8f78 8bbc e498 e6bd ea08 8a3c cd0d 013e
000002c0: 3478 c4bb 3c30 2b3d 3d0b 82be e154 c3bd
000002d0: ba16 f6bc 6790 35bd fe94 9a3c d4e3 82bd
000002e0: e94e fc3c bd4c 04bd 0a85 bfbd b166 cfbd
000002f0: 385a 42bd 9594 d93d b31d f83c 08db c8bd
00000300: 906f 093d 8af7 5d3c 1453 943d 6f3f 723d
00000310: bf58 253d 2619 f33d 270a acbc 6870 2abc
00000320: 1edb e33d ff34 62be 2e6f 1dbe 9e51 42be
00000330: 3681 1abe 9be9 86be eb68 76be b210 4fbe
00000340: 126f 36be 17ec 353e 72f2 48be acb5 6dbe
00000350: 1a07 0b3e 32b1 65be e55c 663e 7f77 603e
00000360: d6f3 4cbe 9447 40be 10b9 44bd 4888 47be
00000370: 538f 4e3e ef48 32be 5d26 d7bd 2fd9 2e3e
00000380: af52 9ebd c7e1 5dbe ba04 96be bfc2 573e
00000390: 5e5a 273e 7b6b a0be 9f59 8dbe ecff 6c3e
000003a0: 110a 543e 87fc 913e f0ae c43d 89df eabb
000003b0: a572 88be d984 a43e 3a47 a0be f5d5 7bbe
000003c0: 84e1 a43e adcc 533e 2f38 82be ef35 9ebe
000003d0: 7c87 f73c d06f 54be 98fe 0c3e 256b aabe
000003e0: 4439 863e 7199 80be 0c76 4d3e a4fc 0ebe
000003f0: 7033 6ebe 6f60 f43d e945 86be c2cb 18be

bias f4 [100]
0.21089776 0.03471727 0.20389064 0.01292979 -0.027431354 -0.059050553 -0.07649022 -0.10555446
-0.039455753 0.07196723 -0.29097626 -0.109004624 0.0118519915 -0.123279795 0.03253926 -0.062187076
-0.021329395 -0.13206828 -0.010886189 -0.046153333 -0.06324375 0.02298351 -0.0027448982 0.022543462
0.048276506 -0.028221648 -0.039177723 0.040230587 -0.077084266 -0.2117974 -0.18560521 0.107015476
-0.04824119 -0.14320141 -0.0747612 0.044646796 -0.07392886 -0.19440694 -0.08224672 -0.044928398
-0.023688149 0.0449014 -0.049006164 0.27756828 -0.1632982 -0.097848535 0.25483295 -0.12701932
-0.06560442 0.10912405 -0.10399388 -0.04336099 0.07914861 0.17139105 0.12273536 -0.022748206
-0.025657244 0.018994883 -0.033938404 0.071511716 -0.06481366 -0.07166026 -0.15653022 -0.0808807
0.023953548 0.17935096 -0.09324449 -0.033577092 0.0019089773 -0.059739213 0.031282056 -0.16140336
-0.07947626 0.24264589 -0.22649276 0.11886954 -0.17010517 0.027106613 0.024786446 0.0754114
-0.22952749 0.055416152 0.15677883 -0.091808036 0.0972934 -0.14975187 -0.034497052 -0.032478742
-0.09910769 0.08841899 -0.05098323 -0.12882806 0.017475102 0.052520156 0.03394123 -0.03812772
0.08605329 0.036716647 0.08938176 -0.040228836
00000000: 95f5 573e b233 0e3d b5c8 503e 78d7 533c
00000010: b8b7 e0bc fede 71bd e8a6 9cbd f02c d8bd
00000020: 5b9c 21bd 8e63 933d d7fa 94be d13d dfbd
00000030: db2e 423c 1e7a fcbd e347 053d e0b7 7ebd
00000040: fcba aebc e83c 07be fc5b 32bc 470b 3dbd
00000050: f085 81bd ea47 bc3c c0e3 33bb 11ad b83c
00000060: 96bd 453d 1631 e7bc d278 20bd d4c8 243d
00000070: 5bde 9dbd 6be1 58be 4b0f 3ebe ee2a db3d
00000080: 8e98 45bd 64a3 12be 661c 99bd 8fdf 363d
00000090: 0468 97bd 9d12 47be f870 a8bd d706 38bd
000000a0: a60d c2bc 88ea 373d b0ba 48bd 6e1d 8e3e
000000b0: a537 27be d064 c8bd 7779 823e 5a11 02be
000000c0: 9c5b 86bd 6e7c df3d befa d4bd 4b9b 31bd
000000d0: ab18 a23d 2381 2f3e ad5c fb3d 725a babc
000000e0: 242f d2bc 289b 9b3c ff02 0bbd bc74 923d
000000f0: 06bd 84bd 9dc2 92bd 7549 20be c8a4 a5bd
00000100: 3b3a c43c c7a7 373e f8f6 bebd 2288 09bd
00000110: a636 fa3a 1bb1 74bd 9d21 003d ec46 25be
00000120: 73c4 a2bd 2a78 783e b8ed 67be e071 f33d
00000130: 0d30 2ebe b00e de3c f20c cb3c 4b71 9a3d
00000140: 4109 6bbe 0cfc 623d a18a 203e da05 bcbd
00000150: c341 c73d 8e58 19be c84c 0dbd 6e08 05bd
00000160: f9f8 cabd 0415 b53d cbd3 50bd 81eb 03be
00000170: f227 8f3c 601f 573d f605 0b3d d02b 1cbd
00000180: b53c b03d 3264 163d c90d b73d fec6 24bd

weight f4 [1, 100]
0.19541694 -0.00055312016 0.22603552 -0.04926284 -0.113123775 3.290096e-05 -0.09791067 -0.04339539
1.9486322e-05 -0.07682014 -1.0590863 -0.012897261 -0.0006828904 -0.061109304 -0.07220317 0.00055835146
-0.016539795 -0.006582795 -0.103204586 -0.23831655 -0.13375898 -0.11738326 0.00017632013 -0.057212044
0.00044184795 0.00015316498 -0.00013518766 -1.3693991e-05 -0.043752804 -0.7924138 0.000672239 0.0004186641
0.0013006821 -0.5760942 -0.004675142 0.00017477173 -0.064028814 -0.005621594 -0.059941974 0.055242795
-0.00010951741 -0.00068571314 0.004828008 0.20000671 -0.12492768 -0.17979716 0.23827955 -0.072214074
-0.037578933 0.00014029129 -0.1168901 0.00016268174 0.032216974 0.0320027 0.00015787475 0.1451836
-0.07313256 -0.08871067 0.00045377674 8.994263e-05 0.00097677 -0.32736665 -0.08547072 -0.053244423
-0.07606233 0.002492442 -0.13571264 0.00012909179 9.283483e-05 -0.027173772 0.0002487369 -0.0030849674
-0.035073433 0.16859294 -0.008163885 0.1482539 -0.006412287 -0.12057438 0.0043697427 0.00037199317
-0.0076133865 8.5480504e-05 0.15297621 -0.07474397 -0.00054202403 -0.06676253 0.024175782 -0.10453159
0.0009530536 6.568993e-05 -3.8663005e-05 -0.062719636 6.128076e-06 -0.00014532503 -0.07543471 0.08826512
-0.000664087 0.0002170394 4.1082632e-05 -0.00035829496
00000000: 611b 483e 44ff 10ba db75 673e d5c7 49bd
00000010: 70ad e7bd 23ff 0938 6485 c8bd 5dbf 31bd
00000020: 8f76 a337 e153 9dbd 2490 87bf 094f 53bc
00000030: 0004 33ba c04d 7abd 41df 93bd 555e 123a
00000040: 777e 87bc 7db4 d7bb ed5c d3bd 4109 74be
00000050: 1df8 08be a266 f0bd 93e2 3839 2d57 6abd
00000060: d4a7 e739 e99a 2039 29c1 0db9 3ebf 65b7
00000070: 2436 33bd a1db 4abf 3239 303a 2580 db39
00000080: a67b aa3a e97a 13bf ef31 99bb ee42 3739
00000090: 8a21 83bd 5935 b8bb b785 75bd 4546 623d
000000a0: b6ac e5b8 6ec1 33ba 4434 9e3b 8fce 4c3e
000000b0: 15da ffbd bf1c 38be 8eff 733e f9e4 93bd
000000c0: 5eec 19bd 281b 1339 1464 efbd 8c95 2a39
000000d0: f2f5 033d 4315 033d 2e8b 2539 02ab 143e
000000e0: 86c6 95bd f1ad b5bd e2e8 ed39 959f bc38
000000f0: f606 803a 9a9c a7be 460b afbd d316 5abd
00000100: 91c6 9bbd 3d58 233b 41f8 0abe d05c 0739
00000110: 52b0 c238 889b debc e768 8239 2a2d 4abb
00000120: 29a9 0fbd a1a3 2c3e d1c1 05bc dfcf 173e
00000130: 291e d2bb b3ef f6bd 0f30 8f3b 1408 c339
00000140: b779 f9bb ff43 b338 cca5 1c3e 5e13 99bd
00000150: 9e16 0eba cbba 88bd 4a0c c63c a914 d6bd
00000160: 58d6 793a 03c3 8938 162a 22b8 2773 80bd
00000170: c69f cd36 6462 18b9 837d 9abd 58c4 b43d
00000180: 2016 2eba 1295 6339 2450 2c38 89d9 bbb9

weight f4 [100, 2]
0.652655 0.48840606 -0.012213881 -0.39825806 -0.33450752 0.35771522 -0.39438123 0.4684289
-0.4123371 -0.39125395 0.42736098 -0.33757046 0.30972326 0.5971242 0.26373982 0.47943348
0.42364147 -0.48255593 0.15059462 0.1611473 0.5596917 -0.59766585 0.5769947 0.061538078
0.4087394 -0.444322 -0.110658154 0.42428884 0.58899033 0.0026765855 0.1498606 0.12541236
0.30463386 0.05269306 0.6502164 0.08778578 -0.3910655 0.22341579 -0.63364184 0.21649782
0.38220575 0.47716385 -0.41382086 0.31700924 0.48542532 -0.028693259 -0.099845916 0.0132972235
-0.12669486 -0.1887659 -0.59414595 0.6732941 0.41314656 0.3295232 -0.030926801 -0.2728387
-0.12463992 0.15125817 0.02219813 0.037547853 0.26003805 -0.6291172 -0.48286095 -0.3052047
-0.18586777 0.030749224 0.61626107 0.20128955 -0.029656112 -0.076142475 -0.11234819 -0.013381143
-0.020028334 -0.38274682 0.5628698 -0.43959203 -0.5717843 0.5879315 -0.1506541 -0.16290739
-0.41755775 -0.3287558 -0.5794487 0.09302543 0.20032795 -0.23948132 -0.492836 0.47803247
-0.46786687 0.64114034 0.17866775 -0.67051905 -0.62788343 -0.59300846 -0.018840507 -0.62615585
0.4313091 0.6250239 0.08700755 0.67027485 -0.4997003 -0.3776418 -0.09179071 -0.209876
-0.44566494 -0.16528592 -0.6540407 0.60189664 0.5890019 -0.50736046 0.078746766 -0.54470444
0.27232945 -0.20609152 0.6372216 0.62163067 0.23894736 -0.47854614 -0.45447665 -0.4253978
-0.07350844 0.64286083 -0.38994554 -0.07381736 -0.10045899 0.54148 0.011268126 0.17366135
-0.103912875 -0.54654765 -0.40360165 0.094892815 -0.19606717 -0.0073395595 -0.14945236 -0.47336653
0.39381856 0.5351964 -0.543296 0.57717067 0.020161841 -0.01262282 -0.47543672 0.46387184
0.3553758 -0.61337525 0.47182223 0.58408207 -0.096708454 0.17423323 -0.44742405 -0.24411657
0.4682663 -0.47222504 0.23764834 -0.031216053 -0.03742248 0.43528628 -0.46757522 0.6462723
0.34437853 0.009304852 0.020540923 -0.23532708 0.500088 -0.55042195 0.58995944 0.52537364
0.59655493 -0.4762199 -0.53747416 0.691093 0.3920117 0.009231297 0.3071329 0.5497286
0.2571176 0.15141551 0.012423727 0.49488783 -0.01912518 0.34875187 -0.034358952 0.45695722
-0.27860522 0.2155316 -0.05136892 -0.005687299 -0.18906409 0.3387367 -0.017029513 0.33216444
0.28683063 0.3603945 -0.3268307 -0.020464024 -0.56349 0.44755396 -0.66466403 0.0024091545
00000000: 6614 273f 5c10 fa3e bb1c 48bc 7be8 cbbe
00000010: 9244 abbe 7326 b73e 56ec c9be ead5 ef3e
00000020: d91d d3be 7052 c8be 0fcf da3e 09d6 acbe
00000030: 0c94 9e3e 22dd 183f e808 873e 4e78 f53e
00000040: 89e7 d83e 9211 f7be 7a35 1a3e cc03 253e
00000050: f547 0f3f a100 19bf edb5 133f 5a0f 7c3d
00000060: 4a46 d13e 2c7e e3be bea0 e2bd 633c d93e
00000070: 12c8 163f a769 2f3b 0f75 193e 196c 003e
00000080: f8f8 9b3e aed4 573d 9574 263f 08c9 b33d
00000090: bd39 c8be 1cc7 643e 5a36 22bf 9bb1 5d3e
000000a0: 79b0 c33e d24e f43e 54e0 d3be 094f a23e
000000b0: ab89 f83e 200e ebbc 047c ccbd 99dc 593c
000000c0: 4cbc 01be d94b 41be f319 18bf 015d 2c3f
000000d0: f287 d33e 44b7 a83e 345a fdbc 84b1 8bbe
000000e0: 3743 ffbd 6ce3 1a3e dad8 b53c c7cb 193d
000000f0: b523 853e d30d 21bf 8d39 f7be ca43 9cbe
00000100: 1f54 3ebe cce5 fb3c 49c3 1d3f d91e 4e3e
00000110: 60f1 f2bc 96f0 9bbd cf16 e6bd 953c 5bbc
00000120: 7612 a4bc 64f7 c3be 3c18 103f 3512 e1be
00000130: 7560 12bf ae82 163f 1245 1abe 32d1 26be
00000140: 21ca d5be ae52 a8be c056 14bf 1e84 be3d
00000150: c522 4d3e 973a 75be 0055 fcbe acc0 f43e
00000160: 3f8c efbe c621 243f aef4 363e 23a7 2bbf
00000170: f8bc 20bf 67cf 17bf 6857 9abc c04b 20bf
00000180: 8cd4 dc3e 9101 203f 0431 b23d 2297 2b3f
00000190: b8d8 ffbe 445a c1be c5fc bbbd bce9 56be
000001a0: 322e e4be b640 29be 366f 27bf e615 1a3f
000001b0: d4c8 163f 60e2 01bf fc45 a13d c071 0bbf
000001c0: c46e 8b3e a809 53be f420 233f 3023 1f3f
000001d0: 9eae 743e 0004 f5be 2ab1 e8be becd d9be
000001e0: 988b 96bd 8792 243f f1a6 c7be 8e2d 97bd
000001f0: 71bd cdbd 6f9e 0a3f f29d 383c 48d4 313e
00000200: 46d0 d4bd 8cea 0bbf e0a4 cebe 2a57 c23d
00000210: d5c5 48be b080 f0bb 0a0a 19be 195d f2be
00000220: 96a2 c93e a202 093f 7215 0bbf 75c1 133f
00000230: 722a a53c f2cf 4ebc 716c f3be 9c80 ed3e
00000240: d1f3 b53e 2906 1dbf af92 f13e 6786 153f
00000250: 150f c6bd 326a 323e c414 e5be b2f9 79be
00000260: 9ac0 ef3e 7bc7 f1be 165a 733e cfb8 ffbc
00000270: 5048 19bd d8dd de3e 0566 efbe 1a72 253f
00000280: 6252 b03e 6173 183c 7045 a83c 95f9 70be
00000290: c405 003f 74e8 0cbf 9507 173f e37e 063f
000002a0: d3b7 183f 18d3 f3be e897 09bf 79eb 303f
000002b0: c2b5 c83e de3e 173c 8640 9d3e 03bb 0c3f
000002c0: eba4 833e ab0c 1b3e e38c 4b3c f061 fd3e
000002d0: 69ac 9cbc 9b8f b23e f9bb 0cbd 4cf6 e93e
000002e0: 58a5 8ebe 51b4 5c3e 3768 52bd 865c babb
000002f0: 049a 41be e66e ad3e 7a81 8bbc 7511 aa3e
00000300: 77db 923e a185 b83e 5a56 a7be 2ba4 a7bc
00000310: e140 10bf cb25 e53e 6c27 2abf e8e2 1d3b

bias f4 [100]
-0.5059939 -0.72359985 0.25496313 -0.39343816 0.31956404 -0.6980603 0.44826928 0.27838546
-0.0036640659 -0.33634543 -0.32951865 0.24998805 -0.12089657 0.2948824 -0.4311117 -0.6250204
0.25933027 -0.6906168 -0.19018625 0.45643917 0.40635931 -0.51910174 0.43987384 0.13519008
0.28585362 -0.07425602 0.28989363 0.37588415 -0.5701598 -0.19988085 -0.45471135 -0.6305759
-0.5546667 -0.2615993 -0.24483137 -0.33393753 -0.016607579 0.13487808 -0.6887191 -0.2980686
-0.6822172 0.024115836 -0.4753458 0.61071426 -0.49082118 -0.008002373 -0.29530388 0.30083147
0.54384834 0.36740068 -0.62324005 -0.41077834 0.5401048 0.41163492 -0.269908 0.027666762
-0.379139 -0.59022677 -0.034998585 0.5143504 -0.4194969 -0.50366944 -0.46244827 -0.37671447
0.41514972 -0.6150185 -0.7169137 -0.67531824 0.36038095 0.1838163 0.028037472 -0.31662747
-0.21558535 -0.71613705 0.46525818 -0.61221796 -0.5378613 0.35030738 -0.42773613 0.39096946
-0.6084488 -0.47470006 0.09453208 0.12497806 -0.42361453 0.37348488 0.106169306 -0.5912587
-0.11851521 0.36929303 0.20783423 -0.2352349 -0.16150771 -0.08278423 -0.05959864 -0.020153092
-0.28047925 0.2507177 -0.46371976 -0.15940262
00000000: d188 01bf d73d 39bf 878a 823e ba70 c9be
00000010: e69d a33e 14b4 32bf 8d83 e53e 8a88 8e3e
00000020: d320 70bb 7835 acbe abb6 a8be defc 7f3e
00000030: 9f98 f7bd d3fa 963e acba dcbe 5601 20bf
00000040: f0c6 843e 43cc 30bf 2fc0 42be 65b2 e93e
00000050: 540e d03e dae3 04bf 2537 e13e 456f 0a3e
00000060: 685b 923e 8a13 98bd f06c 943e e373 c03e
00000070: fef5 11bf 91ad 4cbe edcf e8be 6c6d 21bf
00000080: a3fe 0dbf 58f0 85be 13b5 7abe dcf9 aabe
00000090: 9e0c 88bc 7b1d 0a3e e54f 30bf 739c 98be
000000a0: c9a5 2ebf 938e c53c 8660 f3be c557 1c3f
000000b0: ea4c fbbe 631c 03bc 1232 97be 9506 9a3e
000000c0: a539 0b3f f11b bc3e a98c 1fbf 8a51 d2be
000000d0: 4f44 0a3f d0c1 d23e 6231 8abe 68a5 e23c
000000e0: 821e c2be 1a19 17bf ad5a 0fbd 78ac 033f
000000f0: 4cc8 d6be 7bf0 00bf 05c6 ecbe b8e0 c0be
00000100: 818e d43e da71 1dbf a887 37bf a8e1 2cbf
00000110: da83 b83e 573a 3c3e d7ae e53c ff1c a2be
00000120: 68c2 5cbe c254 37bf 5236 ee3e 51ba 1cbf
00000130: 47b1 09bf 7d5b b33e 3b00 dbbe 262d c83e
00000140: 4dc3 1bbf e30b f3be 099a c13d 7ff4 ff3d
00000150: 01e4 d8be 6939 bf3e 4b6f d93d bb5c 17bf
00000160: 1ab8 f2bd fa13 bd3e 7fd2 543e 6be1 70be
00000170: 4762 25be c78a a9bd b41d 74bd 1918 a5bc
00000180: fa9a 8fbe 125e 803e ad6c edbe 713a 23be

weight f4 [100, 100]
-0.094005965 0.04886254 -0.09179604 0.09119195 -0.093185894 -0.09163549 -0.09137683 -0.091611676
0.092388995 -0.084363684 -0.093263656 -0.09731688 -0.09333197 -0.08028535 -0.096061826 -0.08395292
0.09224472 -0.09374717 -0.09225528 -0.094860256 -0.08946637 0.081111304 0.084494956 0.0796901
-0.07367007 0.0946151 -0.07853039 0.057340167 0.08027833 -0.069662206 -0.08779959 -0.09405487
-0.0713232 0.09566666 -0.058132753 -0.079586826 -0.067547716 0.08609873 0.0935263 -0.08246732
-0.092022926 -0.094462596 -0.0847654 -0.09382305 0.0767379 0.07816637 -0.09593589 0.064320825
-0.09297066 0.06941652 -0.09253274 0.07466899 0.08478962 0.095775045 -0.07575113 -0.0747921
-0.07797847 0.0939402 0.09129058 -0.09330512 0.07085045 0.091682814 -0.07441245 0.053843677
-0.07854584 0.09266223 0.08585397 0.08066842 0.09213558 -0.08522544 0.0494586 0.090755485
0.09286306 -0.09420428 -0.07935171 -0.094409265 0.09444413 -0.08919287 0.07258443 -0.09343322
-0.091039985 -0.04860815 -0.094417945 -0.095787376 -0.09383425 0.093972616 0.09067128 0.08855772
0.08933306 -0.058589615 0.07410635 -0.057189103 0.09025409 0.07908274 0.08827059 -0.069682576
0.090470985 -0.09170627 -0.09324903 -0.09511525 0.00015710972 0.005413707 -0.0003133927 0.00079250557
-0.00029915018 -0.0005527008 0.0022813932 0.00012905539 0.0006174318 -9.77494e-05 0.0001931153 -7.8064586e-05
0.00021859031 -0.004656923 -0.00019784758 -3.5395708e-05 0.00084404787 -0.0097295055 0.00014924229 0.00017925366
8.6098735e-05 -0.0005204451 0.0007267562 0.0017039764 -0.0008516241 -0.00049925834 4.67405e-05 -0.0030662108
-0.0004326723 -0.0018341908 0.00025160078 0.00096758 -0.0007875828 -0.00052672275 -0.0032992857 -0.000200965
0.009575864 0.00030976563 -0.0008584501 -0.0005640847 -0.0003509556 -0.00015413512 -8.9345565e-05 -0.008038613
-0.0001962399 0.0002032971 -0.00014833109 -0.0033040133 0.00069283386 -0.00022491485 -0.0016670296 0.00164096
0.001858041 4.5028668e-05 7.65224e-05 0.0009451898 0.00035618528 0.00010780358 -0.00018442984 0.0015831973
0.00066473975 -0.0005953595 -0.0008114227 -0.0030685177 0.000744886 0.0002650409 0.0008323662 7.799103e-05
-0.00024095105 -0.0007628757 -0.0030802279 -0.010462794 0.00025279445 0.000591989 0.00087946403 -3.8873703e-05
0.0006341779 -0.00013124723 8.77851e-05 0.0006931906 0.00014813943 0.0016400919 0.00043564587 -0.0010949835
0.00018031964 0.00065405556 0.0006408064 -0.00066059094 -0.0009524347 0.0013224493 0.0015221138 0.0031012713
0.00066378334 0.0024339177 8.2472834e-05 -0.0009959231 -0.0006155032 -0.00023288355 -0.0011145504 -0.0102435965
-0.0018701606 -0.0004040362 0.00021959374 0.020735478 -0.019532979 0.0003722865 -0.0006288433 0.014317242
-0.00487329 0.0015509512 0.02088231 -0.00042356647 0.00023739452 0.00058005913 0.006748329 0.00054180657
0.0045478265 -0.00015203426 -0.0006340998 0.01691852 0.0017774372 0.0013103596 -0.0010201219 -0.00036524097
0.0016045374 0.00044063467 -0.00087482884 0.00041671997 0.00054673856 0.0013657612 0.00029319865 -0.018259183
-0.0013758545 -0.00092345406 -0.0006112397 -6.84598e-05 0.00010607651 -0.007265798 0.00014258761 0.0067571076
0.013684417 0.0019295308 -0.0015730553 0.0013085132 0.00020974068 -0.00064550847 -0.02427376 0.0009838678
0.0017504678 0.0004437729 -0.014966426 -0.00030098273 -0.00019950377 -0.00082481536 -0.011175485 -0.0010038926
00000000: 3386 c0bd 1624 483d 90ff bbbd d8c2 ba3d
00000010: 3fd8 bebd 63ab bbbd c723 bbbd e79e bbbd
00000020: 7136 bd3d dec6 acbd 0401 bfbd 134e c7bd
00000030: d524 bfbd a56c a4bd 10bc c4bd 82ef abbd
00000040: cdea bc3d 84fe bfbd 56f0 bcbd 1846 c2bd
00000050: 253a b7bd af1d a63d b10b ad3d 9034 a33d
00000060: 55e0 96bd 90c5 c13d 8bd4 a0bd 86dd 6a3d
00000070: f768 a43d 0fab 8ebd 45d0 b3bd d79f c0bd
00000080: e611 92bd e2ec c33d 9c1c 6ebd 6bfe a2bd
00000090: 7556 8abd 8854 b03d b78a bf3d a0e4 a8bd
000000a0: 8476 bcbd 9b75 c1bd 7b99 adbd 4d26 c0bd
000000b0: c328 9d3d b115 a03d 097a c4bd a3ba 833d
000000c0: 6767 bebd 402a 8e3d ce81 bdbd 0eec 983d
000000d0: 2ea6 ad3d b525 c43d 6923 9bbd 9a2c 99bd
000000e0: 2db3 9fbd b863 c03d 8ef6 ba3d c116 bfbd
000000f0: 0a1a 913d 33c4 bb3d 8e65 98bd 308b 5c3d
00000100: a4dc a0bd b2c5 bd3d 35d4 af3d 7c35 a53d
00000110: 94b1 bc3d ad8a aebd 1a95 4a3d 03de b93d
00000120: fd2e be3d 2cee c0bd 2683 a2bd a559 c1bd
00000130: ed6b c13d c0aa b6bd 25a7 943d eb59 bfbd
00000140: 2c73 babd 5719 47bd 325e c1bd 2c2c c4bd
00000150: 2c2c c0bd b774 c03d ddb1 b93d c05d b53d
00000160: 40f4 b63d aafb 6fbd 12c5 973d 1f3f 6abd
00000170: 23d7 b83d 22f6 a13d 36c7 b43d bdb5 8ebd
00000180: da48 b93d 7fd0 bbbd 59f9 bebd c9cb c2bd
00000190: d2bd 2439 7765 b13b db4e a4b9 26c0 4f3a
000001a0: 42d7 9cb9 1fe3 10ba 6d83 153b 0b53 0739
000001b0: 26db 213a cffe ccb8 fe7e 4a39 9bb6 a3b8
000001c0: 6435 6539 1a99 98bb 4e75 4fb9 da75 14b8
000001d0: 1843 5d3a 8168 1fbc ec7d 1c39 0af6 3b39
000001e0: e88f b438 7b6e 08ba c883 3e3a f657 df3a
000001f0: 873f 5fba a9e0 02ba 3b0b 4438 7bf2 48bb
00000200: 4bd8 e2b9 3b69 f0ba 49e9 8339 32a5 7d3a
00000210: c975 4eba c413 0aba d438 58bb 22ba 52b9
00000220: 16e4 1c3c 0a68 a239 9c09 61ba 15df 13ba
00000230: 7700 b8b9 559f 21b9 095f bbb8 63b4 03bc
00000240: bfc5 4db9 262c 5539 5389 1bb9 2588 58bb
00000250: 4b9f 353a 1fd7 6bb9 3b80 daba 7b15 d73a
00000260: 8389 f33a 2add 3c38 a77a a038 9dc6 773a
00000270: 61be ba39 9b14 e238 8263 41b9 4983 cf3a
00000280: ee41 2e3a e611 1cba a8b5 54ba 2f19 49bb
00000290: 7444 433a 30f5 8a39 2633 5a3a 1e8f a338
000002a0: cea7 7cb9 b9fb 47ba a6dd 49bb 246c 2bbc
000002b0: 7f89 8439 b62f 1b3a d58b 663a 520c 23b8
000002c0: f53e 263a 699f 09b9 4419 b838 3cb7 353a
000002d0: e055 1b39 5af8 d63a 6667 e439 8d85 8fba
000002e0: 2f14 3d39 ed74 2b3a cafb 273a 822b 2dba
000002f0: d0ac 79ba 0956 ad3a aa81 c73a b33e 4b3b
00000300: bf01 2e3a 5d82 1f3b 44f5 ac38 a289 82ba
00000310: b859 21ba 3432 74b9 1b16 92ba c2d4 27bc
00000320: 2d20 f5ba d2d4 d3b9 bf42 6639 73dd a93c
00000330: a003 a0bc 732f c339 f6d8 24ba de92 6a3c
00000340: 1fb0 9fbb 4949 cb3a 6111 ab3c 2112 deb9
00000350: 1bed 7839 1c0f 183a 1621 dd3b 0608 0e3a
00000360: ef05 953b 636b 1fb9 b839 26ba b598 8a3c
00000370: e5f8 e83a 5fc0 ab3a 9cb5 85ba d07d bfb9
00000380: 574f d23a fc04 e739 c554 65ba 357b da39
00000390: 0153 0f3a 5703 b33a 75b8 9939 4894 95bc
000003a0: 0456 b4ba f413 72ba 9a3b 20ba 1392 8fb8
000003b0: 6575 de38 ee15 eebb 9283 1539 ba6a dd3b
000003c0: 9b34 603c 4fe8 fc3a fa2e ceba 6b82 ab3a
000003d0: d6ed 5b39 5737 29ba c4d9 c6bc 20f5 803a
000003e0: f46f e53a 31aa e839 be35 75bc 38cd 9db9
000003f0: e331 51b9 6c38 58ba 6219 37bc 0c95 83ba

bias f4 [100]
0.23819979 -0.051747274 0.21755798 0.0049789906 0.32539794 -0.10484413 0.14863287 0.038886994
0.11976243 0.049010742 0.08058484 0.022352291 0.09382803 0.11172761 0.039820764 0.3881632
-0.016552145 -0.13311559 -0.0024902767 0.31478193 -0.14163211 -0.0047036875 0.19421528 0.19131677
0.041373916 0.4007489 0.0411671 0.45664755 -0.04403459 -0.10244829 -0.020686898 0.0051809205
0.12096466 0.042504195 0.11909342 -0.035968468 0.06380444 0.10340271 -0.0086488845 0.118983775
0.22914815 0.047134027 0.11453124 0.07727519 -0.14304246 0.39432552 0.04957983 0.01273846
-0.090028286 0.22727017 0.22084679 -0.10839333 0.0023502365 -0.12826692 -0.09712803 -0.1458551
-0.14274642 -0.00775597 0.08923089 0.13302071 0.06522255 -0.040642448 0.08468845 0.17370614
-0.16224216 0.017918056 -0.124773026 0.06880991 0.330653 -0.045343556 0.016559403 -0.038516328
0.22251469 -0.18045895 0.15081905 0.040483613 0.47617415 0.31087914 0.056935545 0.25904238
0.42773074 -0.060581982 -0.13346644 -0.098149695 0.018690675 0.14148328 -0.032555103 0.036083236
0.10042624 -0.08619932 -0.0616996 -0.07593914 0.18213369 -0.05854567 0.44924355 0.030808574
-0.032928925 0.076477796 -0.044604372 0.07790049
00000000: a5ea 733e f3f4 53bd 85c7 5e3e cd26 a33b
00000010: 8f9a a63e 85b8 d6bd 3733 183e f847 1f3d
00000020: 0146 f53d 7dbf 483d aa09 a53d 271c b73c
00000030: e928 c03d 72d1 e43d 191b 233d 54bd c63e
00000040: 5d98 87bc 744f 08be e933 23bb 192b a13e
00000050: 0208 11be 6421 9abb 5fe0 463e 8be8 433e
00000060: b277 293d f62e cd3e d59e 283d b5cd e93e
00000070: 9d5d 34bd 69d0 d1bd 9277 a9bc b6c4 a93b
00000080: 52bc f73d e118 2e3d 40e7 f33d ac53 13bd
00000090: e7ab 823d cdc4 d33d 0db4 0dbc c4ad f33d
000000a0: d0a5 6a3e 9c0f 413d 5b8f ea3d 7442 9e3d
000000b0: b979 12be 09e5 c93e 3814 4b3d f9b4 503c
000000c0: c060 b8bd 83b9 683e a925 623e 52fd ddbd
000000d0: 6d06 1a3b 6758 03be 10eb c6bd 0a5b 15be
000000e0: 1e2c 12be cb25 febb afbe b63d 9536 083e
000000f0: 6693 853d b278 26bd 2371 ad3d 06e0 313e
00000100: cf22 26be e3c8 923c 0089 ffbd 36ec 8c3d
00000110: 5a4b a93e 2aba 39bd 96a7 873c 4cc3 1dbd
00000120: e4da 633e 3bca 38be 4f70 1a3e 25d2 253d
00000130: 19cd f33e 8d2b 9f3e 3f35 693d 34a1 843e
00000140: 86ff da3e d024 78bd 6dab 08be b502 c9bd
00000150: 301d 993c fee0 103e 8058 05bd 04cc 133d
00000160: 46ac cd3d 4589 b0bd b8b8 7cbd fb85 9bbd
00000170: 4181 3a3e 96cd 6fbd 4003 e63e 4362 fc3c
00000180: 7be0 06bd 64a0 9c3d 13b3 36bd 4b8a 9f3d

weight f4 [1, 100]
-0.08355107 0.00086590374 0.0021691383 -0.0013989676 0.08371096 -0.00063096563 -0.003887351 0.00095031946
-0.067221396 0.0003953183 -0.00036737122 0.0014478565 -0.0009840784 0.0007780639 0.0065327664 0.07866824
0.00035824778 0.0024568005 0.010701899 -0.010606345 0.0017876052 -0.033497736 0.08443665 0.0014838647
0.0018073567 -0.15488435 0.12172143 -0.13072988 -0.00027583656 -0.00020556654 -0.0003219849 -0.12788433
0.037738554 0.002410312 0.00054306333 0.0023606464 -0.00066320325 -0.0003440501 0.0001660668 -0.12259986
0.15558209 -0.00040125675 0.058696583 0.07258367 0.006620262 -0.14215942 -0.07260419 0.00025898838
0.0067128036 -0.15274924 -0.0019609043 -0.0009105141 -0.0012820204 0.0007480816 -0.0016763945 0.0014643912
0.00015418857 -0.00032833006 0.0006539797 -0.11030926 -0.00018567225 0.0010733223 -0.0010374899 -0.07601465
-0.00073394337 0.0006469709 0.0025855212 -0.08442776 0.1548631 -0.00034966585 -0.004661187 0.00017521945
0.16388775 0.0017431058 0.029294565 -0.0004043181 -0.065963745 -0.14532417 -0.0011035649 -0.15395577
-0.04741508 -0.00033173506 0.0023826312 0.0024390079 -0.00033273883 0.038464136 0.0018798909 -0.00050175056
-0.002413008 -0.0009099383 0.0020020893 -8.467983e-05 -0.035545815 0.002193488 0.1232776 -0.00060612254
0.13191858 0.10366303 -0.00096259185 0.0056535346
00000000: d31c abbd d1fd 623a 1a28 0e3b 905d b7ba
00000010: a770 ab3d 6367 25ba edc2 7ebb dc1e 793a
00000020: 5fab 89bd b942 cf39 bb9b c0b9 01c6 bd3a
00000030: 31fc 80ba fcf6 4b3a d110 d63b d01c a13d
00000040: 34d3 bb39 4602 213b 0557 2f3c 3cc6 2dbc
00000050: 144e ea3a ec34 09bd 1fed ac3d 3d7e c23a
00000060: d4e4 ec3a 019a 1ebe 1649 f93d 0ede 05be
00000070: 289e 90b9 598d 57b9 15d0 a8b9 1cf4 02be
00000080: be93 1a3d 53f6 1d3b 5d5c 0e3a 13b5 1a3b
00000090: d1da 2dba 9f61 b4b9 3822 2e39 a315 fbbd
000000a0: e950 1f3e c55f d2b9 d46b 703d bfa6 943d
000000b0: c8ee d83b 3d92 11be 81b1 94bd d5c8 8739
000000c0: 14f7 db3b 4c6a 1cbe 8482 00bb 91af 6eba
000000d0: 7709 a8ba e81a 443a 77ba dbba d1f0 bf3a
000000e0: aead 2139 b723 acb9 d66f 2b3a d2e9 e1bd
000000f0: 04b1 42b9 b8ae 8c3a 62fc 87ba 92ad 9bbd
00000100: 1b66 40ba 7b99 293a d971 293b 76e8 acbd
00000110: 6f94 1e3e 5b53 b7b9 dfbc 98bb 1dbb 3739
00000120: 31d2 273e ed78 e43a 28fb ef3c a8fa d3b9
00000130: 0018 87bd dccf 14be 7ea5 90ba 95a6 1dbe
00000140: 5136 42bd baec adb9 eb25 1c3b c3d7 1f3b
00000150: 7373 aeb9 928c 1d3d ac66 f63a e987 03ba
00000160: 8e23 1ebb ed88 6eba 7c35 033b 2396 b1b8
00000170: 7d98 11bd 9fc0 0f3b f778 fc3d 32e4 1eba
00000180: aa15 073e 484d d43d 7256 7cba 4941 b93b

weight f4 [100, 2]
0.4379053 -0.5505685 -0.65584964 -0.6340317 -0.4455589 0.20969099 -0.9175133 -0.37388414
-0.9646966 0.28633976 -0.8422913 0.5928469 -0.26373443 -0.43730447 0.8926205 0.1082549
0.03611879 0.29059497 -0.66637444 0.43679655 -0.30916053 -0.67161983 -0.06743631 -0.19493438
-0.4058161 -0.4786694 0.7639363 -0.006634282 -0.09014534 0.61167663 -0.6773201 0.10124687
0.44401327 0.24587819 0.5757984 0.06959848 -0.30247366 0.39538118 0.31143147 -0.03856706
-0.46827984 -0.61063826 -0.3901377 -0.32082853 0.35843387 0.21079458 -0.579107 -0.72047865
-0.6033132 -0.57761663 0.7150648 0.07262951 0.23735896 0.16557206 -0.4417595 -0.48092267
-0.6100207 0.26728308 0.32550544 0.4795428 -0.6218681 -0.00019040992 0.8402775 0.64491624
0.54982704 0.004058464 0.029103633 -0.2871089 -0.73374784 0.52360696 0.56119967 -0.64115024
-0.38216844 0.008083263 -0.29720718 -0.65105945 0.81948215 0.4943628 0.28178632 -0.27439013
0.37351885 -0.07054892 0.20064573 -0.7417433 -0.7727641 -0.2575918 -0.15277109 -0.37964842
-0.87426203 0.18364881 0.14412925 0.2818951 -0.69124824 0.105914906 -0.22787316 0.014811792
0.022002786 0.1069248 0.39990187 0.56180525 0.43207726 0.22664592 0.380198 0.15176727
-0.61469525 0.55279016 -0.8361738 0.28895447 -0.9311832 0.5148805 0.86062443 0.18820532
-0.8116333 -0.31783983 -0.12065109 0.021497466 -0.75014865 0.20366415 -0.32845092 -0.3946503
0.23020396 -0.5196585 -0.75546557 -0.7169584 -0.7465151 -0.3693906 0.15726139 -0.6961911
0.6981049 -0.19748521 -0.7393264 0.016217338 -0.8166876 0.13916203 0.76438123 0.1549731
0.27509597 -0.4974884 0.431765 0.032843646 0.5817311 0.5243169 -0.18788183 -0.5640446
-0.34386417 -0.5330892 0.27357477 -0.061235994 0.16856682 -0.64288265 0.016980948 0.17610405
-0.7142723 0.13573413 0.5276122 0.14459066 -0.6678201 0.4242113 0.351036 -0.082328856
0.19637382 -0.4919526 0.45050922 -0.091831446 0.03544293 -0.41624454 -0.8526572 -0.5412964
0.58439034 0.32633325 -0.37550956 -0.529298 0.6190454 0.25941628 -0.32212186 0.045124464
0.43797526 -0.8655594 0.5745599 0.002553943 0.47368598 0.05193973 0.7142086 0.18838921
-0.20386735 -0.43040615 -0.4929275 0.07854563 0.55067253 0.40037867 0.1438875 0.38357532
-0.094192624 0.59901047 -0.45991537 -0.5370338 -0.7314196 -0.43608564 -0.642692 -0.54882205
00000000: 2035 e03e 0ff2 0cbf c3e5 27bf e74f 22bf
00000010: 4c20 e4be 3cb9 563e 27e2 6abf be6d bfbe
00000020: 5bf6 76bf 209b 923e 67a0 57bf d0c4 173f
00000030: 3308 87be 5fe6 dfbe c782 643f bfb4 dd3d
00000040: 4cf1 133d ddc8 943e 8497 2abf cca3 df3e
00000050: 4a4a 9ebe 47ef 2bbf 0c1c 8abd e19c 47be
00000060: 21c7 cfbe 2814 f5be 5491 433f 6464 d9bb
00000070: 1f9e b8bd d796 1c3f da64 2dbf 855a cf3d
00000080: b555 e33e 7ec7 7b3e 8667 133f a689 8e3d
00000090: d4dd 9abe 676f ca3e f273 9f3e 7ef8 1dbd
000000a0: 60c2 efbe ca52 1cbf 21c0 c7be a343 a4be
000000b0: a584 b73e 89da 573e 5b40 14bf 4a71 38bf
000000c0: bc72 1abf afde 13bf 7d0e 373f c8be 943d
000000d0: 3a0e 733e b98b 293e 4d2e e2be 7f3b f6be
000000e0: 512a 1cbf 54d9 883e a6a8 a63e a286 f53e
000000f0: bf32 1fbf c6a8 47b9 6d1c 573f 3b19 253f
00000100: 77c1 0c3f ddfc 843b be6a ee3c f0ff 92be
00000110: e6d6 3bbf 1b0b 063f c8aa 0f3f 6c22 24bf
00000120: 95ab c3be aa6f 043c 8a2b 98be d5ab 26bf
00000130: 95c9 513f 1f1d fd3e 4c46 903e dd7c 8cbe
00000140: dd3d bf3e f47b 90bd 1376 4d3e e4e2 3dbf
00000150: ded3 45bf 13e3 83be 0670 1cbe 4761 c2be
00000160: a3cf 5fbf 6f0e 3c3e 9e96 133e 8e54 903e
00000170: a5f5 30bf eae9 d83d 9557 69be 29ad 723c
00000180: 303f b43c 64fb da3d f0bf cc3e 78d2 0f3f
00000190: 3b39 dd3e de15 683e 50a9 c23e e168 1b3e
000001a0: ab5c 1dbf a883 0d3f 7c0f 56bf d7f1 933e
000001b0: 0662 6ebf 35cf 033f e251 5c3f e5b8 403e
000001c0: 33c7 4fbf e7bb a2be eb17 f7bd 741b b03c
000001d0: be09 40bf 568d 503e b82a a8be 9b0f cabe
000001e0: 96ba 6b3e 5708 05bf 3166 41bf 968a 37bf
000001f0: 9d1b 3fbf c420 bdbe 2109 213e 9439 32bf
00000200: 01b7 323f 9039 4abe 7f44 3dbf 39da 843c
00000210: 7012 51bf 7e80 0e3e 7dae 433f 45b1 1e3e
00000220: 61d9 8c3e cdb6 febe 4d10 dd3e 0f87 063d
00000230: 54ec 143f a239 063f 1864 40be 3a65 10bf
00000240: f70e b0be 8978 08bf fe11 8c3e 98d2 7abd
00000250: c89c 2c3e f593 24bf a11b 8b3c 9f54 343e
00000260: 8dda 36bf e3fd 0a3e 9811 073f 930f 143e
00000270: 42f6 2abf 3932 d93e feba b33e 089c a8bd
00000280: 3816 493e 36e1 fbbe 25a9 e63e 2012 bcbd
00000290: 9b2c 113d 011e d5be be47 5abf 6792 0abf
000002a0: 9b9a 153f 2715 a73e ca42 c0be 1380 07bf
000002b0: c279 1e3f 36d2 843e 28ed a4be 6ed4 383d
000002c0: 4b3e e03e 4d95 5dbf 5c16 133f 0e60 273b
000002d0: f886 f23e c1be 543d 60d6 363f 1ae9 403e
000002e0: 9ac2 50be 325e dcbe fe60 fcbe 88dc a03d
000002f0: e0f8 0c3f 6ffe cc3e 3f57 133e fc63 c43e
00000300: 10e8 c0bd c058 193f 077a ebbe 0c7b 09bf
00000310: 513e 3bbf 9e46 dfbe 7787 24bf 9a7f 0cbf

bias f4 [100]
0.12065439 0.13172498 0.25410196 -0.35794055 0.5359648 -0.16033968 -0.42868006 -0.5806375
-0.1859915 0.27759844 0.0020550124 0.5194629 -0.6767706 0.37013 -0.35931173 0.49537256
-0.041909665 -0.37153792 0.332633 0.09264836 0.42844957 -0.52683985 0.30525422 0.28339973
-0.10836132 -0.38107318 0.31779814 -0.42231852 -0.5215453 -0.8704893 0.5455857 -0.7462889
-0.049731538 -0.17345718 0.061759334 0.10933765 0.3371976 -0.15269859 0.21343936 0.4626734
0.20920925 -0.32474485 -0.50781894 -0.53667516 -0.4863216 0.15884191 0.3241867 0.0961461
-0.59077084 -0.8266084 -0.6960186 -0.17612469 0.2984454 0.30195633 0.47315624 -0.38607275
-0.33404225 0.33722365 -0.3591341 -0.58625543 -0.6793098 -0.19680838 0.2096875 -0.17408922
0.36588252 0.5581122 -0.23293853 -0.5288368 0.45820725 0.2890312 0.3832728 -0.98140603
-0.0035583808 0.24356125 -0.41844228 -0.195387 0.11308422 -0.34202197 -0.40451318 0.87327725
0.26798105 0.057640605 -0.8273795 0.15365873 0.41357985 -0.33495256 -0.5413068 0.0221395
-0.455925 0.098652884 0.528498 0.46613494 0.28353962 -0.050707847 0.23800713 -0.71924186
-0.7794319 0.36707765 -0.7358275 -0.45177975
00000000: a619 f73d eae2 063e a719 823e fc43 b7be
00000010: fd34 093f 1630 24be f47b dbbe a9a4 14bf
00000020: 8e74 3ebe 6221 8e3e 63ad 063b 85fb 043f
00000030: d740 2dbf ae81 bd3e b5f7 b7be 79a1 fd3e
00000040: 78a9 2bbd 383a bebe df4e aa3e 6cbe bd3d
00000050: be5d db3e fade 06bf 484a 9c3e c519 913e
00000060: 8aec ddbd 061c c3be 70b6 a23e 223a d8be
00000070: fe83 05bf 63d8 5ebf 81ab 0b3f ca0c 3fbf
00000080: 4cb3 4bbd c29e 31be 5bf7 7c3d 6bec df3d
00000090: 2aa5 ac3e 055d 1cbe d98f 5a3e 87e3 ec3e
000000a0: f33a 563e f544 a6be 6c00 02bf 8b63 09bf
000000b0: 25ff f8be 74a7 223e cdfb a53e 3fe8 c43d
000000c0: c23c 17bf 9c9c 53bf 462e 32bf 085a 34be
000000d0: d6cd 983e 059a 9a3e 8941 f23e 54ab c5be
000000e0: 9607 abbe 94a8 ac3e 6de0 b7be d614 16bf
000000f0: 3fe7 2dbf 2388 49be 52b8 563e 7244 32be
00000100: f454 bb3e 71e0 0e3f 7087 6ebe d961 07bf
00000110: 249a ea3e e6fb 933e 553c c43e 6d3d 7bbf
00000120: b933 69bb 1f68 793e 113e d6be 8813 48be
00000130: b398 e73d 811d afbe 5a1c cfbe 198f 5f3f
00000140: d034 893e 8e18 6c3d 25cf 53bf b758 1d3e
00000150: bdc0 d33e e77e abbe 1593 0abf e65d b53c
00000160: 006f e9be 860a ca3d a54b 073f 3da9 ee3e
00000170: 1b2c 913e 08b3 4fbd 24b8 733e 3c20 38bf
00000180: d988 47bf 9af1 bb3e 315f 3cbf ad4f e7be

weight f4 [100, 100]
0.120427184 0.05921012 -0.1415726 0.1320059 -0.13139492 -0.09822016 0.10109485 -0.0676819
-0.142555 -0.0842822 0.11166058 0.0038036616 0.12805983 -0.09270291 -0.102376826 -0.05526727
0.0034831623 0.117924325 -0.16452973 -0.16238873 0.14092045 0.16430916 -0.0066260695 0.03862682
0.14291331 0.030204976 -0.0055948254 0.023983495 -0.0877243 -0.17992945 -0.155812 -0.060418177
0.12146367 0.10340705 -0.1314417 0.07300484 -0.085929506 0.043801207 -0.15613851 0.10265934
-0.043576833 0.09391924 0.07996323 0.14291508 0.0064018634 -0.1582848 -0.025338251 0.05556673
0.025358783 -0.033657946 -0.1374695 0.014782681 -0.15387167 -0.07595747 -0.16080418 -0.17420673
0.21852304 -0.045370743 -0.0056305137 0.0919424 0.17044805 0.2150966 0.11272084 0.015440834
0.14107789 -0.08630353 0.13639398 -0.09988198 0.04255439 -0.084261894 -0.19277559 0.040250003
0.049305644 -0.1255194 0.15642823 -0.051301632 -0.1303974 -0.16254587 -0.12746242 -0.043104686
0.013934424 -0.032242246 0.14441235 0.22819881 -0.16681746 0.14867793 -0.16172701 0.051818926
-0.03245641 -0.15678816 -0.036610864 -0.026746036 0.09804357 -0.046599727 -0.08833614 -0.18249078
-0.12551656 0.12055615 0.06686944 0.11069869 -0.13003209 -0.012993087 0.09080973 -0.09794227
0.012416498 0.05066599 0.05370314 0.0021912763 0.0035315242 0.10249108 -0.12065781 0.048537288
0.037331164 0.04893142 -0.018787004 0.09432981 0.04784103 -0.0033438578 0.012652341 0.115538925
-0.085203685 -0.008884248 0.094618365 -0.107448116 -0.09128213 -0.022965347 0.015163243 -0.021704635
0.04872169 0.007322804 0.1524339 0.06724872 -0.014779079 -0.11402787 -0.0064905956 -0.040788632
-0.041527424 -0.078077674 -0.020104967 -0.046686023 0.0031061121 -0.119600594 -0.028453143 -0.06476559
0.012455126 0.09408996 0.13499032 -0.11656142 0.059130095 0.12160722 0.11144601 0.043774884
-0.025994744 0.083481625 0.09000354 0.048118617 -0.13575393 0.027458413 0.05332221 -0.061352592
0.012874488 0.018052422 0.054621305 -0.10402341 -0.08719679 0.29038477 0.07611262 0.11240023
-0.13461266 0.002522128 0.12141332 0.016331486 -0.013647211 0.033828482 -0.024916857 0.008673844
0.09836333 0.051999275 0.13283572 0.07446619 0.02614138 -0.07730285 -0.06409382 -0.14871275
0.119184434 -0.0879427 0.05389373 -0.1046283 0.0021175952 -0.05520315 0.025835164 0.008700926
-0.000911989 0.08264221 0.0021550914 0.079062425 0.071259305 -0.079357274 -0.07019986 -0.05880204
0.0051881284 0.047187 -0.100006 -0.03874263 0.076235294 0.043723363 -0.002170209 0.08013617
-0.074816756 0.08712954 0.020058762 -0.039894268 0.12792803 0.047287997 -0.076839834 -0.048246678
0.016865894 0.015178576 0.015361104 0.06320158 0.14704394 0.1054826 -0.045657452 0.084566645
0.13681814 0.10670334 -0.049316056 0.09010324 0.12572753 -0.017489254 -0.038676467 0.054263372
0.057958547 -0.043933727 -0.03291633 0.021279467 -0.046055768 0.05665815 0.0002724494 0.07476009
0.0786044 0.14506356 0.09418966 0.06060569 0.13880838 -0.075536564 0.007987302 -0.059433352
0.034428418 -0.061249364 -0.027840488 -0.052977644 -0.06167337 0.08348235 -0.06964479 -0.05005028
00000000: 87a2 f63d 5086 723d 68f8 10be 8e2c 073e
00000010: 648c 06be a727 c9bd d10a cf3d cf9c 8abd
00000020: f0f9 11be 259c acbd 4dae e43d da46 793b
00000030: 1e22 033e 06db bdbd f1aa d1bd ef5f 62bd
00000040: c445 643b 4f82 f13d 7b7a 28be 3b49 26be
00000050: 734d 103e a940 283e 801f d9bb 2837 1e3d
00000060: de57 123e 6d70 f73c cc54 b7bb 0979 c43c
00000070: cca8 b3bd 6d3f 38be 2e8d 1fbe 0d79 77bd
00000080: f2c1 f83d 13c7 d33d a798 06be 9083 953d
00000090: cffb afbd e568 333d c6e2 1fbe 0f3f d23d
000000a0: 9f7d 32bd bb58 c03d c3c3 a33d 5558 123e
000000b0: b9c6 d13b 6915 22be 2a92 cfbc f199 633d
000000c0: 39bd cf3c eadc 09bd cec4 0cbe 0f33 723c
000000d0: 8990 1dbe 978f 9bbd daa9 24be 4063 32be
000000e0: 81c4 5f3e acd6 39bd 2c80 b8bb 4c4c bc3d
000000f0: ef89 2e3e 4842 5c3e 2fda e63d 8dfb 7c3c
00000100: b976 103e e8bf b0bd ddaa 0b3e ec8e ccbd
00000110: 834d 2e3d 8091 acbd f766 45be 30dd 243d
00000120: b7f4 493d 2888 00be b92e 203e a921 52bd
00000130: e586 05be 6d72 26be 8285 02be 8a8e 30bd
00000140: 364d 643c 7210 04bd d5e0 133e f3ac 693e
00000150: 32d2 2abe 073f 183e c49b 25be 1540 543d
00000160: 03f1 04bd 138d 20be 46f5 15bd 811a dbbc
00000170: 11cb c83d 5bdf 3ebd 94e9 b4bd ddde 3abe
00000180: 6a87 00be 25e6 f63d d8f2 883d ffb5 e23d
00000190: 2227 05be f5e0 54bc 74fa b93d f595 c8bd
000001a0: 916e 4b3c 2487 4f3d d3f7 5b3d 849b 0f3b
000001b0: 2571 673b d8e6 d13d 711b f7bd 09cf 463d
000001c0: 90e8 183d 506c 483d 34e7 99bc fd2f c13d
000001d0: f5f4 433d a024 5bbb c44b 4f3c ac9f ec3d
000001e0: 457f aebd 3d8f 11bc 46c7 c13d c20d dcbd
000001f0: 20f2 babd d321 bcbc 406f 783c ebcd b1bc
00000200: 6590 473d 22f4 ef3b a217 1c3e b2b9 893d
00000210: f323 72bc 7287 e9bd 10af d4bb fb11 27bd
00000220: a918 2abd 30e7 9fbd 2cb3 a4bc d839 3fbd
00000230: ea8f 4b3b 28f1 f4bd 9116 e9bc d2a3 84bd
00000240: 9610 4c3c 3db2 c03d e73a 0a3e c1b7 eebd
00000250: 6632 723d 350d f93d ce3d e43d 4b4d 333d
00000260: eef2 d4bc 6af8 aa3d c753 b83d 0718 453d
00000270: 1403 0bbe 77f0 e03c 6468 5a3d db4c 7bbd
00000280: 84ef 523c ace2 933c 97ba 5f3d 3a0a d5bd
00000290: 3b94 b2bd 50ad 943e efe0 9b3d 1732 e63d
000002a0: e7d7 09be 494a 253b 8ca7 f83d 9cc9 853c
000002b0: 8d98 5fbc bc8f 0a3d 701e ccbc bd1c 0e3c
000002c0: b772 c93d 31fd 543d 1606 083e bb81 983d
000002d0: 7326 d63c f550 9ebd 9f43 83bd 2848 18be
000002e0: f816 f43d 4d1b b4bd acbf 5c3d 5d47 d6bd
000002f0: 5ac7 0a3b b31c 62bd 44a4 d33c 548e 0e3c
00000300: 8c12 6fba 5240 a93d 6f3c 0d3b 7beb a13d
00000310: 66f0 913d 1186 a2bd f2c4 8fbd 68da 70bd
00000320: 2d01 aa3b 2847 413d f2cf ccbd 98b0 1ebd
00000330: 4021 9c3d 4517 333d 113a 0ebb 6f1e a43d
00000340: 8739 99bd f970 b23d 4652 a43c 2c68 23bd
00000350: 91ff 023e 0fb1 413d 345e 9dbd 4f9e 45bd
00000360: 582a 8a3c 90af 783c 24ad 7b3c d46f 813d
00000370: b092 163e 4307 d83d 4f03 3bbd 4731 ad3d
00000380: 0e1a 0c3e 4887 da3d a2ff 49bd 0c88 b83d
00000390: b8be 003e a045 8fbc 376b 1ebd 4543 5e3d
000003a0: f165 6d3d daf3 33bd 46d3 06bd 4752 ae3c
000003b0: f9a4 3cbd 6012 683d 8ad7 8e39 d11b 993d
000003c0: 58fb a03d 8b8b 143e 82e6 c03d ac3d 783d
000003d0: c923 0e3e eab2 9abd 2cdd 023c 6370 73bd
000003e0: d004 0d3d 9de0 7abd bc11 e4bc 16ff 58bd
000003f0: 379d 7cbd cbf8 aa3d eda1 8ebd 8601 4dbd
