trained_models/star_polymer_11/params_S_jit.pt (torch, 59286 bytes, 5 tensors)

weight f4 [100, 4]
000000 4e e6 a2 be 3b 38 80 3b 1e 73 fb bb 79 1e 89 3c
       -0.31816334 0.003912953 -0.007673635 0.016738163
000010 29 d2 0c be 99 d9 6e 3e 20 9f 27 be 3a 14 43 be
       -0.13752045 0.23325194 -0.16369295 -0.19050685
000020 42 25 33 3e b5 5d 59 be 43 a4 20 3e 75 37 cb 3d
       0.17494681 -0.21227153 0.15687661 0.09922687
000030 cd cb 05 be 05 bf 8c 3c 46 ab 43 3c df 9a bb 3b
       -0.13066025 0.017180929 0.01194269 0.005725249
000040 aa 5b 68 be d2 e1 0b be 12 fa 79 3e 4a de 60 be
       -0.22691217 -0.13660362 0.244118 -0.21959797
000050 25 17 4b 3e 8f ff cf bc e7 1c fe ba 96 68 3b bb
       0.19833048 -0.025390415 -0.0019387276 -0.0028596274
000060 d3 3a a7 be 37 07 6b 3b 2d 3b 37 3d b4 2c 00 bd
       -0.32662067 0.0035862455 0.04473417 -0.031292632
000070 21 ee a5 bd 10 7d ba 3c ef a9 5f be 8b 72 88 3e
       -0.0810206 0.022764713 -0.21842168 0.2664989
000080 2b 53 86 3d 2c 9f 81 bb 2d 86 65 3b ac 9a 2a 3b
       0.06558832 -0.0039557423 0.0035022602 0.0026032133
000090 a2 6e 84 be 23 b8 88 bd 87 5d 23 3e df ac a8 3e
       -0.25865656 -0.06675746 0.15953647 0.3294439
0000a0 f5 c4 c5 be 3d 0b 2b 3d d5 95 68 3b 0f 39 0f 3c
       -0.3862683 0.041758765 0.0035489697 0.008741631
0000b0 d9 a8 b0 3c e8 97 43 3c b5 a4 99 bb c7 ad 89 3e
       0.021564888 0.011938073 -0.004688824 0.26890394
0000c0 5f d0 01 be 68 2c 23 3d c9 51 92 3b 98 a8 ad bb
       -0.12677144 0.03983727 0.004465316 -0.005299639
0000d0 aa 2f 00 3d dd 97 27 be 3a 55 d6 be 8a d1 a0 be
       0.031295456 -0.16366525 -0.41861898 -0.31409866
0000e0 df 00 67 be fa d7 67 bc c9 54 f7 3d 43 77 a2 bd
       -0.22558926 -0.014150614 0.12076718 -0.079329036
0000f0 54 d9 be be 2e 56 20 bd de dd 9b 3d a3 06 87 be
       -0.37275183 -0.039144687 0.07610677 -0.2637225
000100 a3 73 a4 3c 96 df c8 bc cf d2 33 be ae af 85 be
       0.020074671 -0.024520677 -0.17560886 -0.26110595
000110 0d f2 c8 3e e1 d4 47 bd 07 16 31 3d 6e 09 db bc
       0.3924717 -0.048787 0.043233898 -0.026737895
000120 9d 4c af 3e 32 47 ed bc 2c c0 64 bc 50 31 14 bc
       0.3423814 -0.028964613 -0.013961833 -0.00904496
000130 d0 10 ec bc c5 cb 02 be 73 5b a5 3d ee 5c 52 bc
       -0.02881661 -0.12773044 0.08074083 -0.012839539
000140 43 d3 68 3e a9 68 0d be 7a 41 08 3e dc 08 fc bd
       0.2273684 -0.13809456 0.13306227 -0.12306377
000150 ca e5 03 3e 1f b4 84 3d 3d 9a 54 bd 58 b8 1d be
       0.12880626 0.06479668 -0.051904906 -0.15402353
000160 f3 af 8f be e1 23 94 3c a4 0f 32 3b 2d a5 0c 3a
       -0.28063926 0.018083515 0.0027169967 0.0005365189
000170 fe 60 1e be 97 15 11 3e 97 8c cb bd fd 3f 36 3d
       -0.15466687 0.14168392 -0.09938925 0.044494618
000180 dd ea 93 be 39 11 08 3d 1e 15 a1 bd 95 c2 0e be
       -0.28890124 0.03321955 -0.07865356 -0.13941415
000190 32 18 26 3e 00 26 06 3e 8b f0 f0 3d 5d 5d 5b be
       0.16220167 0.13100433 0.1176463 -0.21422334
0001a0 7e 05 1f be 7b 7e 77 3c a1 dd f5 3b 28 f4 0e 3c
       -0.15529439 0.015105839 0.007503227 0.008725204
0001b0 7c 03 0e 3e d8 ba 3b 3e 95 16 08 3e 2d 9f 97 bd
       0.13868517 0.18332994 0.13289864 -0.07403407
0001c0 f7 17 15 be b2 2d 89 bd 95 cb 8a bd bb df f0 bc
       -0.14559923 -0.06698169 -0.067771114 -0.029403558
0001d0 1c 80 13 3e 42 2a 66 bd 95 26 ae 3e 4a 05 a6 3e
       0.14404339 -0.056192644 0.3401381 0.3242591
0001e0 df a7 3e be 49 3e 67 3d 5b 1b 5d 3e 6f cd e5 3d
       -0.18618725 0.056455884 0.21592467 0.11220824
0001f0 b0 e4 e4 bd 82 52 82 3d 10 80 b5 3d 97 a9 63 3e
       -0.11176431 0.06363393 0.088623166 0.22232662
000200 99 6b c1 3e f9 d0 1e 3e eb 5d 0f be c5 06 4b 3e
       0.37777403 0.15509404 -0.1400067 0.19826801
000210 5c 13 20 bd 87 f0 71 be 48 f5 57 bc e0 77 d2 3d
       -0.039080963 -0.2362691 -0.013181038 0.102767706
000220 07 3b d2 3d 3b d8 4f bc db 69 4e bb 42 95 2b 3b
       0.10265165 -0.012685831 -0.00314962 0.0026181494
000230 a6 76 84 3c 8b 97 dc bd 96 a9 e3 bd 95 25 21 3d
       0.016169857 -0.10771092 -0.1111633 0.03934248
000240 5d 38 80 bd e7 c6 38 3c 6c 41 c4 bb ca f5 44 3c
       -0.062607504 0.011277891 -0.005989244 0.012021491
000250 93 e4 c7 be d4 f6 0e bb 5f 3b b3 bd ee 4f 12 be
       -0.39041576 -0.0021814601 -0.087515585 -0.14288303
000260 a3 33 93 3e 8d 70 7e 3c d4 56 90 3a 9d 9e b9 bc
       0.28750333 0.015529764 0.0011012205 -0.02265864
000270 a5 f1 e8 3e 28 29 27 bd 29 87 a6 ba 9f d4 06 3b
       0.4549686 -0.040810734 -0.0012705076 0.002057351
000280 b6 79 21 3e 21 ad 03 be 34 e4 51 3d 85 19 f7 3c
       0.15769085 -0.12859012 0.051243022 0.030163536
000290 04 d3 6b be a6 09 14 be 6e f0 b5 bd 48 2a 90 bc
       -0.23029715 -0.14456806 -0.08883749 -0.017598286
0002a0 89 02 0b 3e ab 89 b5 bc 99 72 fe bb 46 26 25 bc
       0.13575186 -0.022160372 -0.007765126 -0.010079926
0002b0 36 1e f3 3d 12 1c a7 bc d6 14 42 bc 04 34 f1 bb
       0.11870997 -0.020399127 -0.011845788 -0.007360937
0002c0 c2 5c 52 3e af 5b c9 bc 50 a2 17 bd ea f9 26 3d
       0.20543197 -0.024579851 -0.037020028 0.04076568
0002d0 ad b2 6c 3d 4f a5 0d bc 24 53 74 3c d5 0a 52 ba
       0.057787586 -0.00864537 0.0149124 -0.00080124784
0002e0 94 e5 5a be 0d 1d a1 3c 88 b6 76 3d cb 55 16 be
       -0.2137664 0.019667173 0.06023267 -0.14681165
0002f0 71 3c 4c 3e ff a2 0f bd 61 cb 7e bc 2d 67 ab 3d
       0.19944932 -0.035067555 -0.015551419 0.083692886
000300 ad 16 81 be 49 93 18 3d ae 23 97 bd b1 59 8b bd
       -0.25212613 0.037249837 -0.07379852 -0.06804217
000310 a2 c1 dc 3d 2f 36 ee 3d c5 b5 a7 be b6 e4 7b 3e
       0.1077912 0.116314285 -0.32755867 0.24598965
000320 8b 24 bd be a5 7d 9d 3e 9a 41 e9 3e 11 cf 7e 3e
       -0.36941943 0.30759922 0.45557863 0.24883677
000330 ce 46 36 3e 76 aa 90 be 48 2f a6 3d 2e 21 32 be
       0.17800447 -0.2825505 0.08114487 -0.1739547
000340 34 13 d6 bd f5 e6 8e 3b 45 12 f7 3a bf 85 14 bb
       -0.104528815 0.0043610283 0.0018850049 -0.0022662727
000350 fc 7a b9 3e ae c7 03 bd 1c 29 c4 ba 23 12 ea 3b
       0.36226642 -0.03217285 -0.0014965865 0.0071432753
000360 19 f2 85 3e a3 33 22 be a1 85 9d be 3a 52 9a be
       0.26161268 -0.1584001 -0.30766013 -0.3014086
000370 d2 68 96 bd 6c ff 61 be 76 c9 7f 3d 65 00 39 3e
       -0.07344212 -0.22070092 0.062447987 0.18066557
000380 74 23 68 3e 13 9a 03 3e c0 9e ac be ee 27 63 3e
       0.22669774 0.12851743 -0.33714867 0.221832
000390 f5 c0 05 be 74 69 9e 3c 7c 0c 47 3b 94 06 71 3b
       -0.13061889 0.019337393 0.0030372432 0.0036777603
0003a0 a7 00 74 be f2 78 f6 3c fc 7f c5 ba c0 04 bf bb
       -0.23828374 0.030086968 -0.001506805 -0.0058294237
0003b0 bf f8 cd 3e 10 b0 52 bd b3 85 dd bb c2 e2 5d bb
       0.4022884 -0.051437438 -0.006760323 -0.0033857082
0003c0 d9 24 89 be 03 33 01 bd 15 7d 7e 3d 2f 39 15 3e
       -0.26785925 -0.03154279 0.062131006 0.14572595
0003d0 04 cf 78 bd a6 d5 77 3d 66 dc c9 bd d7 9d 1f 3e
       -0.0607443 0.060506485 -0.09856491 0.15587555
0003e0 f2 03 21 be b2 56 cf 3c 25 26 2a 3e 64 04 a6 bd
       -0.15724161 0.025309894 0.16616113 -0.08106306
0003f0 7e e7 2e be e2 67 46 bd 9c b0 54 bd 78 dd e0 bc
       -0.17080495 -0.048438914 -0.05192624 -0.027449355

bias f4 [100]
000000 5c 61 88 3e 8f dc 27 3e 9d 91 ed bd 54 ef 22 3e
       0.2663678 0.1639273 -0.11600039 0.15911609
000010 11 81 9c be aa 82 36 be 6e 90 ac 3e a0 06 28 3c
       -0.3056722 -0.17823282 0.3370394 0.010255486
000020 07 0f 7b bd ff 8b ac be b9 96 c3 3e f8 2e 35 bc
       -0.061293628 -0.3370056 0.3820093 -0.0110585615
000030 22 82 30 3e a5 27 a7 be 98 bf 3d 3e b1 7e ab 3e
       0.17237142 -0.32647434 0.18530118 0.33495095
000040 b7 df 27 be c7 59 ab be c5 bc b4 be 6e 4c 84 bd
       -0.16393934 -0.33466932 -0.3530027 -0.0645989
000050 b1 c9 e9 bd 77 53 fb bd b3 9a 86 3e 4d 6d 9e 3e
       -0.11415423 -0.12271779 0.262899 0.30942765
000060 56 35 83 3e 14 42 67 bd 7c c8 11 3e a1 af 0e be
       0.2562663 -0.0564595 0.14236635 -0.13934185
000070 41 49 da 3d 59 2c 50 3c cf df 41 3e c7 8b 1a 3e
       0.10658503 0.012705886 0.18933032 0.15092383
000080 eb c6 b3 be b2 69 2a be fb 23 c1 bd 86 ad 45 bd
       -0.351127 -0.16641882 -0.09430691 -0.048261188
000090 f3 1b 4c 3d 24 46 d0 3e 0d b3 7e be 01 e5 dd be
       0.049831342 0.40678513 -0.2487299 -0.4333878
0000a0 48 96 45 be 16 f8 7b 3e 00 79 00 be e8 e8 db bd
       -0.19295609 0.24606356 -0.12546158 -0.10737783
0000b0 fd da 45 be 5d 70 60 bb 2e a3 71 3e 2e 48 20 be
       -0.19321819 -0.0034246661 0.23597404 -0.15652534
0000c0 69 90 a2 3e eb da 90 3e b6 78 e7 be 11 f1 69 be
       0.317508 0.2829202 -0.45209283 -0.22845866
0000d0 49 49 bd 3d 68 c7 e7 be 64 70 81 3e d8 40 30 3d
       0.09242494 -0.45269322 0.2528106 0.04303059
0000e0 2a e6 9b be bc e8 c8 3d 9b a6 60 3e 65 9c c8 be
       -0.3044904 0.098100156 0.21938555 -0.3918182
0000f0 36 83 75 3e d6 82 1a 3d 51 5f d3 3d 4a 63 5a 3e
       0.23975834 0.03772243 0.103209145 0.21326938
000100 4d 4c 6f be 27 e6 41 3d 40 95 8f be 28 3a 3f be
       -0.2336895 0.04733863 -0.28043556 -0.18674529
000110 16 0d e3 3d fc ce d3 3d 4e 25 c1 be ce 16 e6 bb
       0.1108648 0.103422135 -0.37723774 -0.0070217615
000120 9f b3 92 be 60 67 04 3e 22 28 61 be 60 27 87 3e
       -0.28652665 0.1293006 -0.21987966 0.26397228
000130 ad cf 67 be 34 0d 7e 3e b1 12 68 be ad e1 28 be
       -0.22637816 0.24809724 -0.2266338 -0.16492338
000140 5b 3c ba 3e 7d d8 d3 bd 71 51 5a 3e 3c 7e 3e bd
       0.36374173 -0.10344026 0.2132013 -0.046507105
000150 30 28 2f bd a6 ee b6 be 22 92 04 be 45 ed f3 3d
       -0.042762935 -0.3572895 -0.1294637 0.1191049
000160 90 4d 38 be a4 fb f4 3b 56 4a 4f 3d 94 41 0b be
       -0.17998338 0.007476287 0.050608 -0.13599235
000170 81 be 8d 3d 9c 2c 6c be 46 b6 62 3e ec ad b1 3e
       0.06921101 -0.23063892 0.22139844 0.34703004
000180 05 10 0d be a4 2e 28 3e af 00 30 be 90 ad 2b be
       -0.13775642 0.16424042 -0.17187761 -0.16765428

weight f4 [100, 100]
000000 fc 84 e2 bb a6 10 8d bc 3d 9a 93 3d 0e 50 48 3c
       -0.0069128256 -0.017219853 0.07207153 0.012226118
000010 b8 d4 aa 3c 87 cd 71 bd 93 6d 9b 3d 08 22 7d bc
       0.020853385 -0.059033897 0.07589259 -0.015450008
000020 14 0b 2a bd 85 c7 3c 3b 39 9e 5a 3d a5 44 b5 3d
       -0.04151447 0.0028805446 0.05337355 0.088509835
000030 d4 d3 e2 bd ff 06 2b 3d b1 86 85 bd 02 f6 fc bd
       -0.11075559 0.04175472 -0.06519831 -0.1235161
000040 d9 4d 32 bd 1f 0c 29 bc d1 fe 0b bd 2f 36 3e bc
       -0.043531273 -0.010317831 -0.03417856 -0.011609598
000050 bf 49 36 bd 16 3e b2 bc 81 c9 aa 3c 3c 4a 9a bd
       -0.044503924 -0.02175812 0.020848038 -0.0753369
000060 c9 ba 10 3d 48 3a ae 3d 09 1a 9c 3d a3 82 fd bb
       0.035334382 0.0850721 0.07622153 -0.0077365204
000070 de 67 9c 3c 9e 52 3c 3b 35 78 71 3d c9 8a 80 bd
       0.019092496 0.0028735767 0.05895253 -0.06276471
000080 77 d9 3a 3d 12 c2 63 bd c7 d9 a1 bd cd f3 2e bd
       0.045617547 -0.055605 -0.07902866 -0.042712975
000090 9d 96 e0 3c 2f 71 e8 bc 37 eb 33 3d d7 73 bf bc
       0.027415568 -0.028374283 0.04392549 -0.023370666
0000a0 7c 81 ec 38 86 98 1b bd ce 69 d7 bd d2 06 3e 3d
       0.00011277475 -0.037987255 -0.105182275 0.046393223
0000b0 d0 26 93 3d 89 d6 88 3d 36 8c 34 3d 42 11 7a bc
       0.07185137 0.06681544 0.044079028 -0.015262904
0000c0 15 36 2d bd f2 a7 98 3a 5f 72 47 bd 19 b3 70 3d
       -0.042287905 0.0011646731 -0.048693057 0.05876455
0000d0 c8 21 74 bd 37 ad 0e 3d b9 39 b9 3c 5b b6 85 3d
       -0.05960253 0.03483316 0.022610532 0.06528922
0000e0 e9 d9 a0 bb 98 4f ec bd 81 0e 7d bb 49 61 74 bd
       -0.0049087894 -0.11538619 -0.0038613381 -0.05966309
0000f0 79 38 a7 bd 96 c5 fe 3b b2 c1 b2 bc 1b 30 a0 3c
       -0.08165068 0.007775019 -0.021820877 0.019554188
000100 0c 6b 84 3d 48 c0 fc bc 7e 12 9d bd 8d 0e 29 3d
       0.0646573 -0.030853406 -0.07669543 0.041273642
000110 9a 90 06 3d 54 0c ab bc 55 3b 75 bd f2 05 55 bd
       0.032852747 -0.020879902 -0.059871037 -0.052007623
000120 e0 78 04 be bb 3a 44 3c e4 fe b5 bc 35 88 6b 3d
       -0.12936735 0.011976893 -0.022216268 0.057502944
000130 8c 42 58 3c bb 41 07 bd d3 ca b4 bd d2 2f 8a 3d
       0.01319946 -0.03302167 -0.08827748 0.06747402
000140 64 12 d5 bd a9 ac a3 3d 03 2a a2 bc ac f3 83 3d
       -0.10403898 0.07991917 -0.019795423 0.06442961
000150 1b 02 79 3d a8 65 89 3d 91 24 94 3b 46 7d 1f bd
       0.060793024 0.067088425 0.0045209606 -0.03893783
000160 00 47 9a bd 57 48 89 3c db 7a 99 bd b4 f5 88 bd
       -0.075330734 0.016758127 -0.07494136 -0.06687489
000170 21 5d 16 bd 0c c5 83 3c 01 b5 63 3c ea 9b 4b bc
       -0.03670991 0.01608517 0.013898135 -0.0124273095
000180 38 cb be bc fe f2 62 b9 24 b9 28 be f4 73 a6 bd
       -0.023290262 -0.00021643561 -0.16476876 -0.08127585
000190 a9 02 f4 3c 3c 66 25 3d 1c d0 ef bc 24 2c d2 3c
       0.029786425 0.0403807 -0.029274039 0.025655814
0001a0 f2 66 97 3d 07 fa 3d bd f5 96 e0 bc b0 11 57 3d
       0.07392682 -0.046381023 -0.027415732 0.052507102
0001b0 e0 7c af bc 03 b9 38 3d 97 ac e9 bc 01 41 80 3d
       -0.02142185 0.045098316 -0.02852468 0.062623985
0001c0 ce 82 a7 bd 90 56 64 3d c7 c8 82 bd 20 a2 47 3d
       -0.08179246 0.055746615 -0.063859515 0.0487386
0001d0 da 7a e9 bd 28 41 5a 3c 42 97 80 3d e5 d3 95 3d
       -0.11400385 0.0133211985 0.0627885 0.07315806
0001e0 54 ac 18 3c 5e c5 70 3d a9 06 a2 bc 63 6d 4a bd
       0.00931843 0.058781974 -0.019778566 -0.049420726
0001f0 c4 76 b0 3c 51 62 e7 3b d6 77 b4 ba f5 2a 73 3c
       0.021541007 0.007061281 -0.0013768624 0.014841785
000200 77 bc ea 3d 2f a0 18 3c 5d a2 84 3d 5d 6b 2d 3d
       0.11461728 0.0093155345 0.06476281 0.042338718
000210 8e e9 8b bc ba 4e a4 bc 8e 53 75 3d aa 86 85 bd
       -0.017079141 -0.020057071 0.059894137 -0.06519826
000220 a0 86 20 bc 85 43 8e 3d 04 35 04 be bd 52 b2 3d
       -0.009797722 0.06946472 -0.12910849 0.08707187
000230 6d 37 db 3d d9 b5 57 bd 1c bc 4a 3d fc ec 53 bd
       0.10703931 -0.052663658 0.0494958 -0.051739678
000240 2b 13 90 3d d0 57 91 3d a0 82 ee bd 09 14 b7 bc
       0.07034906 0.07096827 -0.116460085 -0.02234842
000250 bc 0e 3f 3d 22 1d 52 bd c4 df b7 bc 8b 65 a3 bd
       0.04664491 -0.051297314 -0.022445567 -0.07978352
000260 90 c9 45 3d bb 56 3d 3c 11 0b ab bd 11 29 e6 bc
       0.048287928 0.011556323 -0.0835172 -0.028095754
000270 bc 7e 84 3d af 8d 2b bb 5a 38 0e bd 07 51 a3 3b
       0.06469485 -0.002617698 -0.03472171 0.0049840244
000280 dd 47 78 3d 46 d8 d5 bd 22 e7 0f 3d 3a 4f a1 3d
       0.06061541 -0.104416415 0.035132535 0.078764394
000290 5a ea db bb 32 9d ba bd dd 71 7e bc 40 9b 31 bd
       -0.0067112865 -0.09112014 -0.015530077 -0.04336095
0002a0 2f cd 33 bc e6 6a 10 3d 47 ec de bd 8d 42 b2 bb
       -0.010974213 0.035258196 -0.1088491 -0.0054400624
0002b0 71 47 97 3d 9f 76 99 3d 0f 6f b6 3c 29 3d 7a 3c
       0.07386673 0.07493328 0.022269754 0.015273371
0002c0 47 46 c4 bc 7f 9a 91 bd 75 a6 96 3d 2f df 47 bd
       -0.023959292 -0.07109546 0.07355968 -0.04879683
0002d0 a5 00 98 bd f7 e1 a9 bd f4 f3 05 3c ea e8 91 b8
       -0.07421998 -0.082950525 0.008175839 -6.9575224e-05
0002e0 86 e7 7d 3d d2 00 03 bd 8f 9d 86 3c ea 80 4f 3d
       0.061988376 -0.031983204 0.016432552 0.05066005
0002f0 39 a7 1a 3d 8a f3 98 bd f4 08 05 bd 9a 56 b4 bd
       0.037757132 -0.074683264 -0.03247924 -0.088055804
000300 d1 64 ec 3c 8a e7 0f bc fa b6 68 bd 66 81 3f bd
       0.028856667 -0.008783231 -0.056815125 -0.046754263
000310 50 52 48 bb 53 21 50 bb fb 10 76 3d a4 82 8a bd
       -0.003056664 -0.0031758144 0.060074788 -0.06763199
000320 54 5f ab bb 5d 48 6b 3d e4 a4 79 3c d4 9c d1 3c
       -0.00522987 0.057442058 0.015237067 0.025587477
000330 f8 b2 b5 3d 80 a1 a9 3c 31 df 89 bc 75 48 ab bc
       0.08872026 0.020706892 -0.016830059 -0.020908574
000340 2c fb 8a bc 11 d7 6d bd 0d ab c3 3d 77 f8 4b bd
       -0.016965471 -0.05806643 0.0955411 -0.0497975
000350 1a 26 eb bc d3 c2 b0 3c 0e 79 82 bd 19 20 9c bd
       -0.028704692 0.021577274 -0.063707456 -0.0762331
000360 23 09 32 3d e4 eb 21 bd 43 44 21 bc 16 43 2f 3d
       0.043465745 -0.039531603 -0.009842935 0.042788588
000370 3e c5 7a bd 7d ab 85 3d be ae af 3c 45 17 86 bb
       -0.06122326 0.065268494 0.021445628 -0.0040921294
000380 ac 1f 04 3d 66 05 63 3c c9 f9 50 3d 0d 76 72 bc
       0.032256767 0.013856268 0.051019464 -0.014798653
000390 6c e3 b4 bd e5 31 19 3d 8b c7 8e 3d a8 44 87 bc
       -0.0883244 0.0374011 0.069716536 -0.01651223
0003a0 8b d4 9a 3d d1 07 3e bd 0a fc 5b 3d 71 e2 5b 3a
       0.075600706 -0.046394173 0.05370716 0.00083879294
0003b0 93 d8 18 3d d4 ef 60 bd ae 8c 00 3d 05 8b 50 bd
       0.037315916 -0.054916218 0.031384163 -0.05091383
0003c0 41 25 86 3d c6 b1 cc 3d e5 f6 8f 3c f2 fa 3c 3c
       0.06550074 0.09994845 0.017573783 0.011534439
0003d0 b6 05 91 bd e6 0e d1 3d cd 3d 7d 3d 1e 9f f7 3d
       -0.070811674 0.1020792 0.061826516 0.12090896
0003e0 89 86 cb bd 2f e7 76 bd 67 c3 bf bd 78 a0 56 bd
       -0.0993777 -0.060279068 -0.09363442 -0.05239913
0003f0 c4 e4 33 bd f4 06 c7 bb e9 77 30 3d f1 34 a1 bd
       -0.04391934 -0.006073827 0.043083105 -0.07871426

bias f4 [100]
000000 5b 31 25 3b 19 9e 52 3d ff b2 ca bc 39 95 23 3d
       0.002520642 0.051420305 -0.024743555 0.03993723
000010 7d f6 54 3d 80 51 e1 bc 3e 9d 2c 3d a1 7c 2b bd
       0.051992882 -0.027504683 0.042142145 -0.041866902
000020 1f 6a 77 bd de 70 e7 bd 8f 86 05 bd 13 2a 1e 3d
       -0.06040394 -0.113008246 -0.03259903 0.038614344
000030 cf 82 a1 bb f1 05 11 bd 10 b5 6f bd c9 87 a8 3d
       -0.0049289237 -0.035406057 -0.058522284 0.08229024
000040 70 f4 ed bc 27 aa b0 bd b5 c0 26 3d 83 7c 5d bd
       -0.029047221 -0.08626204 0.040711123 -0.05407382
000050 85 12 12 3c 89 1b 5f 3d a9 59 d9 3c ef 25 63 bd
       0.008915548 0.05446962 0.026532011 -0.0554561
000060 d6 b5 f8 bc 6d f2 a1 3a 60 38 44 bd 10 8b 5c bd
       -0.030360144 0.0012355574 -0.047905326 -0.053843558
000070 2e 56 80 3d 97 42 a1 3c 88 04 71 3d ce a6 02 3c
       0.062664375 0.019685073 0.058842212 0.00797434
000080 54 5e c8 ba 22 9e 91 bc fd 6b a5 bc ab 69 8b bc
       -0.0015286901 -0.017775599 -0.020193094 -0.01701816
000090 d8 7e 42 bd ec 06 57 bb 12 99 d4 bc 97 cd 02 bd
       -0.04748425 -0.0032810522 -0.025951896 -0.031934347
0000a0 28 95 3b bd e6 71 ce bc d4 e8 58 ba bf da a3 bc
       -0.045796543 -0.025200795 -0.000827444 -0.020001767
0000b0 6b 98 07 3d c7 68 d4 3c 52 b3 21 3d 37 46 c2 3c
       0.03310434 0.025928868 0.039477654 0.023715122
0000c0 2e f7 4b 3d 79 98 ed 3c ca 5e 0f 3c 6f 73 7b bd
       0.049796276 0.029003369 0.008750627 -0.061389383
0000d0 41 13 cf 3b 99 96 82 bc 7c d7 a7 3c 41 e4 86 bd
       0.006319434 -0.015940951 0.020488493 -0.06586505
0000e0 8d b5 08 bd e2 be 9a bd 26 d0 af 3d 32 91 ae 3c
       -0.033376265 -0.07555939 0.08584623 0.021309469
0000f0 1a c6 ba bc 22 9c 05 3d 38 ef d3 3c 8c bc e8 3b
       -0.02279954 0.032619603 0.025870904 0.0071025547
000100 d0 11 43 bd d8 a7 35 3d 65 72 44 3d c4 b7 0b 3c
       -0.04762441 0.04434952 0.047960658 0.0085277
000110 c7 c0 1e 3b a7 4d 80 bd 9e c2 18 bd a8 54 5d bd
       0.002422379 -0.06264811 -0.037294976 -0.054035813
000120 e8 42 1c 3d 80 d0 69 bc ba 01 36 be 18 f3 63 3d
       0.038149744 -0.014270902 -0.17774096 0.055651754
000130 64 23 0b bd ef 76 24 bd 9d 65 be 3d 1c 8b a2 3c
       -0.033969298 -0.040152486 0.09296725 0.019841723
000140 9d bc 06 3d c1 1e 5c 3d 85 3c 27 bd 67 44 93 3d
       0.03289472 0.053740267 -0.0408292 0.07190781
000150 b4 0e 7d 3d 03 11 83 3c fe 43 82 bd 14 e3 01 ba
       0.0617816 0.015999323 -0.06360625 -0.0004954797
000160 55 64 8a bc a9 a6 77 bd b1 21 e6 3c 1a aa 77 3d
       -0.016893545 -0.060461674 0.028092237 0.060464956
000170 4a 92 ee bc a1 6e 97 bb cb 86 bd 3c 67 0c b1 bd
       -0.02912249 -0.0046213423 0.023135563 -0.08644944
000180 7a 02 97 3c 90 49 b5 3c 5c 78 2f bd 0d e1 e3 3c
       0.018433798 0.022129804 -0.042839393 0.027817274

weight f4 [1, 100]
000000 6f 6b 26 b9 75 77 87 3a 15 28 de 39 41 03 2e 39
       -0.00015871016 0.0010335284 0.00042373003 0.00016595145
000010 1c bd 24 b8 92 f2 6f 39 96 1c ad 38 dd 0a f1 39
       -3.927677e-05 0.0002288318 8.2546074e-05 0.00045975196
000020 3b cc a1 39 7d a9 d0 3c 34 b7 a0 39 de fb c5 b7
       0.00030860477 0.025471443 0.00030654075 -2.3601515e-05
000030 83 ab 1b 39 cc aa d9 b9 85 20 71 b9 ab 65 8c 39
       0.00014845845 -0.0004151672 -0.00022995665 0.0002677863
000040 01 52 b2 38 3c ef 7b b9 7d cc 7a 39 2a c2 82 39
       8.502976e-05 -0.00024026347 0.00023918036 0.00024940196
000050 cf 77 67 b9 2c 92 7e b8 02 ec 26 ba 74 ed 08 b7
       -0.00022074509 -6.0694452e-05 -0.00063675654 -8.161518e-06
000060 d1 db e1 39 61 d2 cf b9 c3 07 37 ba 06 02 5b 39
       0.0004307912 -0.0003963886 -0.00069820526 0.00020886221
000070 d8 48 08 ba 8c 1d 03 ba d5 bb 28 ba b7 97 d8 39
       -0.0005198843 -0.0005001656 -0.00064366806 0.00041311767
000080 95 db e1 b8 ab a6 bf ba 84 1f 6f b9 c0 89 54 b9
       -0.000107697364 -0.0014621814 -0.00022804557 -0.00020269211
000090 4a 90 b7 b9 e7 0d f7 b9 39 6c 6d 39 68 3e 8e b8
       -0.00035011984 -0.0004712187 0.00022642397 -6.782712e-05
0000a0 74 95 e0 39 1d 05 22 39 63 d7 39 b9 f3 43 fd b9
       0.0004283596 0.00015451429 -0.00017723213 -0.00048306547
0000b0 12 ec 54 b9 ac c4 21 b9 a1 ac 28 b9 4f 03 c3 bb
       -0.00020305839 -0.00015427422 -0.00016086038 -0.005951322
0000c0 a0 8f 25 38 bf 98 fd b9 a8 90 08 38 55 fa 95 b9
       3.9472827e-05 -0.00048369725 3.255965e-05 -0.00028606007
0000d0 35 db 00 39 ce 00 19 b9 d8 d3 6c 37 02 97 88 ba
       0.00012288692 -0.00014591517 1.411602e-05 -0.001042098
0000e0 fe c1 5f b6 66 37 b2 b8 37 2f 20 b9 ae 25 69 3a
       -3.3342508e-06 -8.49802e-05 -0.00015276378 0.00088938593
0000f0 af 9a 4e 38 e1 19 70 b9 2a 2d 99 b9 95 07 fb b9
       4.9258288e-05 -0.00022897824 -0.00029216084 -0.000478801
000100 2b a5 cc b8 48 98 e0 b7 16 fb 1d bb 9a 25 88 b9
       -9.758243e-05 -2.6773792e-05 -0.0024105958 -0.00025967957
000110 48 ab 98 38 28 f9 27 b9 d8 38 bb 39 9a 60 dd b8
       7.2798284e-05 -0.00016019179 0.0003570977 -0.00010556095
000120 64 b5 36 b9 08 39 15 b9 80 47 11 3d 5f f0 28 ba
       -0.00017424446 -0.00014230993 0.03546858 -0.00064445095
000130 29 b4 98 37 70 86 8b b9 46 e4 e4 39 8f 7e fa b9
       1.8203706e-05 -0.0002661231 0.00043657626 -0.0004777801
000140 45 00 82 39 1c 11 21 b9 0e 4e 23 b9 21 cd f6 b9
       0.00024795733 -0.0001536053 -0.00015573969 -0.0004707361
000150 34 fa ae b8 aa bc 89 39 93 6f d9 37 0c b4 06 3a
       -8.3435705e-05 0.00026271242 2.5920372e-05 0.00051385234
000160 9a b0 00 b9 12 b7 01 3a a0 99 fd 38 14 96 1c b9
       -0.0001227282 0.0004948239 0.00012092595 -0.00014933228
000170 f9 9d 0d 3a fa 32 2b 3a d0 dc fa b8 cd 2c d5 38
       0.0005402263 0.00065307284 -0.000119620585 0.00010164976
000180 64 55 53 b6 6a 52 a1 b8 5c a8 37 39 e0 11 26 b9
       -3.1491154e-06 -7.692429e-05 0.00017514959 -0.00015837653
