training_data/taylor_green/params.pt (torch, 79670 bytes, 30 tensors)

model_W.MLP.layers.0.weight f4 [50, 1]
0.40652448 -0.9116957 -0.902605 -1.0566638 -0.31966156 -0.19763885 -0.84619224 -0.47179952
-0.83736634 1.6180246 -0.6290464 -1.0667335 0.44997936 -1.1766942 1.7362376 0.764134
-1.6550506 -1.1245022 -2.1372194 -0.6953975 0.022181824 -1.3108112 -1.6452926 1.0940576
-0.37183192 -0.74675137 -0.82374376 0.5702919 0.09137322 -0.65203977 -0.989191 0.2799623
0.3522459 1.1867883 0.17291367 -0.17781813 -0.5845726 1.6179723 -0.21227035 -1.0076705
0.85633254 1.199613 -1.4299544 -0.60595244 -0.46801764 -0.8135443 0.48014307 -1.9306374
1.5004556 -0.24200615
00000000: fa23 d03e e464 69bf 1f11 67bf c240 87bf
00000010: aeaa a3be d761 4abe 0ea0 58bf b58f f1be
00000020: a45d 56bf 6e1b cf3f 2f09 21bf b98a 88bf
00000030: b263 e63e ea9d 96bf 093d de3f 499e 433f
00000040: b3d8 d3bf b0ef 8fbf 34c8 08c0 9205 32bf
00000050: a8b6 b53c a9c8 a7bf f398 d2bf 140a 8c3f
00000060: c160 bebe 192b 3fbf dfe0 52bf a6fe 113f
00000070: e221 bb3d 14ec 26bf 9f3b 7dbf 3857 8f3e
00000080: 9359 b43e aee8 973f 4810 313e f515 36be
00000090: 8da6 15bf b719 cf3f 665d 59be 59fb 80bf
000000a0: 9c38 5b3f eb8c 993f bf08 b7bf b31f 1bbf
000000b0: 02a0 efbe 7044 50bf 50d5 f53e 201f f7bf
000000c0: ee0e c03f 76d0 77be

model_W.MLP.layers.0.bias f4 [50]
0.8213045 -0.11919999 -0.67984575 0.69673944 -1.0493525 -0.59609306 -0.072339624 0.8278655
-0.92175144 -0.5950903 -0.7691925 -0.4916114 -0.4231788 -0.27130938 -0.2787948 0.4382936
0.0014878594 -0.75710994 -0.5041263 -0.13211145 -0.007737057 0.8513846 -0.12966639 -0.8983893
-0.983906 -0.40809527 -0.6241407 0.17015153 -0.30343813 0.3523606 -0.23862702 0.951359
0.2902841 -0.2843286 1.0138541 0.384877 -0.9917216 -0.56933373 0.82440156 0.41827822
0.84868896 0.003654893 0.4321455 0.57281816 0.267047 -0.24252182 1.0833395 0.026185611
-0.32368132 -0.3793253
00000000: 0341 523f 201f f4bd 5f0a 2ebf 845d 323f
00000010: 2f51 86bf 8e99 18bf cc26 94bd feee 533f
00000020: e7f7 6bbf d757 18bf cde9 44bf 7db4 fbbe
00000030: e4aa d8be 10e9 8abe 31be 8ebe 0568 e03e
00000040: 4704 c33a f5d1 41bf 6c0e 01bf 3948 07be
00000050: 2387 fdbb 57f4 593f 44c7 04be d7fc 65bf
00000060: 43e1 7bbf ddf1 d0be afc7 1fbf 343c 2e3e
00000070: 3e5c 9bbe 9c68 b43e a45a 74be 438c 733f
00000080: 1ea0 943e 8593 91be f9c5 813f 990e c53e
00000090: 77e1 7dbf dbbf 11bf fb0b 533f 9028 d63e
000000a0: ae43 593f ee86 6f3b 2d42 dd3e 36a4 123f
000000b0: 62ba 883e a457 78be deaa 8a3f 3583 d63c
000000c0: 8fb9 a5be ed36 c2be

model_W.MLP.layers.2.weight f4 [50, 50]
0.17118841 0.086455874 -0.025439285 0.17919427 0.039735336 -0.09785998 -0.13945241 0.09365836
0.11231969 0.03609704 0.036150213 -0.009396437 -0.011915635 -0.048724286 0.2775923 0.0896106
0.07085954 0.036191683 0.02653274 -0.12624559 0.107173525 0.08891435 -0.076829396 0.12855178
-0.0020695578 0.07169226 0.123904996 0.03334804 0.0924716 -0.03262979 0.10337627 0.13879047
-0.01237393 0.20611954 -0.03772111 -0.053923268 -0.045618277 0.13731407 -0.033820406 -0.121434376
-0.044308476 0.20619802 -0.033622857 0.11842662 0.101473846 0.072317794 0.09388488 -0.12724333
0.4162332 -0.15602595 -0.14961593 0.03703983 0.1607143 -0.19597813 0.027532673 0.0077855806
0.05977373 -0.16152485 0.24513304 0.118201196 0.1495781 -0.021011263 0.23517825 0.10472519
-0.12152641 0.004737365 0.12831351 0.23799573 0.032730486 0.29282013 -0.1639066 -0.02335074
0.13961828 0.006769451 0.12535295 0.11047607 0.16279405 -0.15664952 0.0039952626 0.04247689
0.051158946 -0.004373586 0.01932224 -0.04905323 -0.16265109 -0.095750146 -0.034398943 0.17142385
-0.15914978 -0.10176801 -0.19975702 0.014877311 -0.067625135 -0.20533107 -0.104543515 0.044884574
-0.23398827 0.22800149 -0.021106917 0.21448335 -0.0045726593 0.01777565 0.022944793 -0.13302673
0.18027389 0.09258989 0.0704746 -0.0039612013 0.23698059 0.19699536 -0.0043797777 0.08408442
0.066219464 0.24471314 -0.09407724 -0.18279083 0.16733383 0.074523255 0.19951108 0.33419552
-0.098011196 0.0138904415 0.22494042 0.13788061 -0.029390337 0.17626756 0.19997333 -0.05294809
0.04306164 -0.04826796 0.05294907 0.029755194 0.039103482 -0.0009943631 -0.19322334 -0.017648676
0.16948242 0.16355866 -0.20200053 -0.00415471 -0.15882228 -0.21070983 -0.106869034 -0.027694888
-0.016505744 -0.0153218955 -0.020106658 0.2764376 0.09782268 0.19512331 -0.3075815 0.5894554
0.35920805 0.52478135 0.061110612 0.14138831 0.8353635 0.15289444 0.2615328 -0.042204246
0.21661708 0.2750949 -0.09700828 0.60256714 -0.5068536 -0.46251735 0.9345988 0.18735048
0.516109 0.8172514 -0.059313644 0.4043555 0.69981587 -0.009668081 0.2616775 0.49739996
0.17667282 -0.49334043 0.018591732 0.40969026 0.38400817 -0.3060791 -0.3418618 -0.41907564
-0.21869236 0.019529967 0.07975975 -0.1331942 -0.10653123 0.7330329 -0.29792902 -0.7852766
0.5962272 0.34163597 0.4359175 0.5540994 -0.22575073 1.2808905 -0.5057671 0.11941498
-0.17511101 0.08121214 0.21835846 -0.009974414 0.22877958 0.023055688 0.04703233 -0.063412875
0.20435293 -0.043991577 0.020982433 0.10658788 0.011168754 0.12952462 -0.037659336 -0.11541118
0.14927119 0.1904988 0.24222763 0.28619662 -0.029141694 0.009580165 0.16889784 0.029475342
0.15317604 0.101813376 0.027477589 -0.10034986 0.059069254 -0.17575331 0.016154006 -0.043682832
0.025920894 0.030205473 -0.22364107 -0.025914438 0.04391446 0.20921147 -0.22865877 -0.11043295
0.031531315 -0.01436751 -0.11210241 -0.21915072 -0.088084415 0.12311919 -0.20346572 -0.043955985
-0.014167274 0.07437585 0.123236366 -0.24013697 -0.057098474 -0.2529008 -0.020793142 -0.08238096
00000000: 044c 2f3e c70f b13d 0c66 d0bc b47e 373e
00000010: 85c1 223d d06a c8bd 9dcc 0ebe f4cf bf3d
00000020: de07 e63d 7dda 133d 3f12 143d 83f3 19bc
00000030: cc39 43bc 1e93 47bd 9420 8e3e c385 b73d
00000040: ce1e 913d bb3d 143d 305b d93c 8646 01be
00000050: cb7d db3d ba18 b63d bb58 9dbd 14a3 033e
00000060: 6ba1 07bb 64d3 923d e7c1 fd3d f497 083d
00000070: c061 bd3d d1a6 05bd f0b6 d33d 171f 0e3e
00000080: 06bc 4abc 0011 533e 7381 1abd a5de 5cbd
00000090: 3bda 3abd 0f9c 0c3e 4487 0abd 96b2 f8bd
000000a0: ce7c 35bd 9325 533e 1fb8 09bd a889 f23d
000000b0: 85d1 cf3d 5a1b 943d b746 c03d 134c 02be
000000c0: 851c d53e 44c5 1fbe eb34 19be 14b7 173d
000000d0: 4a92 243e 7eae 48be 338c e13c 2f1e ff3b
000000e0: 4cd5 743d c566 25be 2804 7b3e 7813 f23d
000000f0: 002b 193e d01f acbc 91d2 703e 297a d63d
00000100: d7e2 f8bd e63b 9b3b 9e64 033e 27b5 733e
00000110: 6710 063d 85ec 953e 22d7 27be 0d4a bfbc
00000120: 18f8 0e3e 45d2 dd3b 865c 003e 4741 e23d
00000130: 7cb3 263e bb68 20be b1ea 823b 3ffc 2d3d
00000140: 0b8c 513d 4c50 8fbb ad49 9e3c 0aec 48bd
00000150: 028e 26be a718 c4bd e8e5 0cbd bc89 2f3e
00000160: 29f8 22be bf6b d0bd 1b8d 4cbe f7bf 733c
00000170: 0c7f 8abd 4f42 52be e91a d6bd e3d8 373d
00000180: 9f9a 6fbe 3979 693e 6ae8 acbc 86a1 5b3e
00000190: 3fd6 95bb 3d9e 913c b8f6 bb3c 2938 08be
000001a0: b899 383e c59f bd3d fd54 903d f7cc 81bb
000001b0: 0aab 723e 27b9 493e 3d84 8fbb 7434 ac3d
000001c0: 129e 873d 1596 7a3e 91ab c0bd 852d 3bbe
000001d0: 8f59 2b3e a69f 983d a24c 4c3e ad1b ab3e
000001e0: 18ba c8bd bc94 633c c856 663e 9330 0d3e
000001f0: 01c4 f0bc 7c7f 343e cfc5 4c3e 19e0 58bd
00000200: 6761 303d a0b4 45bd 20e1 583d 2ac1 f33c
00000210: f92a 203d 4a55 82ba 57dc 45be f593 90bc
00000220: cd8c 2d3e ec7b 273e 3ad9 4ebe 3c24 88bb
00000230: 4fa2 22be 51c4 57be 27de dabd 64e0 e2bc
00000240: 0e37 87bc b008 7bbc b8b6 a4bc 3b89 8d3e
00000250: 4257 c83d 68ce 473e 537b 9dbe 8de6 163f
00000260: 1eea b73e 1258 063f 1f4f 7a3d 19c8 103e
00000270: 62da 553f 5c90 1c3e a1e7 853e 5cde 2cbd
00000280: ded0 5d3e 3dd9 8c3e 47ac c6bd d741 1a3f
00000290: 28c1 01bf 13cf ecbe de41 6f3f ced8 3f3e
000002a0: b81f 043f 6337 513f ddf2 72bd af07 cf3e
000002b0: 2227 333f df66 1ebc 98fa 853e 35ab fe3e
000002c0: b8e9 343e 1e97 fcbe b04d 983c ecc2 d13e
000002d0: b89c c43e 66b6 9cbe 8308 afbe 1591 d6be
000002e0: e4f0 5fbe 4ffd 9f3c 1459 a33d 0f64 08be
000002f0: 0c2d dabd 0ba8 3b3f 278a 98be e307 49bf
00000300: 59a2 183f e9ea ae3e 9430 df3e 75d9 0d3f
00000310: 332b 67be 38f4 a33f f479 01bf d78f f43d
00000320: 4d50 33be 8d52 a63d 5c99 5f3e b96b 23bc
00000330: 3245 6a3e 48df bc3c f9a4 403d 9cde 81bd
00000340: e541 513e 8330 34bd 5ae3 ab3c bf4a da3d
00000350: 26fd 363c 1aa2 043e ad40 1abd b25c ecbd
00000360: 8cda 183e 1e12 433e 850a 783e 5d88 923e
00000370: 90ba eebc 20f6 1c3c 8ef3 2c3e 4676 f13c
00000380: 2eda 1c3e 8883 d03d ae18 e13c 3a84 cdbd
00000390: 9af2 713d adf8 33be 6855 843c c5ec 32bd
000003a0: 0e58 d43c 7871 f73c 2a02 65be 844a d4bc
000003b0: a6df 333d 883b 563e 8625 6abe ac2a e2bd
000003c0: fb26 013d b465 6bbc f395 e5bd 0c69 60be
000003d0: 9a65 b4bd ea25 fc3d 5159 50be 310b 34bd
000003e0: db1d 68bc 5e52 983d 5963 fc3d 77e6 75be
000003f0: 17e0 69bd 377c 81be 6156 aabc 59b7 a8bd

model_W.MLP.layers.2.bias f4 [50]
0.11884372 -0.1423073 -0.23175769 -0.21125889 0.019599998 -0.02422425 -0.0032435427 0.0043484983
-0.11646501 0.108270295 0.05857963 -0.075287424 -0.019369295 0.025520248 -0.04942615 0.030843673
-0.0073387506 -0.21551281 -0.081319936 0.10702093 0.010761627 -0.14692663 -0.3490417 -0.109705865
-0.110573836 0.0036110515 -0.19720584 -0.28781915 -0.19326846 -0.16578898 -0.086344644 0.06303698
-0.13606657 -0.063945994 0.10988027 -0.005891123 0.034942858 -0.112106 -0.21866108 0.08557094
-0.1483288 0.2385244 -0.114023186 -0.025028363 0.03164249 -0.034853213 -0.12897402 0.008836142
-0.17514603 -0.10944578
00000000: 5664 f33d 01b9 11be e351 6dbe 4054 58be
00000010: 2d90 a03c ef71 c6bc 9e91 54bb d97d 8e3b
00000020: 3585 eebd d1bc dd3d 32f1 6f3d 4b30 9abd
00000030: 5bac 9ebc d70f d13c 1373 4abd dfab fc3c
00000040: e779 f0bb 64af 5cbe 118b a6bd ca2d db3d
00000050: 8951 303c ef73 16be 98b5 b2be 78ad e0bd
00000060: 8974 e2bd 64a7 6c3b 54f0 49be 085d 93be
00000070: 2be8 45be 96c4 29be 76d5 b0bd 8819 813d
00000080: 0955 0bbe 1ef6 82bd e808 e13d 520a c1bb
00000090: 3e20 0f3d d597 e5bd b1e8 5fbe d13f af3d
000000a0: 81e3 17be be3f 743e fd84 e9bd 4808 cdbc
000000b0: 8e9b 013d 3ec2 0ebd c411 04be 77c5 103c
000000c0: 7b59 33be 1c25 e0bd

model_W.MLP.layers.4.weight f4 [1, 50]
-0.27523127 0.14767833 0.0896502 0.8814305 0.11929181 0.02418804 0.085837916 0.00044901817
0.0435704 -0.03408843 -0.10003322 -0.14987676 -0.09741708 0.045992102 0.11111041 -0.19782169
-0.08468359 0.16902451 0.0017332319 -0.24512087 -0.08031064 0.1924056 -0.5478282 -0.04861811
0.046652496 -0.06995527 0.092503 -0.77286464 0.13453603 0.1361452 0.5361077 -0.14247979
-0.115006894 -0.008440897 -0.051305573 0.108207345 -0.13767244 -0.02504721 0.10216958 -0.00056679477
0.042713635 -0.9166402 0.0860311 0.079096906 -0.018688006 -0.017157046 0.11961309 -0.051634856
0.16511315 0.19174974
00000000: 1deb 8cbe fd38 173e 869a b73d 6ea5 613f
00000010: 444f f43d ff25 c63c cacb af3d 336a eb39
00000020: e076 323d 4fa0 0bbd 38de ccbd 4b79 19be
00000030: 9b82 c7bd 3762 3c3d db8d e33d c591 4abe
00000040: 976e adbd c314 2d3e 9d2d e33a f700 7bbe
00000050: e879 a4bd f905 453e 783e 0cbf c923 47bd
00000060: b016 3f3d b544 8fbd 3672 bd3d 75da 45bf
00000070: d0c3 093e a669 0b3e 5b3e 093f 39e6 11be
00000080: bc88 ebbd b04b 0abc cb25 52bd d09b dd3d
00000090: 01fa 0cbe ce2f cdbc 493e d13d f494 14ba
000000a0: 7ef4 2e3d efa8 6abf 1331 b03d 8ffd a13d
000000b0: 9717 99bc ef8c 8cbc b5f7 f43d 127f 53bd
000000c0: 6c13 293e 0b5a 443e

teacher.layers.0.weight f4 [50, 4]
-0.34390667 0.20014514 0.1804035 0.031756293 -0.36036128 0.036896404 0.11606152 0.1792407
-0.5050821 0.24080348 -0.33853564 0.116394795 -0.26767793 -0.20689747 -0.05757207 -0.0066937506
-0.4059656 -0.13381603 0.29341522 -0.047657166 -0.46722856 0.11729042 -0.22830388 0.033508524
0.430356 0.034970384 -0.14115621 -0.16826616 -0.18785602 -0.23017018 -0.022408716 0.32867292
0.19966982 -0.15393904 0.2078999 -0.29706565 -0.10994682 0.2546035 0.025446853 -0.30314055
-0.032547142 0.13079563 0.023677472 0.09926085 -0.56415737 0.20235404 -0.31843334 0.17279513
-0.5389339 -0.028437696 0.04902277 0.005589259 -0.12283468 -0.12406449 -0.11760177 0.15377122
0.16723488 0.06958168 -0.056837052 0.07967907 0.051567774 0.040337056 -0.029288005 0.028182501
0.29673195 -0.06575827 -0.109337606 -0.13382588 0.017128361 -0.072189935 -0.06559178 -0.048638392
-0.091174625 -0.32294807 0.08288555 0.24139951 0.272842 -0.2851594 -0.13851815 0.16737409
0.07347535 0.14646909 0.16483259 -0.07536407 0.2613788 0.3381224 0.091836706 -0.025771163
0.17750801 0.21965006 -0.23675543 0.09803486 -0.20214549 0.021220447 -0.29231524 -0.09164382
-0.08112127 -0.18410173 -0.26033297 0.13392064 -0.28620818 0.2551922 -0.22981676 0.28275773
0.031216968 -0.16834958 0.0028859612 -0.16477603 -0.009292436 0.17650479 -0.29899108 0.09858999
0.22469863 -0.13763109 0.05570747 0.18393444 -0.55883116 0.14458098 -0.17513306 -0.15428874
-0.14954853 -0.06092911 -0.17461167 -0.08055454 -0.03696128 -0.19497965 -0.06363102 0.28808483
-0.29927665 0.018211812 -0.27913558 -0.09759893 0.41636524 0.11781541 -0.062044755 -0.20184553
-0.35663593 0.25178334 -0.15240625 0.010169562 -0.38407618 -0.1212497 0.025635732 -0.07830241
-0.25065336 0.03731619 0.04449121 0.034384806 0.08504988 0.0032945648 -0.16385359 0.0057379147
0.32708973 -0.07925706 0.044412885 0.014442235 -0.42625815 0.30563062 -0.08736836 -0.25138003
-0.52862096 -0.2050502 -0.28967053 0.17003603 0.2843485 -0.22596231 -0.15782927 0.09291286
-0.30929875 0.21137837 -0.0049425624 -0.13159747 -0.43857017 -0.13394761 0.20912229 0.05185515
-0.45818135 0.2529207 -0.23034494 0.10290944 0.32467034 0.12460182 0.2622955 -0.2516384
-0.48576096 -0.32291847 0.21370667 -0.054593842 0.13883397 -0.21811709 0.03071966 0.36731234
-0.01991991 0.38899028 -0.2571418 0.055768028 -0.21151935 -0.33833805 -0.15033644 -0.015385897
00000000: 8914 b0be d9f2 4c3e b2bb 383e e312 023d
00000010: 4681 b8be af20 173d aab1 ed3d e08a 373e
00000020: 0f4d 01bf 3095 763e 8b54 adbe 6560 ee3d
00000030: 150d 89be eedc 53be b1d0 6bbd 4057 dbbb
00000040: b9da cfbe 1207 09be 853a 963e 2934 43bd
00000050: 9538 efbe f635 f03d 7ec8 69be 3c40 093d
00000060: 9f57 dc3e 1b3d 0f3d 418b 10be f74d 2cbe
00000070: 545d 40be bbb1 6bbe 7c92 b7bc d147 a83e
00000080: 3f76 4c3e 32a2 1dbe b6e3 543e fd18 98be
00000090: cc2b e1bd 645b 823e eb75 d03c 3d35 9bbe
000000a0: 2750 05bd 4aef 053e 42f7 c13c 4649 cb3d
000000b0: 9e6c 10bf e635 4f3e b209 a3be 35f1 303e
000000c0: 92f7 09bf 2cf6 e8bc 1acc 483d 1a26 b73b
000000d0: c090 fbbd 8615 febd 32d9 f0bd 3476 1d3e
000000e0: 9f3f 2b3e d780 8e3d f8cd 68bd c82e a33d
000000f0: bb38 533d 7838 253d 66ed efbc fdde e63c
00000100: 40ed 973e 46ac 86bd 65ec dfbd a709 09be
00000110: c750 8c3c 51d8 93bd fc54 86bd 0d39 47bd
00000120: c3b9 babd 7359 a5be e6bf a93d 6f31 773e
00000130: f2b1 8b3e 6a00 92be b4d7 0dbe 1d64 2b3e
00000140: 3f7a 963d fefb 153e e0c9 283e 7a58 9abd
00000150: 71d3 853e 611e ad3e e214 bc3d 0c1e d3bc
00000160: a9c4 353e f2eb 603e 0470 72be 80c6 c83d
00000170: 3aff 4ebe 81d6 ad3c 58aa 95be c1af bbbd
00000180: e922 a6bd 2a85 3cbe 5d4a 85be 7e22 093e
00000190: e189 92be 8da8 823e 1655 6bbe 9fc5 903e
000001a0: baba ff3c d563 2cbe 6522 3d3b 0cbb 28be
000001b0: 4d3f 18bc acbd 343e 5c15 99be 8ce9 c93d
000001c0: 6617 663e 2aef 0cbe 842d 643d 4f59 3c3e
000001d0: 8f0f 0fbf 090d 143e 1556 33be defd 1dbe
000001e0: 4023 19be cd90 79bd 67cd 32be c7f9 a4bd
000001f0: b664 17bd bfa8 47be fb50 82bd db7f 933e
00000200: ca3a 99be f030 953c dcea 8ebe f3e1 c7bd
00000210: d32d d53e 3549 f13d a422 7ebd 98b0 4ebe
00000220: fc98 b6be bfe9 803e 6210 1cbe 3c9e 263c
00000230: a2a5 c4be c351 f8bd 0702 d23c 045d a0bd
00000240: a355 80be dcd8 183d 6a3c 363d 15d7 0c3d
00000250: a22e ae3d a0e9 573b 3cc9 27be 1e05 bc3b
00000260: 4e78 a73e 8751 a2bd 49ea 353d 209f 6c3c
00000270: 823e dabe 9e7b 9c3e 2fee b2bd e2b4 80be
00000280: b453 07bf aef8 51be b24f 94be ed1d 2e3e
00000290: 2096 913e aa62 67be ff9d 21be 1949 be3d
000002a0: 685c 9ebe 9273 583e 38f5 a1bb 7dc1 06be
000002b0: 458c e0be 9029 09be 2724 563e 1166 543d
000002c0: bf96 eabe d27e 813e 8bdf 6bbe 2fc2 d23d
000002d0: 313b a63e 3d2f ff3d 994b 863e c0d6 80be
000002e0: a9b5 f8be 9255 a5be ecd5 5a3e cb9d 5fbd
000002f0: 7e2a 0e3e 165a 5fbe cca7 fb3c 5d10 bc3e
00000300: 142f a3bc bc29 c73e 17a8 83be 046d 643d
00000310: 8798 58be a53a adbe ccf1 19be 2115 7cbc

teacher.layers.0.bias f4 [50]
-0.6544792 0.2709854 -0.31588542 -0.031377923 0.012015926 -0.7259967 -0.23015852 -0.0303911
-0.21580791 0.19318148 -0.0018219841 0.054502852 0.068540685 0.015014601 -0.44470173 0.1900893
-0.25070655 -0.012662849 0.17384002 0.13423905 0.33461928 0.45708206 -0.34422994 -0.24078487
0.1885896 -0.04526589 0.17957535 -0.5561004 -0.26133803 -0.24537058 0.21694459 -0.39498368
0.013462278 0.22627206 -0.24025671 0.26539972 0.30990323 0.19585104 -0.21012776 -0.17918162
-0.19762221 0.16250165 -0.4630391 0.1442258 0.35077026 0.13712098 -0.35977006 0.26417032
-0.49548605 -0.2816774
00000000: f38b 27bf 99be 8a3e bcbb a1be 2386 00bd
00000010: 72de 443c ebda 39bf adae 6bbe c2f6 f8bc
00000020: c0fc 5cbe 5ed1 453e a4cf eeba 623e 5f3d
00000030: 0f5f 8c3d cdff 753c f2af e3be c5a6 423e
00000040: 9c5c 80be d777 4fbc 1e03 323e f675 093e
00000050: 3853 ab3e a906 ea3e e83e b0be 4f90 76be
00000060: a21d 413e ba68 39bd 9ae2 373e 995c 0ebf
00000070: 19ce 85be 6d42 7bbe b926 5e3e 4d3b cabe
00000080: e390 5c3c ddb3 673e db05 76be 79e2 873e
00000090: a3ab 9e3e 2d8d 483e bb2b 57be 637b 37be
000000a0: 7a5d 4abe d566 263e 7613 edbe eeaf 133e
000000b0: 2998 b33e 7169 0c3e c833 b8be 5541 873e
000000c0: 59b0 fdbe 0538 90be

teacher.layers.2.weight f4 [50, 50]
0.11104499 -0.076462306 -0.02213158 0.111822575 -0.004214939 -0.009893217 -0.010919808 -0.09439703
-0.15078035 0.04229537 -0.01599715 0.03752108 -0.019813087 0.104231924 -0.088526316 -0.09118843
-0.14230655 -0.13565321 0.07678092 -0.046998676 -0.076992646 -0.053422123 -0.04891101 -0.017490584
-0.1323079 0.055417094 -0.03277868 -0.11145647 0.03500395 -0.07821596 -0.06102284 -0.112839706
-0.15171656 0.034447215 -0.1360557 0.04486251 -0.12462955 -0.031044286 -0.10707382 -0.15305308
-0.11695433 -0.08418684 -0.02740469 0.018905295 -0.08522505 0.07115929 -0.038088143 -0.037269097
0.04879202 0.11938115 0.08161207 -0.12166469 -0.059507426 -0.04914919 0.034288887 0.13564657
0.07965583 -0.10635559 0.10623567 0.06049707 0.11041199 0.061180256 0.05598313 -0.106523044
0.043565746 0.13126107 -0.034093544 -0.11748728 0.004080453 0.09541519 -0.02265942 0.0073434883
0.11912567 -0.060098995 -0.051180698 0.010390508 -0.009646512 -0.07582157 -0.12447085 0.15104394
-0.058916967 -0.14643201 0.10749417 -0.051976725 -0.012775371 -0.0047204276 -0.04566161 -0.13694273
-0.014274868 -0.07539509 -0.042494953 0.08734462 0.012817909 0.05904524 -0.043487974 -0.060487974
-0.18480773 0.15262268 -0.021608649 0.045782223 0.14932331 -0.10952047 0.05999636 -0.06317385
0.13780148 0.10349422 0.013612117 0.081046194 -0.020097652 -0.027293725 -0.028913492 -0.056266237
-0.09230806 -0.01807714 -0.03514391 0.09859531 0.1215847 -0.13251807 -0.12956722 -0.079488866
-0.13909471 -0.01118957 0.0037040978 0.007823555 0.033531122 -0.056433767 -0.1520444 -0.07992403
-0.14124523 -0.080927 -0.09362684 0.105441436 -0.115951516 -0.027347442 -0.09986194 -0.048426725
0.017898325 0.027003568 0.1299818 0.04124158 -0.016611345 0.104308926 -0.085217096 -0.006366915
0.034370303 0.03479673 0.001392914 -0.0007204278 0.05654566 -0.0075031035 0.004278413 -0.13098308
-0.07901026 -0.1424348 0.008142089 -0.11590584 -0.078437865 0.08702943 -0.05543784 0.07947179
0.007906084 -0.071059994 0.15587893 0.10146832 -0.06770506 -0.018505218 -0.04403469 -0.13650765
0.04121433 0.057306986 0.13942896 -0.09046152 -0.060022715 0.035755105 -0.09642418 0.11985581
0.03696986 0.021436095 0.032871358 0.038511235 0.0038618355 -0.106956534 0.06927181 -0.062439363
-0.00097253907 -0.13364777 -0.053522624 0.07191498 0.03798493 -0.02370799 -0.0479548 -0.12698495
0.08519694 -0.104436636 0.08145567 -0.044609785 0.113488644 -0.017083425 -0.08637596 0.1655531
0.09774572 -0.068853535 -0.078741066 -0.016382255 -0.031750992 0.12139033 -0.08301912 0.0764626
0.07671241 0.022263983 -0.063758515 0.11449379 -0.080578536 0.033802923 -0.062725015 0.029729096
-0.14435345 0.049629446 -0.07650871 -0.12375405 -0.09183825 0.07351943 0.05339748 -0.11360767
0.07791601 -0.024626596 -0.19212666 -0.14801359 -0.047745667 0.14418843 -0.09203674 0.1149213
-0.051065214 -0.16266952 -0.07479623 -0.096474126 0.016053442 0.014877135 0.029855028 -0.05037742
0.0032277706 0.032810397 -0.009097259 0.10038798 0.10873296 0.08690807 0.071430266 -0.11383855
-0.04926572 0.1012049 0.16376226 -0.0072945645 0.051453363 0.013096213 -0.017555041 -0.0061637494
00000000: 8e6b e33d 4598 9cbd 4a4d b5bc 3c03 e53d
00000010: 791d 8abb 2917 22bc ffe8 32bc 3b53 c1bd
00000020: 2a66 1abe e93d 2d3d 750c 83bc b4af 193d
00000030: 0e4f a2bc 8c77 d53d 494d b5bd 00c1 babd
00000040: cfb8 11be ade8 0abe 513f 9d3d af81 40bd
00000050: 52ae 9dbd 28d1 5abd e956 48bd 6a48 8fbc
00000060: b97b 07be 09fd 623d f042 06bd 4a43 e4bd
00000070: 4d60 0f3d b02f a0bd 16f3 79bd 8118 e7bd
00000080: 965b 1bbe 8618 0d3d 2f52 0bbe c0c1 373d
00000090: c73d ffbd 9650 febc 8549 dbbd f2b9 1cbe
000000a0: c085 efbd 266a acbd cd7f e0bc 47df 9a3c
000000b0: 798a aebd f6bb 913d 5002 1cbd 7ba7 18bd
000000c0: 24da 473d 1b7e f43d 3b24 a73d 562b f9bd
000000d0: 0fbe 73bd a950 49bd 8172 0c3d efe6 0a3e
000000e0: 9922 a33d f6d0 d9bd 1692 d93d c7cb 773d
000000f0: ae1f e23d 2698 7a3d 914e 653d c128 dabd
00000100: ff71 323d 4d69 063e aca5 0bbd 2c9d f0bd
00000110: 52b5 853b 0a69 c33d 3fa0 b9bc a5a1 f03b
00000120: 29f8 f33d 5d2a 76bd daa2 51bd f33c 2a3c
00000130: 670c 1ebc 5748 9bbd 93ea febd 43ab 1a3e
00000140: eb52 71bd 46f2 15be e725 dc3d 8ce5 54bd
00000150: ca4f 51bc d1ad 9abb ab07 3bbd b73a 0cbe
00000160: 23e1 69bc be68 9abd 300f 2ebd bce1 b23d
00000170: 3502 523c 6cd9 713d 7220 32bd 3dc2 77bd
00000180: 3d3e 3dbe 1f49 1c3e 9f04 b1bc 2486 3b3d
00000190: 36e8 183e 454c e0bd bebe 753d 4b61 81bd
000001a0: d51b 0d3e c7f4 d33d 5b05 5f3c 8cfb a53d
000001b0: d5a3 a4bc 1797 dfbc fddb ecbc 6d77 66bd
000001c0: 020c bdbd 8316 94bc 10f3 0fbd 56ec c93d
000001d0: 6601 f93d d1b2 07be 45ad 04be 0fcb a2bd
000001e0: d86e 0ebe 7554 37bc 73c0 723b 5e2e 003c
000001f0: ee57 093d 1827 67bd 87b1 1bbe 36af a3bd
00000200: 97a2 10be 0ebd a5bd 6ebf bfbd aef1 d73d
00000210: fd77 edbd be07 e0bc 6b84 ccbd 1a5b 46bd
00000220: 829f 923c 9636 dd3c f319 053e eeec 283d
00000230: 8414 88bc eb9f d53d 4d86 aebd 8ea1 d0bb
00000240: e0c7 0c3d 0487 0e3d 7092 b63a 17db 3cba
00000250: 6c9c 673d 98dc f5bb ee31 8c3b 6e20 06be
00000260: 22d0 a1bd 6eda 11be 6566 053c 0b60 edbd
00000270: 08a4 a0bd 7c3c b23d ca12 63bd 1bc2 a23d
00000280: 8588 013c e787 91bd ba9e 1f3e 9fce cf3d
00000290: f3a8 8abd 4198 97bc b85d 34bd a9c8 0bbe
000002a0: 5bd0 283d bbba 6a3d 77c6 0e3e e443 b9bd
000002b0: 61da 75bd f273 123d 0a7a c5bd f776 f53d
000002c0: b56d 173d c09a af3c 1ea4 063d f5bd 1d3d
000002d0: d916 7d3b 070c dbbd 61de 8d3d 6bc0 7fbd
000002e0: fef1 7eba f6da 08be 8a3a 5bbd 2948 933d
000002f0: 1696 1b3d 4237 c2bc 416c 44bd 5808 02be
00000300: bc7b ae3d e0e2 d5bd 3bd2 a63d c0b8 36bd
00000310: bc6c e83d 8af2 8bbc e1e5 b0bd c086 293e
00000320: e82e c83d 1503 8dbd ff42 a1bd 1434 86bc
00000330: 540d 02bd 7e9b f83d ee05 aabd 6c98 9c3d
00000340: 651b 9d3d f562 b63c d393 82bd b87b ea3d
00000350: 5c06 a5bd ef74 0a3d f975 80bd 6f8a f33c
00000360: 64d1 13be 3f48 4b3d 99b0 9cbd c372 fdbd
00000370: b115 bcbd 5b91 963d 51b7 5a3d 23ab e8bd
00000380: 6e92 9f3d b7bd c9bc dabc 44be e090 17be
00000390: f690 43bd 22a6 133e c27d bcbd dc5b eb3d
000003a0: c229 51bd d792 26be c42e 99bd 3a94 c5bd
000003b0: 8282 833c 3abf 733c 8892 f43c 8e58 4ebd
000003c0: 0189 533b 3264 063d ab0c 15bc 3798 cd3d
000003d0: 63af de3d dcfc b13d 084a 923d 3024 e9bd
000003e0: daca 49bd 8444 cf3d 4bb1 273e 3e07 efbb
000003f0: c3c0 523d 8091 563c 97cf 8fbc 47f9 c9bb

teacher.layers.2.bias f4 [50]
-0.09403295 -0.051733866 0.030173758 0.106339596 0.06041352 0.023786165 0.065951705 -0.101909205
-0.15803888 -0.0058417213 -0.3120753 0.011896593 0.010551848 0.106911495 0.05496008 -0.16378619
-0.0042118193 -0.022643533 0.009202427 -0.17871517 -0.061914563 0.03364461 -0.056190595 -0.0016908543
0.05381365 -0.07329382 -0.048976406 -0.05563257 0.0725932 -0.091747016 0.006031787 -0.14812711
0.09181998 -0.14790532 0.012797851 -0.08005969 -0.17991899 0.06181203 0.0012928761 -0.10462315
-0.11047016 -0.02089111 0.034773707 0.028745426 -0.016076421 0.019096496 -0.061726216 0.035564806
-0.022248175 -0.113360934
00000000: 5994 c0bd e4e6 53bd f52e f73c 93c8 d93d
00000010: 2b74 773d 34db c23c b011 873d c6b5 d0bd
00000020: f2d4 21be e96b bfbb 55c8 9fbe ede9 423c
00000030: a9e1 2c3c 6af4 da3d d21d 613d 91b7 27be
00000040: 4d03 8abb ee7e b9bc c7c5 163c 1c01 37be
00000050: 209a 7dbd eece 093d 1c28 66bd a89f ddba
00000060: b46b 5c3d 121b 96bd 7c9b 48bd fade 63bd
00000070: beab 943d dce5 bbbd 4ca6 c53b a2ae 17be
00000080: 1d0c bc3d 7e74 17be 14ae 513c 56f6 a3bd
00000090: af3c 38be 9c2e 7d3d b975 a93a a944 d6bd
000000a0: 2e3e e2bd d523 abbc e06e 0e3d 877b eb3c
000000b0: b3b2 83bc 4170 9c3c a1d4 7cbd 67ac 113d
000000c0: ce41 b6bc c729 e8bd

teacher.layers.4.weight f4 [1, 50]
-0.034975 0.0024260292 0.0047514597 -0.0022662715 0.020636257 0.00682817 -0.029376727 0.04513129
0.06002192 -0.0041822265 0.09054615 -0.0032157209 0.00072371395 -0.011215394 -0.0011839517 0.04963954
-0.001373213 -0.0009996324 -0.0016416857 0.014314719 0.00087430637 0.0031615673 0.0070982203 -0.0038640557
0.00016445499 -0.009643984 -0.017900968 0.031324744 -0.008139486 -0.009915687 0.017606782 -0.00555909
-0.01175482 0.011309984 -0.06251384 0.017887054 0.020558137 0.0040881843 0.04121087 -0.008080112
0.002393331 -0.008802629 0.0007126438 0.017868025 0.0005384764 -0.021690521 -0.007642188 0.020072542
-0.0019959763 -0.032273006
00000000: f241 0fbd 04fe 1e3b 22b2 9b3b ba85 14bb
00000010: 5e0d a93c d7be df3b 76a7 f0bc 96db 383d
00000020: 8bd9 753d 0f0b 89bb 4370 b93d d8be 52bb
00000030: 9fb7 3d3a c6c0 37bc d42e 9bba d552 4b3d
00000040: 62fd b3ba 1906 83ba d52d d7ba 4888 6a3c
00000050: b531 653a 4c32 4f3b 3098 e83b 193c 7dbb
00000060: 8d71 2c39 cd01 1ebc 0da5 92bc 604e 003d
00000070: 7b5b 05bc 6875 22bc 193c 903c 0729 b6bb
00000080: 4a97 40bc 834d 393c 4207 80bd df87 923c
00000090: 8a69 a83c 2df6 853b bbcc 283d 7262 04bc
000000a0: 6ed9 1c3b e738 10bc b7d0 3a3a f75f 923c
000000b0: 8a28 0d3a 52b0 b1bc 526b fabb 2c6f a43c
000000c0: edce 02bb b330 04bd

model_A.layers.0.weight f4 [50, 2]
0.29638186 0.1514122 -0.5756988 0.56077003 0.5435828 -0.022190465 -0.53248024 -0.08547637
0.448847 -0.5463008 0.15343395 -0.51332814 -0.3463781 0.012582667 0.30972117 -0.44193992
-0.5055329 0.06235584 -0.09072402 -0.5707511 -0.2175158 -0.6407986 -0.06936243 0.22108606
-0.23002705 0.040588263 0.15123813 -0.37596148 0.5582482 0.020200523 0.33984742 -0.52838105
0.13790011 -0.62484634 -0.19348326 0.04599542 -0.5305734 -0.48559532 -0.56987023 -0.38377476
0.25204724 -0.04707002 -0.40565068 0.07046282 -0.55363864 -0.4318042 -0.20944622 -0.36730415
-0.0883123 0.035290968 -0.6108501 -0.3386502 -0.27658474 -0.4504048 0.20512937 -0.019795803
-0.12173855 -0.3085153 0.70369285 -0.6219411 -0.40511578 -0.6879959 0.2624821 -0.43624735
0.06694757 -0.39112315 -0.5958376 -0.6400619 -0.48882583 0.026440175 -0.46051335 -0.018586911
-0.04212211 0.018858409 -0.42037526 -0.5194649 0.24851057 0.07615921 -0.09490266 0.25592676
0.40950337 0.19228834 0.14203389 -0.4079419 0.51938075 -0.23564342 0.589506 -0.32116318
-0.5540159 -0.38866258 0.0019598028 -0.040447377 -0.02983536 0.596101 -0.6254729 0.10041058
0.70534885 -0.031181522 -0.62476325 0.04269672
00000000: 5dbf 973e cd0b 1b3e ff60 13bf a08e 0f3f
00000010: 3e28 0b3f c7c8 b5bc a050 08bf 3c0e afbd
00000020: 46cf e53e 5fda 0bbf ca1d 1d3e 7969 03bf
00000030: 7858 b1be 8827 4e3c c693 9e3e f345 e2be
00000040: 9b6a 01bf d668 7f3d 84cd b9bd be1c 12bf
00000050: 76bc 5ebe 610b 24bf e40d 8ebd 6264 623e
00000060: 368c 6bbe e13f 263d 2bde 1a3e 067e c0be
00000070: 5be9 0e3f 917b a53c 7b00 ae3e fb43 07bf
00000080: b035 0d3e eef5 1fbf 7a20 46be b265 3c3d
00000090: a9d3 07bf f39f f8be 04e3 11bf 207e c4be
000000a0: 560c 813e 7ecc 40bd 72b1 cfbe d04e 903d
000000b0: 43bb 0dbf 7115 ddbe 1279 56be 4a0f bcbe
000000c0: 14dd b4bd 438d 103d ac60 1cbf 8f63 adbe
000000d0: 849c 8dbe 759b e6be 6f0d 523e cf2a a2bc
000000e0: 1052 f9bd b8f5 9dbe 3725 343f 8837 1fbf
000000f0: 566b cfbe 8020 30bf 0e64 863e d05b dfbe
00000100: cf1b 893d 4b41 c8be d088 18bf 19db 23bf
00000110: 6147 fabe 1199 d83c 68c8 ebbe 9443 98bc
00000120: 3c88 2cbd f37c 9a3c 6d3b d7be a7fb 04bf
00000130: 8e79 7e3e 5cf9 9b3d 535c c2bd d508 833e
00000140: 6daa d13e 3ce7 443e 5571 113e c3dd d0be
00000150: 23f6 043f 824c 71be dde9 163f 806f a4be
00000160: fcd3 0dbf c8fe c6be 0970 003b 26ac 25bd
00000170: 4969 f4bc 139a 183f fe1e 20bf 10a4 cd3d
00000180: be91 343f 6470 ffbc 7cf0 1fbf c2e2 2e3d

model_A.layers.0.bias f4 [50]
-0.771078 -0.49501684 -0.3764101 0.6177408 0.2753462 -0.3612517 0.20680691 -0.5533641
-0.51662195 -0.009022471 -0.16191565 0.24445611 0.36954522 0.6594378 -0.22870213 0.5245068
-0.058796525 -0.52644116 -0.16567208 0.035237618 0.23334607 0.55082357 -0.5256858 0.579411
0.27374494 0.0727999 -0.660742 0.010591207 0.076873355 -0.34644428 -0.40434325 -0.5104236
-0.050427668 0.10010229 0.42612427 0.53788656 -0.31179193 0.093608394 0.5797004 0.33281747
-0.030125475 0.39425427 -0.4896618 0.110163115 0.0960274 0.5104439 -0.19603123 -0.64259875
-0.12801655 -0.107793905
00000000: 5e65 45bf d972 fdbe d3b8 c0be 4324 1e3f
00000010: 2dfa 8c3e fcf5 b8be 31c5 533e 45a9 0dbf
00000020: 5641 04bf fcd2 13bc 37cd 25be b452 7a3e
00000030: 0835 bd3e ead0 283f e430 6abe 1446 063f
00000040: a0d4 70bd d9c4 06bf f1a5 29be 5255 103d
00000050: 46f2 6e3e c602 0d3f 5893 06bf 4754 143f
00000060: 4c28 8c3e 1d18 953d 6326 29bf be86 2d3c
00000070: c76f 9d3d 2561 b1be 1406 cfbe 1fab 02bf
00000080: 3e8d 4ebd 6e02 cd3d f62c da3e efb2 093f
00000090: 31a3 9fbe c2b5 bf3d 3f67 143f 0d67 aa3e
000000a0: b3c9 f6bc b2db c93e f4b4 fabe 339d e13d
000000b0: 03aa c43d 74ac 023f 69bc 48be 5a81 24bf
000000c0: c516 03be 0dc3 dcbd

model_A.layers.2.weight f4 [50, 50]
0.040568393 -0.12873843 0.02729965 0.0707886 0.12897764 0.031934578 0.020192005 0.14719094
-0.1362938 -0.003014589 0.14235163 0.13280728 -0.02819245 0.010261299 -0.10604763 0.037553135
0.067781486 0.05154366 -0.044858325 -0.12170947 0.03396988 -0.11874376 0.046964776 -0.11030391
0.10740397 -0.11229351 0.037978493 0.07246029 0.13833675 0.1380347 0.002868543 0.10346981
-0.014295073 0.0983665 0.10981834 -0.1053475 0.08747122 -0.033003427 0.06798343 0.1293622
-0.13196039 -0.07581142 -0.12146054 -0.091876835 0.11060891 0.071480244 -0.07914821 0.030736819
0.100365505 -0.11100669 -0.0073677897 -0.14769556 0.15091233 -0.04387709 -0.017641552 0.053054255
-0.1655247 -0.03569407 0.106302954 -0.060761828 0.119187444 -0.036681037 -0.03209759 0.13179728
-0.103213996 -0.019686656 -0.10308762 -0.14489393 -0.050650205 0.08628701 -0.11508047 -0.15836677
0.070383035 0.084654495 -0.0060829506 0.05375983 0.01152325 -0.15650873 0.12713887 0.05515706
-0.06807713 0.06608637 0.16088124 0.015014662 -0.052231684 0.049020723 -0.025011351 -0.06016738
-0.02792094 -0.17040704 -0.1905523 0.21523234 0.18655516 0.24775061 -0.058809474 0.14373875
-0.20154577 -0.058004405 -0.030294824 0.0909359 -0.16904409 0.07014327 0.034281086 0.08630293
0.022788014 0.14973302 -0.015755646 0.032759793 -0.016516041 -0.058875654 0.10602553 -0.07873757
-0.061470807 0.054083 -0.15833639 0.121927634 0.10814392 0.11395454 0.019450542 -0.06709976
0.08991362 0.04324254 0.14493594 -0.08710939 -0.107936144 -0.12034049 -0.086221404 0.08956697
-0.11350378 0.071718805 -0.011483924 0.14294653 0.15478669 0.045390308 -0.076295935 0.09598987
0.054502062 -0.028202806 -0.15932508 -0.01886725 -0.08199706 -0.04300112 0.05657315 0.15454091
-0.12117995 0.07222993 -0.05330771 -0.0059012636 0.093706734 -0.014904993 -0.08978652 -0.06419663
0.040662065 -0.06483389 -0.07526593 0.073035754 -0.14154477 -0.022805067 0.1150679 0.001262392
-0.027087143 -0.07985097 -0.05969551 -0.09882831 -0.16279921 0.020408027 0.044405676 0.10587137
-0.004074777 -0.076051675 0.068935975 -0.17197779 0.04759352 0.102766596 -0.040303778 0.08905623
-0.105290845 -0.06712214 0.085573785 0.15282321 0.11545317 0.05101735 -0.10861721 -0.020572767
-0.1360551 -0.08050031 -0.05640369 -0.027179055 0.081426166 -0.15859823 0.049260024 0.07803299
-0.06592647 0.024065094 -0.0775613 0.022417784 0.0012237169 -0.07600575 0.08401676 -0.0938321
-0.05574539 -0.038471617 -0.13909017 0.004708419 -0.069346674 0.02525564 -0.023077957 -0.1027877
0.13840984 0.013252281 0.13048615 -0.012180782 -0.09103115 -0.005511494 -0.03900841 -0.008789415
0.030585699 -0.054515973 -0.05922951 0.07997226 0.13618088 -0.023779245 0.065069325 -0.041917782
-0.121436395 -0.12533052 -0.059299085 0.05706562 0.15854126 0.14296618 0.010996838 -0.058323562
0.016362695 0.052340537 0.04553347 -0.006219131 -0.055758882 -0.11239508 0.03300437 -0.003931928
-0.12893793 0.056554817 0.056314856 -0.079194255 0.1511323 -0.08534546 0.041053396 0.015889134
-0.10392079 -0.030018793 -0.018452499 -0.04386917 0.0134856785 -0.10180342 -0.072710134 -0.027683815
00000000: 0b2b 263d 02d4 03be 84a3 df3c 9df9 903d
00000010: b712 043e d5cd 023d b469 a53c 39b9 163e
00000020: 9a90 0bbe 6990 45bb a0c4 113e a2fe 073e
00000030: daf3 e6bc 021f 283c 802f d9bd 51d1 193d
00000040: 05d1 8a3d 721f 533d 5dbd 37bd d142 f9bd
00000050: 0024 0b3d ee2f f3bd 235e 403d 04e7 e1bd
00000060: 9df6 db3d 24fa e5bd 568f 1b3d 0f66 943d
00000070: 26a8 0d3e f858 0d3e 2afe 3b3b fbe7 d33d
00000080: e235 6abc 6074 c93d 70e8 e03d 6ec0 d7bd
00000090: 1c24 b33d 9a2e 07bd e63a 8b3d 8677 043e
000000a0: a020 07be 0543 9bbd 4ec0 f8bd ec29 bcbd
000000b0: ed86 e23d 3c64 923d 7518 a2bd c8cb fb3c
000000c0: 6e8c cd3d 7a57 e3bd 806d f1bb 813d 17be
000000d0: c388 1a3e 77b8 33bd 0485 90bc 6b4f 593d
000000e0: 4f7f 29be f233 12bd 5db5 d93d 65e1 78bd
000000f0: 8c18 f43d db3e 16bd c378 03bd def5 063e
00000100: dc61 d3bd e945 a1bc 9a1f d3bd 135f 14be
00000110: 9776 4fbd 3eb7 b03d 4faf ebbd e62a 22be
00000120: fb24 903d 565f ad3d 7d53 c7bb 4433 5c3d
00000130: 03cc 3c3c d343 20be b130 023e 5fec 613d
00000140: 066c 8bbd 4a58 873d 0dbe 243e 0f00 763c
00000150: e4f0 55bd f4c9 483d 9be4 ccbc 1272 76bd
00000160: 75ba e4bc 2f7f 2ebe 2420 43be de65 5c3e
00000170: 5108 3f3e 56b2 7d3e 34e2 70bd 4030 133e
00000180: 0462 4ebe 0796 6dbd da2c f8bc 9a3c ba3d
00000190: e519 2dbe 46a7 8f3d 536a 0c3d 97bf b03d
000001a0: eead ba3c 9d53 193e fc11 81bc 222f 063d
000001b0: a64c 87bc 9927 71bd ea23 d93d 2a41 a1bd
000001c0: d0c8 7bbd 2386 5d3d ef22 22be 32b5 f93d
000001d0: 8f7a dd3d ff60 e93d be56 9f3c 996b 89bd
000001e0: a224 b83d 171f 313d 166a 143e 6866 b2bd
000001f0: a00d ddbd 1375 f6bd d994 b0bd e36e b73d
00000200: ab74 e8bd 4fe1 923d 1227 3cbc 9360 123e
00000210: 6780 1e3e 30eb 393d 0b41 9cbd 5696 c43d
00000220: 8e3d 5f3d 9209 e7bc 1d26 23be 7e8f 9abc
00000230: 13ee a7bd f121 30bd 3fb9 673d f93f 1e3e
00000240: 322d f8bd 49ed 933d 2f59 5abd 635f c1bb
00000250: 51e9 bf3d 1234 74bc ffe1 b7bd 8679 83bd
00000260: 448d 263d a1c7 84bd 0625 9abd c593 953d
00000270: 1df1 10be b1d1 babc b8a8 eb3d d976 a53a
00000280: dbe5 ddbc e888 a3bd 4783 74bd 7f66 cabd
00000290: d6b4 26be bc2e a73c bae2 353d 17d3 d83d
000002a0: b585 85bb fbc0 9bbd 4e2e 8d3d f21a 30be
000002b0: 6cf1 423d 4b77 d23d 9315 25bd 1d63 b63d
000002c0: baa2 d7bd 5577 89bd 4f41 af3d b07d 1c3e
000002d0: b672 ec3d 92f7 503d b372 debd 3888 a8bc
000002e0: 0752 0bbe 59dd a4bd 8e07 67bd 9ca6 debc
000002f0: c3c2 a63d 9367 22be e1c4 493d c3cf 9f3d
00000300: 7504 87bd 2924 c53c 75d8 9ebd 80a5 b73c
00000310: 2065 a03a e7a8 9bbd fb10 ac3d 0b2b c0bd
00000320: 4755 64bd 6a94 1dbd a76d 0ebe 1549 9a3b
00000330: a105 8ebd eae4 ce3c fc0d bdbc 5c82 d2bd
00000340: 4fbb 0d3e 1820 593c 299e 053e e791 47bc
00000350: 8a6e babd c399 b4bb 48c7 1fbd 7a01 10bc
00000360: dc8e fa3c 244c 5fbd a59a 72bd 7fc8 a33d
00000370: 0073 0b3e b1cc c2bc 1143 853d fbb1 2bbd
00000380: a5b3 f8bd a556 00be 99e3 72bd a4bd 693d
00000390: a458 223e ba65 123e 152c 343c b0e4 6ebd
000003a0: 0f0b 863c 0863 563d 4e81 3a3d dac9 cbbb
000003b0: 6d63 64bd 642f e6bd 972f 073d 67d7 80bb
000003c0: 4e08 04be 06a6 673d 68aa 663d 9930 a2bd
000003d0: 6dc2 1a3e 9ac9 aebd 9b27 283d ee29 823c
000003e0: 6cd4 d4bd f9e9 f5bc b229 97bc 29b0 33bd
000003f0: 09f3 5c3c 507e d0bd 0de9 94bd 2bc9 e2bc

model_A.layers.2.bias f4 [50]
-0.14656502 -0.12527673 -0.16737784 -0.064521536 0.0633491 -0.0042726854 -0.03707399 0.06573601
0.08284 -0.153679 -0.009552827 0.07985551 0.020740118 -0.086925834 -0.06538662 -0.05373571
-0.05370567 0.015005188 -0.16049905 -0.09083928 0.14539747 0.018706674 -0.11477371 0.04591804
-0.0957325 -0.065905035 0.09724288 -0.05793771 -0.1666174 -0.101715535 -0.022801636 -0.0047720033
0.10703606 -0.09019342 0.01891233 0.030167883 0.045450024 -0.117713064 -0.13289265 -0.19444072
0.014484387 -0.14732394 -0.08697429 -0.044789083 0.051605377 0.07573515 0.09754963 -0.13658361
-0.038210783 0.08353948
00000000: 2415 16be 8b48 00be 1965 2bbe de23 84bd
00000010: 2cbd 813d e201 8cbb e5da 17bd 9aa0 863d
00000020: 05a8 a93d 075e 1dbe 7683 1cbc 498b a33d
00000030: 2ee7 a93c 2c06 b2bd 6ce9 85bd fa19 5cbd
00000040: 7afa 5bbd 52d8 753c dd59 24be f209 babd
00000050: 13e3 143e bd3e 993c 7b0e ebbd 8e14 3c3d
00000060: 670f c4bd 38f9 86bd 4627 c73d 1850 6dbd
00000070: c09d 2abe 3c50 d0bd 7fca babc 775e 9cbb
00000080: b935 db3d 54b7 b8bd 08ee 9a3c a322 f73c
00000090: ce29 3a3d 8c13 f1bd 0315 08be 781b 47be
000000a0: ec4f 6d3c 16dc 16be 941f b2bd c274 37bd
000000b0: 2960 533d 081b 9b3d 1ac8 c73d 93dc 0bbe
000000c0: e982 1cbd bf16 ab3d

model_A.layers.4.weight f4 [1, 50]
-0.015703043 -0.019949498 0.08696927 0.028246947 -0.09658269 -0.064564236 0.0020205516 -0.002912683
0.04120441 -0.0712622 -0.0065456475 0.005643744 -0.067856945 -9.2975615e-06 0.013472806 -0.14153785
-0.02037759 -0.020594824 0.008269212 0.07454509 0.0043718778 -0.029306646 0.07865885 -0.0025016544
-0.012405011 0.029446809 -0.038844578 0.004554646 0.0050799423 0.0016980337 0.004891516 -0.03668169
0.0012780355 -0.00084489136 -0.017947627 0.0008513237 -0.0095144 -0.0059006736 -0.025796648 0.058618676
-0.0027022737 -0.015834123 -0.11234151 -0.033592924 0.045446567 0.07956287 -0.07360541 -0.0034056709
-0.08267559 -0.016477283
00000000: aba3 80bc 216d a3bc f21c b23d 2466 e73c
00000010: 25cd c5bd 413a 84bd 3b6b 043b b6e2 3ebb
00000020: f5c5 283d ebf1 91bd df7c d6bb 28ef b83b
00000030: 95f8 8abd b9fc 1bb7 0bbd 5c3c 4cef 10be
00000040: e7ee a6bc 7ab6 a8bc 977b 073c 19ab 983d
00000050: f841 8f3b 7e14 f0bc e417 a13d ccf2 23bb
00000060: 633e 4bbc 6f3a f13c 7e1b 1fbd 243f 953b
00000070: a575 a63b 8e90 de3a 0349 a03b 8a3f 16bd
00000080: c183 a73a b37b 5dba e706 93bc 5e2b 5f3a
00000090: 49e2 1bbc 705a c1bb 7e53 d3bc 231a 703d
000000a0: a118 31bb 90b6 81bc 4e13 e6bd bc98 09bd
000000b0: 2e26 3a3d dcf1 a23d 6fbe 96bd ad31 5fbb
000000c0: d251 a9bd 5efb 86bc

model_B.layers.0.weight f4 [50, 2]
-0.11769678 0.3997125 -0.6445506 0.38718015 0.07145627 0.035287146 0.45449737 0.48198733
0.40619445 -0.6018854 -0.16493438 0.13336924 -0.71552396 -0.42932096 0.44606918 -0.28920048
0.17031483 0.19763598 0.65707666 -0.1003428 -0.6655899 0.10818105 -0.49257195 0.13637352
-0.2702649 -0.6169237 0.030645924 0.27467918 -0.39763838 0.22318546 -0.44185066 -0.23475306
-0.19460875 -0.26821312 0.068081245 -0.66276085 0.26400018 -0.32303643 0.060073093 0.5328769
-0.36042383 -0.37386656 0.46318933 0.38768265 -0.62487847 -0.0036475747 0.35089806 -0.4967517
-0.17850454 0.38527593 0.3495932 -0.029775212 -0.052423332 0.4647242 0.40156487 -0.68770796
-0.74148405 -0.222161 -0.44525403 -0.2921651 -0.007301897 0.058524027 0.46086103 0.31171405
0.1284538 0.36542737 -0.69405645 -0.19581002 0.5492899 -0.13823484 0.09610447 -0.25875953
-0.026688335 -0.21126066 0.5988997 0.4283534 -0.25475895 0.2987525 -0.26809192 0.2875839
0.6183098 -0.30030745 0.21400961 -0.57886136 -0.6347474 0.6003985 0.04956012 -0.3754539
0.48827213 0.13207373 0.14707975 -0.07228789 0.21564889 -0.6897789 -0.71273637 -0.32206717
-0.00579116 -0.01795841 0.5629378 -0.55640674
00000000: 020b f1bd 1ea7 cc3e 4501 25bf 7a3c c63e
00000010: aa57 923d 4189 103d e1b3 e83e 0bc7 f63e
00000020: b8f8 cf3e 2915 1abf 8fe4 28be f291 083e
00000030: 942c 37bf f5cf dbbe 2e63 e43e 1612 94be
00000040: 0367 2e3e 1661 4a3e 2d36 283f 8780 cdbd
00000050: 1a64 2abf 078e dd3d 6432 fcbe 80a5 0b3e
00000060: 2960 8abe b6ee 1dbf 290d fb3c c0a2 8c3e
00000070: 4297 cbbe bb8a 643e 403a e2be 1b63 70be
00000080: 8447 47be 3b53 89be 2e6e 8b3d b2aa 29bf
00000090: 082b 873e 0865 a5be 340f 763d 9f6a 083f
000000a0: 7989 b8be 706b bfbe 2727 ed3e 577e c63e
000000b0: 09f8 1fbf 260c 6fbb e9a8 b33e 3d56 febe
000000c0: e5c9 36be e342 c53e e1fd b23e 25eb f3bc
000000d0: d9b9 56bd 55f0 ed3e e999 cd3e a10d 30bf
000000e0: e6d1 3dbf 2c7e 63be 56f8 e3be aa96 95be
000000f0: c044 efbb e4b6 6f3d faf5 eb3e fc98 9f3e
00000100: 6589 033e 4c19 bb3e afad 31bf 6c82 48be
00000110: 439e 0c3f 6f8d 0dbe 6cd2 c43d 217c 84be
00000120: 7fa1 dabc b754 58be 7e51 193f 2351 db3e
00000130: c46f 82be 16f6 983e 5843 89be 323e 933e
00000140: 8d49 1e3f e6c1 99be 5625 5b3e 4230 14bf
00000150: ce7e 22bf b7b3 193f 8dff 4a3d 7e3b c0be
00000160: cefe f93e 563e 073e 139c 163e ac0b 94bd
00000170: 10d3 5c3e 5a95 30bf e475 36bf fde5 a4be
00000180: c5c3 bdbb 841d 93bc b11c 103f ac70 0ebf

model_B.layers.0.bias f4 [50]
0.20104806 0.069577046 0.64003307 0.4815396 -0.6425724 -0.52999383 0.0892317 0.6552011
0.25715333 0.548714 -0.14654827 -0.39572018 0.47951147 0.43340203 0.29398748 -0.27565092
0.50275385 0.6143363 -0.15101673 -0.17102224 0.7141971 0.30623445 0.538828 0.13565454
-0.6274328 0.16488905 -0.06667961 0.69426155 0.012045135 0.113421015 0.24839956 -0.62910795
-0.19250464 -0.6287424 -0.6151781 0.25939652 -0.287465 -0.43712193 -0.7582811 0.67399335
-0.55824995 -0.6473684 -0.5527075 -0.251291 -0.08922615 -0.14245811 -0.5067153 0.6538074
-0.4692472 -0.4153681
00000000: 8bdf 4d3e 697e 8e3d 35d9 233f 5c8c f63e
00000010: a07f 24bf adad 07bf 1cbf b63d 42bb 273f
00000020: 9aa9 833e 8578 0c3f c010 16be d69b cabe
00000030: 8782 f53e dfe6 dd3e 8785 963e 1e22 8dbe
00000040: 7ab4 003f 2545 1d3f 21a4 1abe 7420 2fbe
00000050: 9fd5 363f c3ca 9c3e a2f0 093f 06e9 0a3e
00000060: 709f 20bf add8 283e 528f 88bd 20bb 313f
00000070: f558 453c 4749 e83d 745c 7e3e 380d 21bf
00000080: f01f 45be 43f5 20bf 507c 1dbf 9fcf 843e
00000090: 9d2e 93be 72ce dfbe b61e 42bf d48a 2c3f
000000a0: 78e9 0ebf efb9 25bf 3d7e 0dbf 37a9 80be
000000b0: 33bc b6bd 8ae0 11be 18b8 01bf ec5f 273f
000000c0: 2b41 f0be 21ab d4be

model_B.layers.2.weight f4 [50, 50]
0.017102905 -0.027516522 -0.098108225 -0.11808695 0.07658982 0.05680041 -0.1272386 -0.054557994
-0.11265813 0.048506077 0.05786762 0.12658983 0.11491935 -0.0077489014 0.027396748 -0.093202755
-0.12915944 -0.0118088005 -0.021876307 0.06892143 0.035055988 -0.09305262 0.044046137 -0.09437041
0.02588259 0.12630928 -0.030660205 -0.12947358 -0.030528307 -0.08344098 0.09961674 0.07262327
-0.1261605 -0.0010026563 -0.010976415 0.07534541 0.057346635 0.07444278 0.09130636 -0.07321532
0.020809678 -0.018802809 -0.008950639 -0.13588509 0.013716189 0.08235057 -0.02831561 0.0069345464
0.11594077 -0.10132205 -0.117749006 -0.080816664 0.103810936 -0.04955179 0.096695356 -0.012296446
-0.097781844 -0.10503687 0.06324534 0.017305465 -0.027852021 0.041988775 -0.0065279724 0.08371147
0.10284705 0.006147073 0.14519097 0.10512672 0.020357061 -0.07651697 -0.041239947 0.05631056
-0.00027525605 -0.057583604 -0.1274437 -0.07872561 -0.025097582 -0.018840155 0.057566497 0.06170439
0.046868823 0.016983343 0.01963136 -0.04788105 -0.10832192 -0.017822133 -0.11158376 0.017546562
-0.004366097 0.096487366 0.13234118 0.017130716 0.096637525 0.031766053 0.0480487 0.09305956
0.09132373 -0.08339522 -0.07838955 0.13255173 0.17732821 0.05581023 -0.004634366 -0.02404347
0.009094898 0.057734363 0.016286543 -0.11782096 0.18159804 0.09538512 -0.22222325 -0.025181308
0.124061584 -0.030912887 0.14246342 0.09848836 -0.08387562 -0.053214327 0.026399653 0.0023816153
0.075270645 -0.0155951725 -0.6721097 0.07294917 -0.02378754 0.11786104 0.13226397 -0.0749886
0.10666669 0.008441989 0.036970124 0.24929419 0.046277244 0.022236442 -0.059904207 -0.19645147
0.10951068 0.23591208 0.038996078 0.16806777 -0.15178365 -0.05359822 0.10820363 -0.07619842
0.12670082 0.080577135 -0.13476072 0.11134858 -0.08008379 -0.14361924 -0.09815996 0.08567425
-0.02284271 -0.1104919 -0.09858812 0.016121633 -0.058987834 -0.008841794 0.09899827 0.022757018
0.02466186 0.042689845 -0.002965988 -0.055703204 0.021935342 0.10310886 -0.141962 0.03232669
-0.0155715775 0.07680542 0.04545268 -0.06919193 0.09073615 0.10282878 -0.009755234 0.08368671
0.0061657582 0.046917092 0.09451852 0.06927752 0.06972169 -0.09542852 -0.08653389 -0.12348051
0.09017121 0.054792907 -0.118014574 0.12010577 0.17860566 0.14764464 -0.02875178 -0.12136826
-0.026830824 -0.13179636 0.020434339 -0.04515023 0.0392521 -0.06978639 0.11050451 0.0036587801
-0.02664067 -0.17343059 0.0056464686 0.011412133 -0.0010239327 -0.112239346 -0.02722954 0.13604851
0.016905617 0.12729268 0.037620187 -0.093400836 0.13060173 -0.066874474 -0.12892236 -0.06157044
-0.037386756 -0.116457306 -0.016725104 -0.122012444 0.09700549 0.11542346 0.05146249 -0.0072433325
0.055739954 -0.1367528 -0.006973173 -0.008108728 0.049935617 -0.0029620365 0.08072763 -0.023396555
0.023144407 -0.00034728937 0.09189587 0.0724933 0.081309594 -0.024359984 -0.16915584 -0.07679895
0.00094050803 0.0924262 -0.18894728 -0.056565475 0.056978732 0.08053671 -0.029443176 -0.13049436
0.05803652 -0.03774864 0.06735091 0.12999631 0.031022003 0.062445097 0.12379654 -0.058504753
00000000: 641b 8c3c 546a e1bc f7ec c8bd 92d7 f1bd
00000010: 20db 9c3d 8ca7 683d d64a 02be 3478 5fbd
00000020: 4eb9 e6bd 4fae 463d 9906 6d3d c4a0 013e
00000030: d65a eb3d 7fea fdbb 256f e03c 16e1 bebd
00000040: 5f42 04be b379 41bc f135 b3bc ae26 8d3d
00000050: de96 0f3d 5f92 bebd b969 343d 4645 c1bd
00000060: ba07 d43c 3857 013e 1c2b fbbc b994 04be
00000070: 8016 fabc 1be3 aabd dd03 cc3d 82bb 943d
00000080: 3830 01be 906b 83ba 6cd6 33bc b24e 9a3d
00000090: 4ee4 6a3d 7575 983d d4fe ba3d eaf1 95bd
000000a0: 0f79 aa3c 5908 9abc b3a5 12bc 7625 0bbe
000000b0: deb9 603c 6aa7 a83d 23f6 e7bc 313b e33b
000000c0: 5b72 ed3d ef81 cfbd 6426 f1bd 3583 a5bd
000000d0: d49a d43d d1f6 4abd 3708 c63d 0877 49bc
000000e0: d941 c8bd 921d d7bd c686 813d 31c4 8d3c
000000f0: ec29 e4bc 6cfc 2b3d 9ae8 d5bb eb70 ab3d
00000100: 79a1 d23d 636d c93b f1ac 143e ae4c d73d
00000110: dac3 a63c eeb4 9cbd 38eb 28bd e7a5 663d
00000120: 3e50 90b9 c9dc 6bbd 9a80 02be e53a a1bd
00000130: 7299 cdbc ab56 9abc d9ca 6b3d bebd 7c3d
00000140: 86f9 3f3d a720 8b3c f2d1 a03c eb1e 44bd
00000150: e2d7 ddbd b9ff 91bc 0786 e4bd cfbd 8f3c
00000160: 7a11 8fbb 2b9b c53d 7284 073e b755 8c3c
00000170: e5e9 c53d 1f1d 023d b7ce 443d 0396 be3d
00000180: f007 bb3d 1dcb aabd b38a a0bd a4bb 073e
00000190: 8795 353e 4599 643d e1db 97bb d0f6 c4bc
000001a0: c402 153c de7a 6c3d 5b6b 853c 1e4c f1bd
000001b0: d6f4 393e 4659 c33d 7e8e 63be 0849 cebc
000001c0: 0014 fe3d 063d fdbc eee1 113e 44b4 c93d
000001d0: fbc6 abbd 44f7 59bd 1644 d83c e014 1c3b
000001e0: 7f27 9a3d e582 7fbc 620f 2cbf 6066 953d
000001f0: 16de c2bc 2161 f13d 3570 073e a093 99bd
00000200: 1174 da3d 4550 0a3c fc6d 173d fa46 7f3e
00000210: 358d 3d3d 3329 b63c 1d5e 75bd 932a 49be
00000220: 2347 e03d f092 713e 5aba 1f3d f519 2c3e
00000230: 2c6d 1bbe cf89 5bbd dd99 dd3d eb0d 9cbd
00000240: dcbd 013e a005 a53d b7fe 09be b90a e43d
00000250: f802 a4bd ec10 13be 1708 c9bd fb75 af3d
00000260: a320 bbbc 9449 e2bd 91e8 c9bd 8411 843c
00000270: 3a9d 71bd 2cdd 10bc 9bbf ca3d ed6c ba3c
00000280: ab07 ca3c 8cdb 2e3d 0561 42bb 0b29 64bd
00000290: bfb1 b33c bd2a d33d 7d5e 11be fe68 043d
000002a0: ee1f 7fbc 294c 9d3d 972c 3a3d 80b4 8dbd
000002b0: e0d3 b93d e597 d23d 6bd4 1fbc f063 ab3d
000002c0: 210a ca3b 232c 403d ed92 c13d 5fe1 8d3d
000002d0: 3fca 8e3d 0770 c3bd ae38 b1bd 5ae3 fcbd
000002e0: afab b83d 876e 603d a0b1 f1bd 04fa f53d
000002f0: 67e4 363e 2830 173e da88 ebbc ec8f f8bd
00000300: 51cc dbbc a0f5 06be ea65 a73c 73ef 38bd
00000310: cfc6 203d 2bec 8ebd 3050 e23d 25c8 6f3b
00000320: 893d dabc ca97 31be 0306 b93b f5f9 3a3c
00000330: 7b35 86ba bedd e5bd 7c10 dfbc 4d50 0b3e
00000340: a67d 8a3c 0359 023e a017 1a3d f048 bfbd
00000350: 76bc 053e 7cf5 88bd 3904 04be 4931 7cbd
00000360: db22 19bd 2b81 eebd 1603 89bc a9e1 f9bd
00000370: d0aa c63d 2363 ec3d 55ca 523d 7a59 edbb
00000380: 944f 643d ed08 0cbe 377f e4bb 78da 04bc
00000390: 4a89 4c3d ba1e 42bb 8754 a53d 22aa bfbc
000003a0: 5799 bd3c 6414 b6b9 e733 bc3d 5e77 943d
000003b0: a585 a63d 978e c7bc 3037 2dbe c548 9dbd
000003c0: 6d8c 763a f349 bd3d 657b 41be 33b1 67bd
000003d0: 8862 693d 6ef0 a43d d132 f1bc 50a0 05be
000003e0: b4b7 6d3d 519e 1abd 46ef 893d c11d 053e
000003f0: db21 fe3c 6ec6 7f3d 0a89 fd3d aea2 6fbd

model_B.layers.2.bias f4 [50]
0.030303698 -0.0040490045 0.16597004 -0.0069558267 0.12407064 -0.1086993 -0.001077094 0.011733848
0.06786796 -0.14548941 -0.024980139 0.098957725 -0.037046216 0.09324293 -0.006680647 -0.13318267
0.017914599 0.019055184 0.05679724 -0.08854389 -0.08236763 0.068013206 0.08424039 0.084566705
-0.11052475 -0.053422738 0.037980117 0.008490995 -0.06472851 0.030316668 0.12788525 -0.027103608
0.03835541 0.044853367 0.11059424 0.052294042 0.1186871 0.04149042 0.1286873 -0.016292432
0.009136916 -0.019208428 0.040224075 -0.12699884 0.11897346 0.12294378 -0.10589675 0.06963009
-0.1550945 -0.041651916
00000000: 763f f83c 83ad 84bb 0df4 293e b4ed e3bb
00000010: bf18 fe3d bd9d debd 472d 8dba 533f 403c
00000020: 5bfe 8a3d 2dfb 14be 26a3 ccbc 59aa ca3d
00000030: c6bd 17bd 26f6 be3d 54e9 dabb 0a61 08be
00000040: a3c1 923c 9e19 9c3c 39a4 683d 8056 b5bd
00000050: 5cb0 a8bd 824a 8b3d 3a86 ac3d 4f31 ad3d
00000060: cd5a e2bd cdd1 5abd 0a91 1b3d d01d 0b3c
00000070: 6290 84bd a95a f83c 5af4 023e 6308 debc
00000080: 901a 1d3d 2ab8 373d 3c7f e23d 4732 563d
00000090: 3912 f33d dcf1 293d 9bc6 033e b577 85bc
000000a0: 01b3 153c fe5a 9dbc 00c2 243d fc0b 02be
000000b0: 5ba8 f33d f3c9 fb3d 65e0 d8bd 389a 8e3d
000000c0: 18d1 1ebe 339b 2abd
