training_data/star_polymer_11/params.pt (torch, 265334 bytes, 30 tensors)

model_W.MLP.layers.0.weight f4 [100, 1]
00000000: de0d 3a3f 474f 7dbe e0c0 533f b663 b53c
00000010: 8a1f 60bf fe1d fdbe f60c debe 69b8 ffbe
00000020: 31bb b4bf 531b 7d3f 2af3 6cbe 6645 28be
00000030: fb3a 643f 8b25 a93e 1fa3 2fbf 1c9f 243f
00000040: 32bd 033f 1e67 91bf 5ed4 b33f f100 18bf
00000050: 4e65 08bf e5e1 91bf 61b4 b53f ee66 873e
00000060: 2ea0 bd3f b7d1 903d 7b65 2a3f d69a c0be
00000070: 56fd 48bf f815 553e 66aa 9dbd 7ac0 efbd
00000080: 6077 05bf 6711 f83e 48bd 9c3e d88e 863f
00000090: 613b 09bf e558 0b3f 856f 683e c6e4 633f
000000a0: 94fe 583f 4f5d 45bf 6807 a43f 63c9 12bf
000000b0: 9be0 b03f 0eaa f1bc b95f 193f fae9 14bf
000000c0: cbff 7e3f d056 11bf b401 3fbf abea 093f
000000d0: 7dbc 313f 5247 943f 96aa abbd a445 c73f
000000e0: 3d12 4e3f d371 0bbf 622e 64bf d205 413f
000000f0: 95e1 22bf 20a4 1d3f 6889 60bf da94 bb3f
00000100: 59ef bb3e 3bd3 10be e9b9 333f 46f3 4fbf
00000110: 8bfc 68be dec5 ffbb d21c 26bf 32ec 6139
00000120: 975d e2be 332f 8c3f 4cf6 583f f385 c23f
00000130: 134e c63f 70d7 67bf 5595 423e d27d c53e
00000140: 02d6 45bf 7d30 fe3e 7e69 1cbf fe0e 8f3e
00000150: 03e3 c13e f34b 733f 4a2d 0dbf fa69 c8be
00000160: 7145 883f 7758 723f 0561 123f 6079 103f
00000170: e696 aabe b511 363f 2109 54bf a0f0 b43d
00000180: d961 003f 67df 693f 1a98 00bf 74c9 33bf
0.7267741 -0.24737273 0.8271618 0.022142272 -0.87548125 -0.49436945 -0.43369263 -0.4994538
-1.4119626 0.9886982 -0.23139635 -0.16432723 0.891525 0.33036456 -0.6860828 0.6430528
0.51460564 -1.1359594 1.4049184 -0.59376436 -0.5327958 -1.1397063 1.4195672 0.26445717
1.4814508 0.0707125 0.66561097 -0.3761813 -0.7851156 0.20809162 -0.076985165 -0.11706634
-0.52135277 0.48450777 0.3061316 1.0512342 -0.5360623 0.5443252 0.22698791 0.89020956
0.84763455 -0.770955 1.281476 -0.5733854 1.3818544 -0.029500034 0.59911686 -0.5816952
0.9960906 -0.5677309 -0.74611974 0.538737 0.69428235 1.1584265 -0.08382146 1.5568128
0.8049658 -0.54470557 -0.89133275 0.75399506 -0.6362546 0.6157856 -0.87709665 1.4654801
0.36706045 -0.14143078 0.7020555 -0.8123058 -0.22752587 -0.00780557 -0.64887726 0.00021545662
-0.44212028 1.0951904 0.8475082 1.5197128 1.5492576 -0.90563107 0.19002278 0.38572556
-0.77279675 0.4964637 -0.6109847 0.27941126 0.3786851 0.95037764 -0.5514723 -0.39143354
1.0646192 0.94666237 0.5717929 0.56435204 -0.3331825 0.7112077 -0.8282643 0.08834958
0.50149304 0.9135651 -0.5023209 -0.7022927

model_W.MLP.layers.0.bias f4 [100]
00000000: b0c5 a43e 803d 26bf bcd2 49bf 9e91 6dbf
00000010: 5eec b7be 2373 66be 33a3 cdbe b135 a0be
00000020: 3297 4cbf 1693 1c3f dd8e 11be 4d66 1ebf
00000030: 571c a53e 0299 5bbf 5e0f 433f 62a9 083f
00000040: 835d 74bf 05bf 07bf 9e60 1fbf a78d d9be
00000050: 2ed6 973e adf6 65bf 0235 33bf f1bb c53e
00000060: f97d adbe f3ab 8cbe 63eb 46bf 2734 b53e
00000070: 1e26 a43e da06 9dbe 7f14 11bf 520f d63d
00000080: eb26 b53e 64aa 1e3f 7425 4b3e 8a88 1abe
00000090: 36c9 edbe d2c6 0e3f 5dfa bcbd 33e8 1abf
000000a0: 9572 4b3f 18da 203f 5422 42bf 36d7 aabe
000000b0: a686 a3be 3cb1 0bbf 5b26 ce3e 04c1 24bf
000000c0: da6f 713f 202c acbe 4734 2c3f ddb8 1dbd
000000d0: e3fc 09bf cf2a 173f 87f8 39bf 38ba f4be
000000e0: d68e 8e3d 0156 323f 033d a3be 3657 17bf
000000f0: a1b2 07bf 540a cabe 16da 90be 5064 84be
00000100: 5a96 0cbf ce43 6c3e 8e42 1abd d729 03bf
00000110: 00e1 1dbf 66d9 363c c0fc d73d 63d3 533f
00000120: e5f7 94bd 2f07 44bf 4e21 55bf 80e6 8bbe
00000130: 8645 72be 6232 cb3e def5 b9be b289 b83e
00000140: 6906 87be 414b 2c3f cc62 a63e 720a 9fbe
00000150: 86cc 5c3f 43a3 8e3e e162 25bf 4c49 d3be
00000160: a77e 193f fef1 193f 5577 323f 6589 17be
00000170: 1086 3f3f fec6 f03e d6e9 e43e 3122 1ebe
00000180: 6625 673f bff0 263e 5a20 55be 29df 2d3e
0.32182074 -0.6493759 -0.7883718 -0.9280032 -0.3592252 -0.22504859 -0.40163574 -0.31290963
-0.79918206 0.61161935 -0.14214654 -0.6187485 0.32248184 -0.85780346 0.76195323 0.5338346
-0.9545519 -0.5302585 -0.622568 -0.42490885 0.29655594 -0.8982952 -0.7000276 0.3861995
-0.33885172 -0.27474937 -0.7770292 0.35391352 0.3206033 -0.3066929 -0.566719 0.10452141
0.35381255 0.61978745 0.19838506 -0.15091148 -0.46442574 0.55772126 -0.092274405 -0.6051056
0.79471713 0.62832785 -0.7583363 -0.33367318 -0.31938666 -0.54567313 0.40263638 -0.6435702
0.94311297 -0.33627415 0.6726727 -0.038506377 -0.539015 0.59049696 -0.7264485 -0.47798324
0.069608375 0.6966248 -0.31882486 -0.5911745 -0.5300694 -0.39461005 -0.28291386 -0.25857782
-0.5491692 0.2307274 -0.037661128 -0.5123572 -0.6167145 0.01116023 0.10546255 0.82744426
-0.07273845 -0.7657346 -0.83253944 -0.27324295 -0.23659334 0.39686877 -0.36320394 0.36042553
-0.26372078 0.6730233 0.3249725 -0.31062657 0.8624958 0.27858934 -0.64604 -0.4126686
0.5995888 0.60134876 0.69713336 -0.14798506 0.7481394 0.4702682 0.44709653 -0.1544273
0.9029144 0.16302775 -0.20813122 0.1697966

model_W.MLP.layers.2.weight f4 [100, 100]
00000000: 7ac1 6d3e 2d26 16be 0fd4 7abe 1f6a 03be
00000010: 353a 2fbe 4484 70be 083a 91be e7dc 02be
00000020: 6284 0cbe 4412 273e a77d 85bd aba4 5abe
00000030: 6bae 093e 4318 8bbe ec40 883e 676f 6b3e
00000040: 3954 28be 42e7 42be 21bd 13be 4d0a f2bd
00000050: 5419 753e 676e 5cbe aee0 7ebe f64a 843e
00000060: 4fc6 e7bd 6d7f 0dbe 7f07 0dbe 5a71 573e
00000070: 0356 6e3e 2f8d 7abe 353f 02be c0dc 833e
00000080: ae68 ef3d 832b 873e 27c1 da3d 56ca 08be
00000090: 310b 63be b573 453e e400 70be c2a2 a5be
000000a0: 40c5 143e f5ab 473e f999 83be f9f4 e3bd
000000b0: 1e79 fc3c d4bd 20be 4563 603e b193 98be
000000c0: 2cda a43e aa73 90be 641b 203e 97e8 dcbd
000000d0: ed41 49be fa13 963d 11cb 89be a00d 4fbe
000000e0: 2903 fdbc b4b9 3e3e a62c f4bd eb63 78be
000000f0: 5534 3dbe e394 a6be 2193 b0bd 91ed f9bd
00000100: 28c5 a6be ac2b 8e3e 2d35 55bd 73cb 03be
00000110: f23c 93be d033 d83c 3cac 6e3c abd4 953e
00000120: 6f06 02bd 80eb a5be 7241 6bbe 7f28 d1bd
00000130: 7e84 28bd 0099 013e fb24 9ebe fb88 7e3e
00000140: ff0b 50be 9694 8b3e 0bb4 8c3e 198e 9bbe
00000150: 9353 283e 1afe d63d 67de 9fbe f608 29be
00000160: c9f7 063e 0971 593e 5c4d f43d b83e c2bd
00000170: 3460 2f3e 47ab f33d c75a 313e 0bd6 83be
00000180: a369 df3d 07bb de3d 7fa0 29be 58c3 2e3e
00000190: 9934 d23d 34d7 c7bd 5bde d8bd f4c7 a1bd
000001a0: 518a ac3d 8a8c 553d a7a9 3abd a8cc a13d
000001b0: 6c02 603d 3220 b33d 3e98 12bc 0f66 6dbd
000001c0: ed68 223d 6463 043d 3d33 1fbc 09ef bcbd
000001d0: e9fd 3cbd 957f 2dbd 7e76 963d 361e 173b
000001e0: 10e8 1bbd c72d 043d dc32 773d 9168 c93c
000001f0: f84d 91bd 19bc 473c d028 8a3c 13fa 963d
00000200: cb10 9bbc 92ee 24bd a1cc 9bbd c3c3 fa3d
00000210: b93a 1b3d a43a 703c c36c c0bd 950a f23d
00000220: dc06 193d c0a7 063d e702 e2bd 4b95 983a
00000230: 2e78 91bd 65f4 edbd b9ea afbd 0906 7a3d
00000240: 7b3d 693e 031d 02be 9e0f 193d e1e7 393d
00000250: dda6 623d 803b 903d e4ce 7fbd 63bc c83d
00000260: 481f 453d 9805 a73d d93d e4bd d783 0a3d
00000270: 8db4 f83d 9c1e 003e 97e3 da3d 072b afbd
00000280: 501d 31bd 2d64 d9bd 7af8 17bd 0f7e cd3d
00000290: be2b 07be a541 773c ef0b 643d 782f a2bd
000002a0: 2ee6 4fbc a8c7 c1bb 6be6 f33c a1a2 c2bc
000002b0: 8f78 8bbc e498 e6bd ea08 8a3c cd0d 013e
000002c0: 3478 c4bb 3c30 2b3d 3d0b 82be e154 c3bd
000002d0: ba16 f6bc 6790 35bd fe94 9a3c d4e3 82bd
000002e0: e94e fc3c bd4c 04bd 0a85 bfbd b166 cfbd
000002f0: 385a 42bd 9594 d93d b31d f83c 08db c8bd
00000300: 906f 093d 8af7 5d3c 1453 943d 6f3f 723d
00000310: bf58 253d 2619 f33d 270a acbc 6870 2abc
00000320: 1edb e33d ff34 62be 2e6f 1dbe 9e51 42be
00000330: 3681 1abe 9be9 86be eb68 76be b210 4fbe
00000340: 126f 36be 17ec 353e 72f2 48be acb5 6dbe
00000350: 1a07 0b3e 32b1 65be e55c 663e 7f77 603e
00000360: d6f3 4cbe 9447 40be 10b9 44bd 4888 47be
00000370: 538f 4e3e ef48 32be 5d26 d7bd 2fd9 2e3e
00000380: af52 9ebd c7e1 5dbe ba04 96be bfc2 573e
00000390: 5e5a 273e 7b6b a0be 9f59 8dbe ecff 6c3e
000003a0: 110a 543e 87fc 913e f0ae c43d 89df eabb
000003b0: a572 88be d984 a43e 3a47 a0be f5d5 7bbe
000003c0: 84e1 a43e adcc 533e 2f38 82be ef35 9ebe
000003d0: 7c87 f73c d06f 54be 98fe 0c3e 256b aabe
000003e0: 4439 863e 7199 80be 0c76 4d3e a4fc 0ebe
000003f0: 7033 6ebe 6f60 f43d e945 86be c2cb 18be
0.23218337 -0.14663 -0.24494956 -0.1283345 -0.17112048 -0.23487955 -0.28364587 -0.1277958
-0.13722375 0.16315562 -0.06518107 -0.21351878 0.13445441 -0.27166948 0.2661203 0.22991715
-0.16438378 -0.1903353 -0.14427616 -0.11818371 0.23935443 -0.2152649 -0.24890396 0.2583844
-0.11317121 -0.1381814 -0.13772391 0.21039334 0.23274998 -0.2446792 -0.12719424 0.25754356
0.11689888 0.26400384 0.10681372 -0.13358435 -0.22172238 0.1928242 -0.2343784 -0.32350737
0.1452837 0.1949919 -0.2570341 -0.11130709 0.030819472 -0.15697414 0.21912868 -0.2980018
0.32197702 -0.28213245 0.15635449 -0.107865505 -0.19654055 0.07328029 -0.2691274 -0.20220041
-0.030885296 0.18625528 -0.119225785 -0.24256866 -0.18476994 -0.32535467 -0.086218126 -0.12203515
-0.32572293 0.27767694 -0.052052666 -0.12870578 -0.28757435 0.026391894 0.014567431 0.29263815
-0.031744417 -0.32406235 -0.22974184 -0.10212802 -0.04114198 0.12656021 -0.3088759 0.24856941
-0.20317076 0.272618 0.27481112 -0.3038185 0.16438131 0.10497685 -0.31224367 -0.16507325
0.1318046 0.21234526 0.11928818 -0.09484619 0.17126542 0.11897903 0.17319785 -0.2574924
0.109088205 0.108755164 -0.1656513 0.17066705 0.102639385 -0.097578436 -0.10589286 -0.07899466
0.08424819 0.05213598 -0.04557195 0.07900363 0.05468981 0.08746375 -0.00894743 -0.05795866
0.039650846 0.03232135 -0.009716806 -0.0922528 -0.046140585 -0.042358 0.07346819 0.0023058779
-0.03806311 0.03227022 0.060351238 0.024585994 -0.070949495 0.012190842 0.016865164 0.073719166
-0.018928906 -0.04026658 -0.07607389 0.1224437 0.0378978 0.0146624185 -0.09395745 0.118184246
0.037360057 0.032874823 -0.1103571 0.0011641172 -0.071030006 -0.1161888 -0.08589692 0.06104091
0.22777359 -0.1270638 0.03736841 0.045387153 0.055334914 0.07042599 -0.062453166 0.09801557
0.048125535 0.08155364 -0.11144609 0.03381714 0.12143812 0.12511677 0.106879406 -0.08553129
-0.043240845 -0.1061481 -0.0371022 0.100338094 -0.1320028 0.0150913345 0.055675443 -0.0791921
-0.012689156 -0.0059136935 0.029772958 -0.023759188 -0.01702526 -0.1125963 0.016849954 0.12602921
-0.0059957746 0.041794047 -0.253992 -0.09537674 -0.030040134 -0.044327166 0.018869873 -0.06391111
0.030799346 -0.032299746 -0.09351547 -0.10127009 -0.04744932 0.10624043 0.0302876 -0.09807402
0.03355366 0.013547787 0.072424084 0.059142526 0.040367838 0.11870031 -0.021000935 -0.010402776
0.11125778 -0.22090529 -0.15374443 -0.18976447 -0.15088353 -0.26350102 -0.2406346 -0.20221213
-0.17815807 0.17765842 -0.19623736 -0.23213834 0.13576928 -0.22430876 0.22496374 0.21920584
-0.20014891 -0.18777305 -0.04802805 -0.19485581 0.20171861 -0.17410634 -0.10505364 0.17075036
-0.077306144 -0.21668158 -0.2930048 0.21070383 0.16343066 -0.31332 -0.27607438 0.23144501
0.20706965 0.28512976 0.09603679 -0.0071677607 -0.26649967 0.32132605 -0.31304342 -0.24593337
0.32203305 0.20683546 -0.2543349 -0.30900523 0.030215971 -0.20745778 0.13768995 -0.3328487
0.26215565 -0.25117067 0.20064563 -0.13963562 -0.2326181 0.11932456 -0.26225212 -0.14921477

model_W.MLP.layers.2.bias f4 [100]
00000000: 95f5 573e b233 0e3d b5c8 503e 78d7 533c
00000010: b8b7 e0bc fede 71bd e8a6 9cbd f02c d8bd
00000020: 5b9c 21bd 8e63 933d d7fa 94be d13d dfbd
00000030: db2e 423c 1e7a fcbd e347 053d e0b7 7ebd
00000040: fcba aebc e83c 07be fc5b 32bc 470b 3dbd
00000050: f085 81bd ea47 bc3c c0e3 33bb 11ad b83c
00000060: 96bd 453d 1631 e7bc d278 20bd d4c8 243d
00000070: 5bde 9dbd 6be1 58be 4b0f 3ebe ee2a db3d
00000080: 8e98 45bd 64a3 12be 661c 99bd 8fdf 363d
00000090: 0468 97bd 9d12 47be f870 a8bd d706 38bd
000000a0: a60d c2bc 88ea 373d b0ba 48bd 6e1d 8e3e
000000b0: a537 27be d064 c8bd 7779 823e 5a11 02be
000000c0: 9c5b 86bd 6e7c df3d befa d4bd 4b9b 31bd
000000d0: ab18 a23d 2381 2f3e ad5c fb3d 725a babc
000000e0: 242f d2bc 289b 9b3c ff02 0bbd bc74 923d
000000f0: 06bd 84bd 9dc2 92bd 7549 20be c8a4 a5bd
00000100: 3b3a c43c c7a7 373e f8f6 bebd 2288 09bd
00000110: a636 fa3a 1bb1 74bd 9d21 003d ec46 25be
00000120: 73c4 a2bd 2a78 783e b8ed 67be e071 f33d
00000130: 0d30 2ebe b00e de3c f20c cb3c 4b71 9a3d
00000140: 4109 6bbe 0cfc 623d a18a 203e da05 bcbd
00000150: c341 c73d 8e58 19be c84c 0dbd 6e08 05bd
00000160: f9f8 cabd 0415 b53d cbd3 50bd 81eb 03be
00000170: f227 8f3c 601f 573d f605 0b3d d02b 1cbd
00000180: b53c b03d 3264 163d c90d b73d fec6 24bd
0.21089776 0.03471727 0.20389064 0.01292979 -0.027431354 -0.059050553 -0.07649022 -0.10555446
-0.039455753 0.07196723 -0.29097626 -0.109004624 0.0118519915 -0.123279795 0.03253926 -0.062187076
-0.021329395 -0.13206828 -0.010886189 -0.046153333 -0.06324375 0.02298351 -0.0027448982 0.022543462
0.048276506 -0.028221648 -0.039177723 0.040230587 -0.077084266 -0.2117974 -0.18560521 0.107015476
-0.04824119 -0.14320141 -0.0747612 0.044646796 -0.07392886 -0.19440694 -0.08224672 -0.044928398
-0.023688149 0.0449014 -0.049006164 0.27756828 -0.1632982 -0.097848535 0.25483295 -0.12701932
-0.06560442 0.10912405 -0.10399388 -0.04336099 0.07914861 0.17139105 0.12273536 -0.022748206
-0.025657244 0.018994883 -0.033938404 0.071511716 -0.06481366 -0.07166026 -0.15653022 -0.0808807
0.023953548 0.17935096 -0.09324449 -0.033577092 0.0019089773 -0.059739213 0.031282056 -0.16140336
-0.07947626 0.24264589 -0.22649276 0.11886954 -0.17010517 0.027106613 0.024786446 0.0754114
-0.22952749 0.055416152 0.15677883 -0.091808036 0.0972934 -0.14975187 -0.034497052 -0.032478742
-0.09910769 0.08841899 -0.05098323 -0.12882806 0.017475102 0.052520156 0.03394123 -0.03812772
0.08605329 0.036716647 0.08938176 -0.040228836

model_W.MLP.layers.4.weight f4 [1, 100]
00000000: 611b 483e 44ff 10ba db75 673e d5c7 49bd
00000010: 70ad e7bd 23ff 0938 6485 c8bd 5dbf 31bd
00000020: 8f76 a337 e153 9dbd 2490 87bf 094f 53bc
00000030: 0004 33ba c04d 7abd 41df 93bd 555e 123a
00000040: 777e 87bc 7db4 d7bb ed5c d3bd 4109 74be
00000050: 1df8 08be a266 f0bd 93e2 3839 2d57 6abd
00000060: d4a7 e739 e99a 2039 29c1 0db9 3ebf 65b7
00000070: 2436 33bd a1db 4abf 3239 303a 2580 db39
00000080: a67b aa3a e97a 13bf ef31 99bb ee42 3739
00000090: 8a21 83bd 5935 b8bb b785 75bd 4546 623d
000000a0: b6ac e5b8 6ec1 33ba 4434 9e3b 8fce 4c3e
000000b0: 15da ffbd bf1c 38be 8eff 733e f9e4 93bd
000000c0: 5eec 19bd 281b 1339 1464 efbd 8c95 2a39
000000d0: f2f5 033d 4315 033d 2e8b 2539 02ab 143e
000000e0: 86c6 95bd f1ad b5bd e2e8 ed39 959f bc38
000000f0: f606 803a 9a9c a7be 460b afbd d316 5abd
00000100: 91c6 9bbd 3d58 233b 41f8 0abe d05c 0739
00000110: 52b0 c238 889b debc e768 8239 2a2d 4abb
00000120: 29a9 0fbd a1a3 2c3e d1c1 05bc dfcf 173e
00000130: 291e d2bb b3ef f6bd 0f30 8f3b 1408 c339
00000140: b779 f9bb ff43 b338 cca5 1c3e 5e13 99bd
00000150: 9e16 0eba cbba 88bd 4a0c c63c a914 d6bd
00000160: 58d6 793a 03c3 8938 162a 22b8 2773 80bd
00000170: c69f cd36 6462 18b9 837d 9abd 58c4 b43d
00000180: 2016 2eba 1295 6339 2450 2c38 89d9 bbb9
0.19541694 -0.00055312016 0.22603552 -0.04926284 -0.113123775 3.290096e-05 -0.09791067 -0.04339539
1.9486322e-05 -0.07682014 -1.0590863 -0.012897261 -0.0006828904 -0.061109304 -0.07220317 0.00055835146
-0.016539795 -0.006582795 -0.103204586 -0.23831655 -0.13375898 -0.11738326 0.00017632013 -0.057212044
0.00044184795 0.00015316498 -0.00013518766 -1.3693991e-05 -0.043752804 -0.7924138 0.000672239 0.0004186641
0.0013006821 -0.5760942 -0.004675142 0.00017477173 -0.064028814 -0.005621594 -0.059941974 0.055242795
-0.00010951741 -0.00068571314 0.004828008 0.20000671 -0.12492768 -0.17979716 0.23827955 -0.072214074
-0.037578933 0.00014029129 -0.1168901 0.00016268174 0.032216974 0.0320027 0.00015787475 0.1451836
-0.07313256 -0.08871067 0.00045377674 8.994263e-05 0.00097677 -0.32736665 -0.08547072 -0.053244423
-0.07606233 0.002492442 -0.13571264 0.00012909179 9.283483e-05 -0.027173772 0.0002487369 -0.0030849674
-0.035073433 0.16859294 -0.008163885 0.1482539 -0.006412287 -0.12057438 0.0043697427 0.00037199317
-0.0076133865 8.5480504e-05 0.15297621 -0.07474397 -0.00054202403 -0.06676253 0.024175782 -0.10453159
0.0009530536 6.568993e-05 -3.8663005e-05 -0.062719636 6.128076e-06 -0.00014532503 -0.07543471 0.08826512
-0.000664087 0.0002170394 4.1082632e-05 -0.00035829496

teacher.layers.0.weight f4 [100, 4]
00000000: 4ee6 a2be 3b38 803b 1e73 fbbb 791e 893c
00000010: 29d2 0cbe 99d9 6e3e 209f 27be 3a14 43be
00000020: 4225 333e b55d 59be 43a4 203e 7537 cb3d
00000030: cdcb 05be 05bf 8c3c 46ab 433c df9a bb3b
00000040: aa5b 68be d2e1 0bbe 12fa 793e 4ade 60be
00000050: 2517 4b3e 8fff cfbc e71c feba 9668 3bbb
00000060: d33a a7be 3707 6b3b 2d3b 373d b42c 00bd
00000070: 21ee a5bd 107d ba3c efa9 5fbe 8b72 883e
00000080: 2b53 863d 2c9f 81bb 2d86 653b ac9a 2a3b
00000090: a26e 84be 23b8 88bd 875d 233e dfac a83e
000000a0: f5c4 c5be 3d0b 2b3d d595 683b 0f39 0f3c
000000b0: d9a8 b03c e897 433c b5a4 99bb c7ad 893e
000000c0: 5fd0 01be 682c 233d c951 923b 98a8 adbb
000000d0: aa2f 003d dd97 27be 3a55 d6be 8ad1 a0be
000000e0: df00 67be fad7 67bc c954 f73d 4377 a2bd
000000f0: 54d9 bebe 2e56 20bd dedd 9b3d a306 87be
00000100: a373 a43c 96df c8bc cfd2 33be aeaf 85be
00000110: 0df2 c83e e1d4 47bd 0716 313d 6e09 dbbc
00000120: 9d4c af3e 3247 edbc 2cc0 64bc 5031 14bc
00000130: d010 ecbc c5cb 02be 735b a53d ee5c 52bc
00000140: 43d3 683e a968 0dbe 7a41 083e dc08 fcbd
00000150: cae5 033e 1fb4 843d 3d9a 54bd 58b8 1dbe
00000160: f3af 8fbe e123 943c a40f 323b 2da5 0c3a
00000170: fe60 1ebe 9715 113e 978c cbbd fd3f 363d
00000180: ddea 93be 3911 083d 1e15 a1bd 95c2 0ebe
00000190: 3218 263e 0026 063e 8bf0 f03d 5d5d 5bbe
000001a0: 7e05 1fbe 7b7e 773c a1dd f53b 28f4 0e3c
000001b0: 7c03 0e3e d8ba 3b3e 9516 083e 2d9f 97bd
000001c0: f717 15be b22d 89bd 95cb 8abd bbdf f0bc
000001d0: 1c80 133e 422a 66bd 9526 ae3e 4a05 a63e
000001e0: dfa7 3ebe 493e 673d 5b1b 5d3e 6fcd e53d
000001f0: b0e4 e4bd 8252 823d 1080 b53d 97a9 633e
00000200: 996b c13e f9d0 1e3e eb5d 0fbe c506 4b3e
00000210: 5c13 20bd 87f0 71be 48f5 57bc e077 d23d
00000220: 073b d23d 3bd8 4fbc db69 4ebb 4295 2b3b
00000230: a676 843c 8b97 dcbd 96a9 e3bd 9525 213d
00000240: 5d38 80bd e7c6 383c 6c41 c4bb caf5 443c
00000250: 93e4 c7be d4f6 0ebb 5f3b b3bd ee4f 12be
00000260: a333 933e 8d70 7e3c d456 903a 9d9e b9bc
00000270: a5f1 e83e 2829 27bd 2987 a6ba 9fd4 063b
00000280: b679 213e 21ad 03be 34e4 513d 8519 f73c
00000290: 04d3 6bbe a609 14be 6ef0 b5bd 482a 90bc
000002a0: 8902 0b3e ab89 b5bc 9972 febb 4626 25bc
000002b0: 361e f33d 121c a7bc d614 42bc 0434 f1bb
000002c0: c25c 523e af5b c9bc 50a2 17bd eaf9 263d
000002d0: adb2 6c3d 4fa5 0dbc 2453 743c d50a 52ba
000002e0: 94e5 5abe 0d1d a13c 88b6 763d cb55 16be
000002f0: 713c 4c3e ffa2 0fbd 61cb 7ebc 2d67 ab3d
00000300: ad16 81be 4993 183d ae23 97bd b159 8bbd
00000310: a2c1 dc3d 2f36 ee3d c5b5 a7be b6e4 7b3e
00000320: 8b24 bdbe a57d 9d3e 9a41 e93e 11cf 7e3e
00000330: ce46 363e 76aa 90be 482f a63d 2e21 32be
00000340: 3413 d6bd f5e6 8e3b 4512 f73a bf85 14bb
00000350: fc7a b93e aec7 03bd 1c29 c4ba 2312 ea3b
00000360: 19f2 853e a333 22be a185 9dbe 3a52 9abe
00000370: d268 96bd 6cff 61be 76c9 7f3d 6500 393e
00000380: 7423 683e 139a 033e c09e acbe ee27 633e
00000390: f5c0 05be 7469 9e3c 7c0c 473b 9406 713b
000003a0: a700 74be f278 f63c fc7f c5ba c004 bfbb
000003b0: bff8 cd3e 10b0 52bd b385 ddbb c2e2 5dbb
000003c0: d924 89be 0333 01bd 157d 7e3d 2f39 153e
000003d0: 04cf 78bd a6d5 773d 66dc c9bd d79d 1f3e
000003e0: f203 21be b256 cf3c 2526 2a3e 6404 a6bd
000003f0: 7ee7 2ebe e267 46bd 9cb0 54bd 78dd e0bc
-0.31816334 0.003912953 -0.007673635 0.016738163 -0.13752045 0.23325194 -0.16369295 -0.19050685
0.17494681 -0.21227153 0.15687661 0.09922687 -0.13066025 0.017180929 0.01194269 0.005725249
-0.22691217 -0.13660362 0.244118 -0.21959797 0.19833048 -0.025390415 -0.0019387276 -0.0028596274
-0.32662067 0.0035862455 0.04473417 -0.031292632 -0.0810206 0.022764713 -0.21842168 0.2664989
0.06558832 -0.0039557423 0.0035022602 0.0026032133 -0.25865656 -0.06675746 0.15953647 0.3294439
-0.3862683 0.041758765 0.0035489697 0.008741631 0.021564888 0.011938073 -0.004688824 0.26890394
-0.12677144 0.03983727 0.004465316 -0.005299639 0.031295456 -0.16366525 -0.41861898 -0.31409866
-0.22558926 -0.014150614 0.12076718 -0.079329036 -0.37275183 -0.039144687 0.07610677 -0.2637225
0.020074671 -0.024520677 -0.17560886 -0.26110595 0.3924717 -0.048787 0.043233898 -0.026737895
0.3423814 -0.028964613 -0.013961833 -0.00904496 -0.02881661 -0.12773044 0.08074083 -0.012839539
0.2273684 -0.13809456 0.13306227 -0.12306377 0.12880626 0.06479668 -0.051904906 -0.15402353
-0.28063926 0.018083515 0.0027169967 0.0005365189 -0.15466687 0.14168392 -0.09938925 0.044494618
-0.28890124 0.03321955 -0.07865356 -0.13941415 0.16220167 0.13100433 0.1176463 -0.21422334
-0.15529439 0.015105839 0.007503227 0.008725204 0.13868517 0.18332994 0.13289864 -0.07403407
-0.14559923 -0.06698169 -0.067771114 -0.029403558 0.14404339 -0.056192644 0.3401381 0.3242591
-0.18618725 0.056455884 0.21592467 0.11220824 -0.11176431 0.06363393 0.088623166 0.22232662
0.37777403 0.15509404 -0.1400067 0.19826801 -0.039080963 -0.2362691 -0.013181038 0.102767706
0.10265165 -0.012685831 -0.00314962 0.0026181494 0.016169857 -0.10771092 -0.1111633 0.03934248
-0.062607504 0.011277891 -0.005989244 0.012021491 -0.39041576 -0.0021814601 -0.087515585 -0.14288303
0.28750333 0.015529764 0.0011012205 -0.02265864 0.4549686 -0.040810734 -0.0012705076 0.002057351
0.15769085 -0.12859012 0.051243022 0.030163536 -0.23029715 -0.14456806 -0.08883749 -0.017598286
0.13575186 -0.022160372 -0.007765126 -0.010079926 0.11870997 -0.020399127 -0.011845788 -0.007360937
0.20543197 -0.024579851 -0.037020028 0.04076568 0.057787586 -0.00864537 0.0149124 -0.00080124784
-0.2137664 0.019667173 0.06023267 -0.14681165 0.19944932 -0.035067555 -0.015551419 0.083692886
-0.25212613 0.037249837 -0.07379852 -0.06804217 0.1077912 0.116314285 -0.32755867 0.24598965
-0.36941943 0.30759922 0.45557863 0.24883677 0.17800447 -0.2825505 0.08114487 -0.1739547
-0.104528815 0.0043610283 0.0018850049 -0.0022662727 0.36226642 -0.03217285 -0.0014965865 0.0071432753
0.26161268 -0.1584001 -0.30766013 -0.3014086 -0.07344212 -0.22070092 0.062447987 0.18066557
0.22669774 0.12851743 -0.33714867 0.221832 -0.13061889 0.019337393 0.0030372432 0.0036777603
-0.23828374 0.030086968 -0.001506805 -0.0058294237 0.4022884 -0.051437438 -0.006760323 -0.0033857082
-0.26785925 -0.03154279 0.062131006 0.14572595 -0.0607443 0.060506485 -0.09856491 0.15587555
-0.15724161 0.025309894 0.16616113 -0.08106306 -0.17080495 -0.048438914 -0.05192624 -0.027449355

teacher.layers.0.bias f4 [100]
00000000: 5c61 883e 8fdc 273e 9d91 edbd 54ef 223e
00000010: 1181 9cbe aa82 36be 6e90 ac3e a006 283c
00000020: 070f 7bbd ff8b acbe b996 c33e f82e 35bc
00000030: 2282 303e a527 a7be 98bf 3d3e b17e ab3e
00000040: b7df 27be c759 abbe c5bc b4be 6e4c 84bd
00000050: b1c9 e9bd 7753 fbbd b39a 863e 4d6d 9e3e
00000060: 5635 833e 1442 67bd 7cc8 113e a1af 0ebe
00000070: 4149 da3d 592c 503c cfdf 413e c78b 1a3e
00000080: ebc6 b3be b269 2abe fb23 c1bd 86ad 45bd
00000090: f31b 4c3d 2446 d03e 0db3 7ebe 01e5 ddbe
000000a0: 4896 45be 16f8 7b3e 0079 00be e8e8 dbbd
000000b0: fdda 45be 5d70 60bb 2ea3 713e 2e48 20be
000000c0: 6990 a23e ebda 903e b678 e7be 11f1 69be
000000d0: 4949 bd3d 68c7 e7be 6470 813e d840 303d
000000e0: 2ae6 9bbe bce8 c83d 9ba6 603e 659c c8be
000000f0: 3683 753e d682 1a3d 515f d33d 4a63 5a3e
00000100: 4d4c 6fbe 27e6 413d 4095 8fbe 283a 3fbe
00000110: 160d e33d fcce d33d 4e25 c1be ce16 e6bb
00000120: 9fb3 92be 6067 043e 2228 61be 6027 873e
00000130: adcf 67be 340d 7e3e b112 68be ade1 28be
00000140: 5b3c ba3e 7dd8 d3bd 7151 5a3e 3c7e 3ebd
00000150: 3028 2fbd a6ee b6be 2292 04be 45ed f33d
00000160: 904d 38be a4fb f43b 564a 4f3d 9441 0bbe
00000170: 81be 8d3d 9c2c 6cbe 46b6 623e ecad b13e
00000180: 0510 0dbe a42e 283e af00 30be 90ad 2bbe
0.2663678 0.1639273 -0.11600039 0.15911609 -0.3056722 -0.17823282 0.3370394 0.010255486
-0.061293628 -0.3370056 0.3820093 -0.0110585615 0.17237142 -0.32647434 0.18530118 0.33495095
-0.16393934 -0.33466932 -0.3530027 -0.0645989 -0.11415423 -0.12271779 0.262899 0.30942765
0.2562663 -0.0564595 0.14236635 -0.13934185 0.10658503 0.012705886 0.18933032 0.15092383
-0.351127 -0.16641882 -0.09430691 -0.048261188 0.049831342 0.40678513 -0.2487299 -0.4333878
-0.19295609 0.24606356 -0.12546158 -0.10737783 -0.19321819 -0.0034246661 0.23597404 -0.15652534
0.317508 0.2829202 -0.45209283 -0.22845866 0.09242494 -0.45269322 0.2528106 0.04303059
-0.3044904 0.098100156 0.21938555 -0.3918182 0.23975834 0.03772243 0.103209145 0.21326938
-0.2336895 0.04733863 -0.28043556 -0.18674529 0.1108648 0.103422135 -0.37723774 -0.0070217615
-0.28652665 0.1293006 -0.21987966 0.26397228 -0.22637816 0.24809724 -0.2266338 -0.16492338
0.36374173 -0.10344026 0.2132013 -0.046507105 -0.042762935 -0.3572895 -0.1294637 0.1191049
-0.17998338 0.007476287 0.050608 -0.13599235 0.06921101 -0.23063892 0.22139844 0.34703004
-0.13775642 0.16424042 -0.17187761 -0.16765428

teacher.layers.2.weight f4 [100, 100]
00000000: fc84 e2bb a610 8dbc 3d9a 933d 0e50 483c
00000010: b8d4 aa3c 87cd 71bd 936d 9b3d 0822 7dbc
00000020: 140b 2abd 85c7 3c3b 399e 5a3d a544 b53d
00000030: d4d3 e2bd ff06 2b3d b186 85bd 02f6 fcbd
00000040: d94d 32bd 1f0c 29bc d1fe 0bbd 2f36 3ebc
00000050: bf49 36bd 163e b2bc 81c9 aa3c 3c4a 9abd
00000060: c9ba 103d 483a ae3d 091a 9c3d a382 fdbb
00000070: de67 9c3c 9e52 3c3b 3578 713d c98a 80bd
00000080: 77d9 3a3d 12c2 63bd c7d9 a1bd cdf3 2ebd
00000090: 9d96 e03c 2f71 e8bc 37eb 333d d773 bfbc
000000a0: 7c81 ec38 8698 1bbd ce69 d7bd d206 3e3d
000000b0: d026 933d 89d6 883d 368c 343d 4211 7abc
000000c0: 1536 2dbd f2a7 983a 5f72 47bd 19b3 703d
000000d0: c821 74bd 37ad 0e3d b939 b93c 5bb6 853d
000000e0: e9d9 a0bb 984f ecbd 810e 7dbb 4961 74bd
000000f0: 7938 a7bd 96c5 fe3b b2c1 b2bc 1b30 a03c
00000100: 0c6b 843d 48c0 fcbc 7e12 9dbd 8d0e 293d
00000110: 9a90 063d 540c abbc 553b 75bd f205 55bd
00000120: e078 04be bb3a 443c e4fe b5bc 3588 6b3d
00000130: 8c42 583c bb41 07bd d3ca b4bd d22f 8a3d
00000140: 6412 d5bd a9ac a33d 032a a2bc acf3 833d
00000150: 1b02 793d a865 893d 9124 943b 467d 1fbd
00000160: 0047 9abd 5748 893c db7a 99bd b4f5 88bd
00000170: 215d 16bd 0cc5 833c 01b5 633c ea9b 4bbc
00000180: 38cb bebc fef2 62b9 24b9 28be f473 a6bd
00000190: a902 f43c 3c66 253d 1cd0 efbc 242c d23c
000001a0: f266 973d 07fa 3dbd f596 e0bc b011 573d
000001b0: e07c afbc 03b9 383d 97ac e9bc 0141 803d
000001c0: ce82 a7bd 9056 643d c7c8 82bd 20a2 473d
000001d0: da7a e9bd 2841 5a3c 4297 803d e5d3 953d
000001e0: 54ac 183c 5ec5 703d a906 a2bc 636d 4abd
000001f0: c476 b03c 5162 e73b d677 b4ba f52a 733c
00000200: 77bc ea3d 2fa0 183c 5da2 843d 5d6b 2d3d
00000210: 8ee9 8bbc ba4e a4bc 8e53 753d aa86 85bd
00000220: a086 20bc 8543 8e3d 0435 04be bd52 b23d
00000230: 6d37 db3d d9b5 57bd 1cbc 4a3d fcec 53bd
00000240: 2b13 903d d057 913d a082 eebd 0914 b7bc
00000250: bc0e 3f3d 221d 52bd c4df b7bc 8b65 a3bd
00000260: 90c9 453d bb56 3d3c 110b abbd 1129 e6bc
00000270: bc7e 843d af8d 2bbb 5a38 0ebd 0751 a33b
00000280: dd47 783d 46d8 d5bd 22e7 0f3d 3a4f a13d
00000290: 5aea dbbb 329d babd dd71 7ebc 409b 31bd
000002a0: 2fcd 33bc e66a 103d 47ec debd 8d42 b2bb
000002b0: 7147 973d 9f76 993d 0f6f b63c 293d 7a3c
000002c0: 4746 c4bc 7f9a 91bd 75a6 963d 2fdf 47bd
000002d0: a500 98bd f7e1 a9bd f4f3 053c eae8 91b8
000002e0: 86e7 7d3d d200 03bd 8f9d 863c ea80 4f3d
000002f0: 39a7 1a3d 8af3 98bd f408 05bd 9a56 b4bd
00000300: d164 ec3c 8ae7 0fbc fab6 68bd 6681 3fbd
00000310: 5052 48bb 5321 50bb fb10 763d a482 8abd
00000320: 545f abbb 5d48 6b3d e4a4 793c d49c d13c
00000330: f8b2 b53d 80a1 a93c 31df 89bc 7548 abbc
00000340: 2cfb 8abc 11d7 6dbd 0dab c33d 77f8 4bbd
00000350: 1a26 ebbc d3c2 b03c 0e79 82bd 1920 9cbd
00000360: 2309 323d e4eb 21bd 4344 21bc 1643 2f3d
00000370: 3ec5 7abd 7dab 853d beae af3c 4517 86bb
00000380: ac1f 043d 6605 633c c9f9 503d 0d76 72bc
00000390: 6ce3 b4bd e531 193d 8bc7 8e3d a844 87bc
000003a0: 8bd4 9a3d d107 3ebd 0afc 5b3d 71e2 5b3a
000003b0: 93d8 183d d4ef 60bd ae8c 003d 058b 50bd
000003c0: 4125 863d c6b1 cc3d e5f6 8f3c f2fa 3c3c
000003d0: b605 91bd e60e d13d cd3d 7d3d 1e9f f73d
000003e0: 8986 cbbd 2fe7 76bd 67c3 bfbd 78a0 56bd
000003f0: c4e4 33bd f406 c7bb e977 303d f134 a1bd
-0.0069128256 -0.017219853 0.07207153 0.012226118 0.020853385 -0.059033897 0.07589259 -0.015450008
-0.04151447 0.0028805446 0.05337355 0.088509835 -0.11075559 0.04175472 -0.06519831 -0.1235161
-0.043531273 -0.010317831 -0.03417856 -0.011609598 -0.044503924 -0.02175812 0.020848038 -0.0753369
0.035334382 0.0850721 0.07622153 -0.0077365204 0.019092496 0.0028735767 0.05895253 -0.06276471
0.045617547 -0.055605 -0.07902866 -0.042712975 0.027415568 -0.028374283 0.04392549 -0.023370666
0.00011277475 -0.037987255 -0.105182275 0.046393223 0.07185137 0.06681544 0.044079028 -0.015262904
-0.042287905 0.0011646731 -0.048693057 0.05876455 -0.05960253 0.03483316 0.022610532 0.06528922
-0.0049087894 -0.11538619 -0.0038613381 -0.05966309 -0.08165068 0.007775019 -0.021820877 0.019554188
0.0646573 -0.030853406 -0.07669543 0.041273642 0.032852747 -0.020879902 -0.059871037 -0.052007623
-0.12936735 0.011976893 -0.022216268 0.057502944 0.01319946 -0.03302167 -0.08827748 0.06747402
-0.10403898 0.07991917 -0.019795423 0.06442961 0.060793024 0.067088425 0.0045209606 -0.03893783
-0.075330734 0.016758127 -0.07494136 -0.06687489 -0.03670991 0.01608517 0.013898135 -0.0124273095
-0.023290262 -0.00021643561 -0.16476876 -0.08127585 0.029786425 0.0403807 -0.029274039 0.025655814
0.07392682 -0.046381023 -0.027415732 0.052507102 -0.02142185 0.045098316 -0.02852468 0.062623985
-0.08179246 0.055746615 -0.063859515 0.0487386 -0.11400385 0.0133211985 0.0627885 0.07315806
0.00931843 0.058781974 -0.019778566 -0.049420726 0.021541007 0.007061281 -0.0013768624 0.014841785
0.11461728 0.0093155345 0.06476281 0.042338718 -0.017079141 -0.020057071 0.059894137 -0.06519826
-0.009797722 0.06946472 -0.12910849 0.08707187 0.10703931 -0.052663658 0.0494958 -0.051739678
0.07034906 0.07096827 -0.116460085 -0.02234842 0.04664491 -0.051297314 -0.022445567 -0.07978352
0.048287928 0.011556323 -0.0835172 -0.028095754 0.06469485 -0.002617698 -0.03472171 0.0049840244
0.06061541 -0.104416415 0.035132535 0.078764394 -0.0067112865 -0.09112014 -0.015530077 -0.04336095
-0.010974213 0.035258196 -0.1088491 -0.0054400624 0.07386673 0.07493328 0.022269754 0.015273371
-0.023959292 -0.07109546 0.07355968 -0.04879683 -0.07421998 -0.082950525 0.008175839 -6.9575224e-05
0.061988376 -0.031983204 0.016432552 0.05066005 0.037757132 -0.074683264 -0.03247924 -0.088055804
0.028856667 -0.008783231 -0.056815125 -0.046754263 -0.003056664 -0.0031758144 0.060074788 -0.06763199
-0.00522987 0.057442058 0.015237067 0.025587477 0.08872026 0.020706892 -0.016830059 -0.020908574
-0.016965471 -0.05806643 0.0955411 -0.0497975 -0.028704692 0.021577274 -0.063707456 -0.0762331
0.043465745 -0.039531603 -0.009842935 0.042788588 -0.06122326 0.065268494 0.021445628 -0.0040921294
0.032256767 0.013856268 0.051019464 -0.014798653 -0.0883244 0.0374011 0.069716536 -0.01651223
0.075600706 -0.046394173 0.05370716 0.00083879294 0.037315916 -0.054916218 0.031384163 -0.05091383
0.06550074 0.09994845 0.017573783 0.011534439 -0.070811674 0.1020792 0.061826516 0.12090896
-0.0993777 -0.060279068 -0.09363442 -0.05239913 -0.04391934 -0.006073827 0.043083105 -0.07871426

teacher.layers.2.bias f4 [100]
00000000: 5b31 253b 199e 523d ffb2 cabc 3995 233d
00000010: 7df6 543d 8051 e1bc 3e9d 2c3d a17c 2bbd
00000020: 1f6a 77bd de70 e7bd 8f86 05bd 132a 1e3d
00000030: cf82 a1bb f105 11bd 10b5 6fbd c987 a83d
00000040: 70f4 edbc 27aa b0bd b5c0 263d 837c 5dbd
00000050: 8512 123c 891b 5f3d a959 d93c ef25 63bd
00000060: d6b5 f8bc 6df2 a13a 6038 44bd 108b 5cbd
00000070: 2e56 803d 9742 a13c 8804 713d cea6 023c
00000080: 545e c8ba 229e 91bc fd6b a5bc ab69 8bbc
00000090: d87e 42bd ec06 57bb 1299 d4bc 97cd 02bd
000000a0: 2895 3bbd e671 cebc d4e8 58ba bfda a3bc
000000b0: 6b98 073d c768 d43c 52b3 213d 3746 c23c
000000c0: 2ef7 4b3d 7998 ed3c ca5e 0f3c 6f73 7bbd
000000d0: 4113 cf3b 9996 82bc 7cd7 a73c 41e4 86bd
000000e0: 8db5 08bd e2be 9abd 26d0 af3d 3291 ae3c
000000f0: 1ac6 babc 229c 053d 38ef d33c 8cbc e83b
00000100: d011 43bd d8a7 353d 6572 443d c4b7 0b3c
00000110: c7c0 1e3b a74d 80bd 9ec2 18bd a854 5dbd
00000120: e842 1c3d 80d0 69bc ba01 36be 18f3 633d
00000130: 6423 0bbd ef76 24bd 9d65 be3d 1c8b a23c
00000140: 9dbc 063d c11e 5c3d 853c 27bd 6744 933d
00000150: b40e 7d3d 0311 833c fe43 82bd 14e3 01ba
00000160: 5564 8abc a9a6 77bd b121 e63c 1aaa 773d
00000170: 4a92 eebc a16e 97bb cb86 bd3c 670c b1bd
00000180: 7a02 973c 9049 b53c 5c78 2fbd 0de1 e33c
0.002520642 0.051420305 -0.024743555 0.03993723 0.051992882 -0.027504683 0.042142145 -0.041866902
-0.06040394 -0.113008246 -0.03259903 0.038614344 -0.0049289237 -0.035406057 -0.058522284 0.08229024
-0.029047221 -0.08626204 0.040711123 -0.05407382 0.008915548 0.05446962 0.026532011 -0.0554561
-0.030360144 0.0012355574 -0.047905326 -0.053843558 0.062664375 0.019685073 0.058842212 0.00797434
-0.0015286901 -0.017775599 -0.020193094 -0.01701816 -0.04748425 -0.0032810522 -0.025951896 -0.031934347
-0.045796543 -0.025200795 -0.000827444 -0.020001767 0.03310434 0.025928868 0.039477654 0.023715122
0.049796276 0.029003369 0.008750627 -0.061389383 0.006319434 -0.015940951 0.020488493 -0.06586505
-0.033376265 -0.07555939 0.08584623 0.021309469 -0.02279954 0.032619603 0.025870904 0.0071025547
-0.04762441 0.04434952 0.047960658 0.0085277 0.002422379 -0.06264811 -0.037294976 -0.054035813
0.038149744 -0.014270902 -0.17774096 0.055651754 -0.033969298 -0.040152486 0.09296725 0.019841723
0.03289472 0.053740267 -0.0408292 0.07190781 0.0617816 0.015999323 -0.06360625 -0.0004954797
-0.016893545 -0.060461674 0.028092237 0.060464956 -0.02912249 -0.0046213423 0.023135563 -0.08644944
0.018433798 0.022129804 -0.042839393 0.027817274

teacher.layers.4.weight f4 [1, 100]
00000000: 6f6b 26b9 7577 873a 1528 de39 4103 2e39
00000010: 1cbd 24b8 92f2 6f39 961c ad38 dd0a f139
00000020: 3bcc a139 7da9 d03c 34b7 a039 defb c5b7
00000030: 83ab 1b39 ccaa d9b9 8520 71b9 ab65 8c39
00000040: 0152 b238 3cef 7bb9 7dcc 7a39 2ac2 8239
00000050: cf77 67b9 2c92 7eb8 02ec 26ba 74ed 08b7
00000060: d1db e139 61d2 cfb9 c307 37ba 0602 5b39
00000070: d848 08ba 8c1d 03ba d5bb 28ba b797 d839
00000080: 95db e1b8 aba6 bfba 841f 6fb9 c089 54b9
00000090: 4a90 b7b9 e70d f7b9 396c 6d39 683e 8eb8
000000a0: 7495 e039 1d05 2239 63d7 39b9 f343 fdb9
000000b0: 12ec 54b9 acc4 21b9 a1ac 28b9 4f03 c3bb
000000c0: a08f 2538 bf98 fdb9 a890 0838 55fa 95b9
000000d0: 35db 0039 ce00 19b9 d8d3 6c37 0297 88ba
000000e0: fec1 5fb6 6637 b2b8 372f 20b9 ae25 693a
000000f0: af9a 4e38 e119 70b9 2a2d 99b9 9507 fbb9
00000100: 2ba5 ccb8 4898 e0b7 16fb 1dbb 9a25 88b9
00000110: 48ab 9838 28f9 27b9 d838 bb39 9a60 ddb8
00000120: 64b5 36b9 0839 15b9 8047 113d 5ff0 28ba
00000130: 29b4 9837 7086 8bb9 46e4 e439 8f7e fab9
00000140: 4500 8239 1c11 21b9 0e4e 23b9 21cd f6b9
00000150: 34fa aeb8 aabc 8939 936f d937 0cb4 063a
00000160: 9ab0 00b9 12b7 013a a099 fd38 1496 1cb9
00000170: f99d 0d3a fa32 2b3a d0dc fab8 cd2c d538
00000180: 6455 53b6 6a52 a1b8 5ca8 3739 e011 26b9
-0.00015871016 0.0010335284 0.00042373003 0.00016595145 -3.927677e-05 0.0002288318 8.2546074e-05 0.00045975196
0.00030860477 0.025471443 0.00030654075 -2.3601515e-05 0.00014845845 -0.0004151672 -0.00022995665 0.0002677863
8.502976e-05 -0.00024026347 0.00023918036 0.00024940196 -0.00022074509 -6.0694452e-05 -0.00063675654 -8.161518e-06
0.0004307912 -0.0003963886 -0.00069820526 0.00020886221 -0.0005198843 -0.0005001656 -0.00064366806 0.00041311767
-0.000107697364 -0.0014621814 -0.00022804557 -0.00020269211 -0.00035011984 -0.0004712187 0.00022642397 -6.782712e-05
0.0004283596 0.00015451429 -0.00017723213 -0.00048306547 -0.00020305839 -0.00015427422 -0.00016086038 -0.005951322
3.9472827e-05 -0.00048369725 3.255965e-05 -0.00028606007 0.00012288692 -0.00014591517 1.411602e-05 -0.001042098
-3.3342508e-06 -8.49802e-05 -0.00015276378 0.00088938593 4.9258288e-05 -0.00022897824 -0.00029216084 -0.000478801
-9.758243e-05 -2.6773792e-05 -0.0024105958 -0.00025967957 7.2798284e-05 -0.00016019179 0.0003570977 -0.00010556095
-0.00017424446 -0.00014230993 0.03546858 -0.00064445095 1.8203706e-05 -0.0002661231 0.00043657626 -0.0004777801
0.00024795733 -0.0001536053 -0.00015573969 -0.0004707361 -8.3435705e-05 0.00026271242 2.5920372e-05 0.00051385234
-0.0001227282 0.0004948239 0.00012092595 -0.00014933228 0.0005402263 0.00065307284 -0.000119620585 0.00010164976
-3.1491154e-06 -7.692429e-05 0.00017514959 -0.00015837653

model_A.layers.0.weight f4 [100, 2]
00000000: 2035 e03e 0ff2 0cbf c3e5 27bf e74f 22bf
00000010: 4c20 e4be 3cb9 563e 27e2 6abf be6d bfbe
00000020: 5bf6 76bf 209b 923e 67a0 57bf d0c4 173f
00000030: 3308 87be 5fe6 dfbe c782 643f bfb4 dd3d
00000040: 4cf1 133d ddc8 943e 8497 2abf cca3 df3e
00000050: 4a4a 9ebe 47ef 2bbf 0c1c 8abd e19c 47be
00000060: 21c7 cfbe 2814 f5be 5491 433f 6464 d9bb
00000070: 1f9e b8bd d796 1c3f da64 2dbf 855a cf3d
00000080: b555 e33e 7ec7 7b3e 8667 133f a689 8e3d
00000090: d4dd 9abe 676f ca3e f273 9f3e 7ef8 1dbd
000000a0: 60c2 efbe ca52 1cbf 21c0 c7be a343 a4be
000000b0: a584 b73e 89da 573e 5b40 14bf 4a71 38bf
000000c0: bc72 1abf afde 13bf 7d0e 373f c8be 943d
000000d0: 3a0e 733e b98b 293e 4d2e e2be 7f3b f6be
000000e0: 512a 1cbf 54d9 883e a6a8 a63e a286 f53e
000000f0: bf32 1fbf c6a8 47b9 6d1c 573f 3b19 253f
00000100: 77c1 0c3f ddfc 843b be6a ee3c f0ff 92be
00000110: e6d6 3bbf 1b0b 063f c8aa 0f3f 6c22 24bf
00000120: 95ab c3be aa6f 043c 8a2b 98be d5ab 26bf
00000130: 95c9 513f 1f1d fd3e 4c46 903e dd7c 8cbe
00000140: dd3d bf3e f47b 90bd 1376 4d3e e4e2 3dbf
00000150: ded3 45bf 13e3 83be 0670 1cbe 4761 c2be
00000160: a3cf 5fbf 6f0e 3c3e 9e96 133e 8e54 903e
00000170: a5f5 30bf eae9 d83d 9557 69be 29ad 723c
00000180: 303f b43c 64fb da3d f0bf cc3e 78d2 0f3f
00000190: 3b39 dd3e de15 683e 50a9 c23e e168 1b3e
000001a0: ab5c 1dbf a883 0d3f 7c0f 56bf d7f1 933e
000001b0: 0662 6ebf 35cf 033f e251 5c3f e5b8 403e
000001c0: 33c7 4fbf e7bb a2be eb17 f7bd 741b b03c
000001d0: be09 40bf 568d 503e b82a a8be 9b0f cabe
000001e0: 96ba 6b3e 5708 05bf 3166 41bf 968a 37bf
000001f0: 9d1b 3fbf c420 bdbe 2109 213e 9439 32bf
00000200: 01b7 323f 9039 4abe 7f44 3dbf 39da 843c
00000210: 7012 51bf 7e80 0e3e 7dae 433f 45b1 1e3e
00000220: 61d9 8c3e cdb6 febe 4d10 dd3e 0f87 063d
00000230: 54ec 143f a239 063f 1864 40be 3a65 10bf
00000240: f70e b0be 8978 08bf fe11 8c3e 98d2 7abd
00000250: c89c 2c3e f593 24bf a11b 8b3c 9f54 343e
00000260: 8dda 36bf e3fd 0a3e 9811 073f 930f 143e
00000270: 42f6 2abf 3932 d93e feba b33e 089c a8bd
00000280: 3816 493e 36e1 fbbe 25a9 e63e 2012 bcbd
00000290: 9b2c 113d 011e d5be be47 5abf 6792 0abf
000002a0: 9b9a 153f 2715 a73e ca42 c0be 1380 07bf
000002b0: c279 1e3f 36d2 843e 28ed a4be 6ed4 383d
000002c0: 4b3e e03e 4d95 5dbf 5c16 133f 0e60 273b
000002d0: f886 f23e c1be 543d 60d6 363f 1ae9 403e
000002e0: 9ac2 50be 325e dcbe fe60 fcbe 88dc a03d
000002f0: e0f8 0c3f 6ffe cc3e 3f57 133e fc63 c43e
00000300: 10e8 c0bd c058 193f 077a ebbe 0c7b 09bf
00000310: 513e 3bbf 9e46 dfbe 7787 24bf 9a7f 0cbf
0.4379053 -0.5505685 -0.65584964 -0.6340317 -0.4455589 0.20969099 -0.9175133 -0.37388414
-0.9646966 0.28633976 -0.8422913 0.5928469 -0.26373443 -0.43730447 0.8926205 0.1082549
0.03611879 0.29059497 -0.66637444 0.43679655 -0.30916053 -0.67161983 -0.06743631 -0.19493438
-0.4058161 -0.4786694 0.7639363 -0.006634282 -0.09014534 0.61167663 -0.6773201 0.10124687
0.44401327 0.24587819 0.5757984 0.06959848 -0.30247366 0.39538118 0.31143147 -0.03856706
-0.46827984 -0.61063826 -0.3901377 -0.32082853 0.35843387 0.21079458 -0.579107 -0.72047865
-0.6033132 -0.57761663 0.7150648 0.07262951 0.23735896 0.16557206 -0.4417595 -0.48092267
-0.6100207 0.26728308 0.32550544 0.4795428 -0.6218681 -0.00019040992 0.8402775 0.64491624
0.54982704 0.004058464 0.029103633 -0.2871089 -0.73374784 0.52360696 0.56119967 -0.64115024
-0.38216844 0.008083263 -0.29720718 -0.65105945 0.81948215 0.4943628 0.28178632 -0.27439013
0.37351885 -0.07054892 0.20064573 -0.7417433 -0.7727641 -0.2575918 -0.15277109 -0.37964842
-0.87426203 0.18364881 0.14412925 0.2818951 -0.69124824 0.105914906 -0.22787316 0.014811792
0.022002786 0.1069248 0.39990187 0.56180525 0.43207726 0.22664592 0.380198 0.15176727
-0.61469525 0.55279016 -0.8361738 0.28895447 -0.9311832 0.5148805 0.86062443 0.18820532
-0.8116333 -0.31783983 -0.12065109 0.021497466 -0.75014865 0.20366415 -0.32845092 -0.3946503
0.23020396 -0.5196585 -0.75546557 -0.7169584 -0.7465151 -0.3693906 0.15726139 -0.6961911
0.6981049 -0.19748521 -0.7393264 0.016217338 -0.8166876 0.13916203 0.76438123 0.1549731
0.27509597 -0.4974884 0.431765 0.032843646 0.5817311 0.5243169 -0.18788183 -0.5640446
-0.34386417 -0.5330892 0.27357477 -0.061235994 0.16856682 -0.64288265 0.016980948 0.17610405
-0.7142723 0.13573413 0.5276122 0.14459066 -0.6678201 0.4242113 0.351036 -0.082328856
0.19637382 -0.4919526 0.45050922 -0.091831446 0.03544293 -0.41624454 -0.8526572 -0.5412964
0.58439034 0.32633325 -0.37550956 -0.529298 0.6190454 0.25941628 -0.32212186 0.045124464
0.43797526 -0.8655594 0.5745599 0.002553943 0.47368598 0.05193973 0.7142086 0.18838921
-0.20386735 -0.43040615 -0.4929275 0.07854563 0.55067253 0.40037867 0.1438875 0.38357532
-0.094192624 0.59901047 -0.45991537 -0.5370338 -0.7314196 -0.43608564 -0.642692 -0.54882205

model_A.layers.0.bias f4 [100]
00000000: a619 f73d eae2 063e a719 823e fc43 b7be
00000010: fd34 093f 1630 24be f47b dbbe a9a4 14bf
00000020: 8e74 3ebe 6221 8e3e 63ad 063b 85fb 043f
00000030: d740 2dbf ae81 bd3e b5f7 b7be 79a1 fd3e
00000040: 78a9 2bbd 383a bebe df4e aa3e 6cbe bd3d
00000050: be5d db3e fade 06bf 484a 9c3e c519 913e
00000060: 8aec ddbd 061c c3be 70b6 a23e 223a d8be
00000070: fe83 05bf 63d8 5ebf 81ab 0b3f ca0c 3fbf
00000080: 4cb3 4bbd c29e 31be 5bf7 7c3d 6bec df3d
00000090: 2aa5 ac3e 055d 1cbe d98f 5a3e 87e3 ec3e
000000a0: f33a 563e f544 a6be 6c00 02bf 8b63 09bf
000000b0: 25ff f8be 74a7 223e cdfb a53e 3fe8 c43d
000000c0: c23c 17bf 9c9c 53bf 462e 32bf 085a 34be
000000d0: d6cd 983e 059a 9a3e 8941 f23e 54ab c5be
000000e0: 9607 abbe 94a8 ac3e 6de0 b7be d614 16bf
000000f0: 3fe7 2dbf 2388 49be 52b8 563e 7244 32be
00000100: f454 bb3e 71e0 0e3f 7087 6ebe d961 07bf
00000110: 249a ea3e e6fb 933e 553c c43e 6d3d 7bbf
00000120: b933 69bb 1f68 793e 113e d6be 8813 48be
00000130: b398 e73d 811d afbe 5a1c cfbe 198f 5f3f
00000140: d034 893e 8e18 6c3d 25cf 53bf b758 1d3e
00000150: bdc0 d33e e77e abbe 1593 0abf e65d b53c
00000160: 006f e9be 860a ca3d a54b 073f 3da9 ee3e
00000170: 1b2c 913e 08b3 4fbd 24b8 733e 3c20 38bf
00000180: d988 47bf 9af1 bb3e 315f 3cbf ad4f e7be
0.12065439 0.13172498 0.25410196 -0.35794055 0.5359648 -0.16033968 -0.42868006 -0.5806375
-0.1859915 0.27759844 0.0020550124 0.5194629 -0.6767706 0.37013 -0.35931173 0.49537256
-0.041909665 -0.37153792 0.332633 0.09264836 0.42844957 -0.52683985 0.30525422 0.28339973
-0.10836132 -0.38107318 0.31779814 -0.42231852 -0.5215453 -0.8704893 0.5455857 -0.7462889
-0.049731538 -0.17345718 0.061759334 0.10933765 0.3371976 -0.15269859 0.21343936 0.4626734
0.20920925 -0.32474485 -0.50781894 -0.53667516 -0.4863216 0.15884191 0.3241867 0.0961461
-0.59077084 -0.8266084 -0.6960186 -0.17612469 0.2984454 0.30195633 0.47315624 -0.38607275
-0.33404225 0.33722365 -0.3591341 -0.58625543 -0.6793098 -0.19680838 0.2096875 -0.17408922
0.36588252 0.5581122 -0.23293853 -0.5288368 0.45820725 0.2890312 0.3832728 -0.98140603
-0.0035583808 0.24356125 -0.41844228 -0.195387 0.11308422 -0.34202197 -0.40451318 0.87327725
0.26798105 0.057640605 -0.8273795 0.15365873 0.41357985 -0.33495256 -0.5413068 0.0221395
-0.455925 0.098652884 0.528498 0.46613494 0.28353962 -0.050707847 0.23800713 -0.71924186
-0.7794319 0.36707765 -0.7358275 -0.45177975

model_A.layers.2.weight f4 [100, 100]
00000000: 87a2 f63d 5086 723d 68f8 10be 8e2c 073e
00000010: 648c 06be a727 c9bd d10a cf3d cf9c 8abd
00000020: f0f9 11be 259c acbd 4dae e43d da46 793b
00000030: 1e22 033e 06db bdbd f1aa d1bd ef5f 62bd
00000040: c445 643b 4f82 f13d 7b7a 28be 3b49 26be
00000050: 734d 103e a940 283e 801f d9bb 2837 1e3d
00000060: de57 123e 6d70 f73c cc54 b7bb 0979 c43c
00000070: cca8 b3bd 6d3f 38be 2e8d 1fbe 0d79 77bd
00000080: f2c1 f83d 13c7 d33d a798 06be 9083 953d
00000090: cffb afbd e568 333d c6e2 1fbe 0f3f d23d
000000a0: 9f7d 32bd bb58 c03d c3c3 a33d 5558 123e
000000b0: b9c6 d13b 6915 22be 2a92 cfbc f199 633d
000000c0: 39bd cf3c eadc 09bd cec4 0cbe 0f33 723c
000000d0: 8990 1dbe 978f 9bbd daa9 24be 4063 32be
000000e0: 81c4 5f3e acd6 39bd 2c80 b8bb 4c4c bc3d
000000f0: ef89 2e3e 4842 5c3e 2fda e63d 8dfb 7c3c
00000100: b976 103e e8bf b0bd ddaa 0b3e ec8e ccbd
00000110: 834d 2e3d 8091 acbd f766 45be 30dd 243d
00000120: b7f4 493d 2888 00be b92e 203e a921 52bd
00000130: e586 05be 6d72 26be 8285 02be 8a8e 30bd
00000140: 364d 643c 7210 04bd d5e0 133e f3ac 693e
00000150: 32d2 2abe 073f 183e c49b 25be 1540 543d
00000160: 03f1 04bd 138d 20be 46f5 15bd 811a dbbc
00000170: 11cb c83d 5bdf 3ebd 94e9 b4bd ddde 3abe
00000180: 6a87 00be 25e6 f63d d8f2 883d ffb5 e23d
00000190: 2227 05be f5e0 54bc 74fa b93d f595 c8bd
000001a0: 916e 4b3c 2487 4f3d d3f7 5b3d 849b 0f3b
000001b0: 2571 673b d8e6 d13d 711b f7bd 09cf 463d
000001c0: 90e8 183d 506c 483d 34e7 99bc fd2f c13d
000001d0: f5f4 433d a024 5bbb c44b 4f3c ac9f ec3d
000001e0: 457f aebd 3d8f 11bc 46c7 c13d c20d dcbd
000001f0: 20f2 babd d321 bcbc 406f 783c ebcd b1bc
00000200: 6590 473d 22f4 ef3b a217 1c3e b2b9 893d
00000210: f323 72bc 7287 e9bd 10af d4bb fb11 27bd
00000220: a918 2abd 30e7 9fbd 2cb3 a4bc d839 3fbd
00000230: ea8f 4b3b 28f1 f4bd 9116 e9bc d2a3 84bd
00000240: 9610 4c3c 3db2 c03d e73a 0a3e c1b7 eebd
00000250: 6632 723d 350d f93d ce3d e43d 4b4d 333d
00000260: eef2 d4bc 6af8 aa3d c753 b83d 0718 453d
00000270: 1403 0bbe 77f0 e03c 6468 5a3d db4c 7bbd
00000280: 84ef 523c ace2 933c 97ba 5f3d 3a0a d5bd
00000290: 3b94 b2bd 50ad 943e efe0 9b3d 1732 e63d
000002a0: e7d7 09be 494a 253b 8ca7 f83d 9cc9 853c
000002b0: 8d98 5fbc bc8f 0a3d 701e ccbc bd1c 0e3c
000002c0: b772 c93d 31fd 543d 1606 083e bb81 983d
000002d0: 7326 d63c f550 9ebd 9f43 83bd 2848 18be
000002e0: f816 f43d 4d1b b4bd acbf 5c3d 5d47 d6bd
000002f0: 5ac7 0a3b b31c 62bd 44a4 d33c 548e 0e3c
00000300: 8c12 6fba 5240 a93d 6f3c 0d3b 7beb a13d
00000310: 66f0 913d 1186 a2bd f2c4 8fbd 68da 70bd
00000320: 2d01 aa3b 2847 413d f2cf ccbd 98b0 1ebd
00000330: 4021 9c3d 4517 333d 113a 0ebb 6f1e a43d
00000340: 8739 99bd f970 b23d 4652 a43c 2c68 23bd
00000350: 91ff 023e 0fb1 413d 345e 9dbd 4f9e 45bd
00000360: 582a 8a3c 90af 783c 24ad 7b3c d46f 813d
00000370: b092 163e 4307 d83d 4f03 3bbd 4731 ad3d
00000380: 0e1a 0c3e 4887 da3d a2ff 49bd 0c88 b83d
00000390: b8be 003e a045 8fbc 376b 1ebd 4543 5e3d
000003a0: f165 6d3d daf3 33bd 46d3 06bd 4752 ae3c
000003b0: f9a4 3cbd 6012 683d 8ad7 8e39 d11b 993d
000003c0: 58fb a03d 8b8b 143e 82e6 c03d ac3d 783d
000003d0: c923 0e3e eab2 9abd 2cdd 023c 6370 73bd
000003e0: d004 0d3d 9de0 7abd bc11 e4bc 16ff 58bd
000003f0: 379d 7cbd cbf8 aa3d eda1 8ebd 8601 4dbd
0.120427184 0.05921012 -0.1415726 0.1320059 -0.13139492 -0.09822016 0.10109485 -0.0676819
-0.142555 -0.0842822 0.11166058 0.0038036616 0.12805983 -0.09270291 -0.102376826 -0.05526727
0.0034831623 0.117924325 -0.16452973 -0.16238873 0.14092045 0.16430916 -0.0066260695 0.03862682
0.14291331 0.030204976 -0.0055948254 0.023983495 -0.0877243 -0.17992945 -0.155812 -0.060418177
0.12146367 0.10340705 -0.1314417 0.07300484 -0.085929506 0.043801207 -0.15613851 0.10265934
-0.043576833 0.09391924 0.07996323 0.14291508 0.0064018634 -0.1582848 -0.025338251 0.05556673
0.025358783 -0.033657946 -0.1374695 0.014782681 -0.15387167 -0.07595747 -0.16080418 -0.17420673
0.21852304 -0.045370743 -0.0056305137 0.0919424 0.17044805 0.2150966 0.11272084 0.015440834
0.14107789 -0.08630353 0.13639398 -0.09988198 0.04255439 -0.084261894 -0.19277559 0.040250003
0.049305644 -0.1255194 0.15642823 -0.051301632 -0.1303974 -0.16254587 -0.12746242 -0.043104686
0.013934424 -0.032242246 0.14441235 0.22819881 -0.16681746 0.14867793 -0.16172701 0.051818926
-0.03245641 -0.15678816 -0.036610864 -0.026746036 0.09804357 -0.046599727 -0.08833614 -0.18249078
-0.12551656 0.12055615 0.06686944 0.11069869 -0.13003209 -0.012993087 0.09080973 -0.09794227
0.012416498 0.05066599 0.05370314 0.0021912763 0.0035315242 0.10249108 -0.12065781 0.048537288
0.037331164 0.04893142 -0.018787004 0.09432981 0.04784103 -0.0033438578 0.012652341 0.115538925
-0.085203685 -0.008884248 0.094618365 -0.107448116 -0.09128213 -0.022965347 0.015163243 -0.021704635
0.04872169 0.007322804 0.1524339 0.06724872 -0.014779079 -0.11402787 -0.0064905956 -0.040788632
-0.041527424 -0.078077674 -0.020104967 -0.046686023 0.0031061121 -0.119600594 -0.028453143 -0.06476559
0.012455126 0.09408996 0.13499032 -0.11656142 0.059130095 0.12160722 0.11144601 0.043774884
-0.025994744 0.083481625 0.09000354 0.048118617 -0.13575393 0.027458413 0.05332221 -0.061352592
0.012874488 0.018052422 0.054621305 -0.10402341 -0.08719679 0.29038477 0.07611262 0.11240023
-0.13461266 0.002522128 0.12141332 0.016331486 -0.013647211 0.033828482 -0.024916857 0.008673844
0.09836333 0.051999275 0.13283572 0.07446619 0.02614138 -0.07730285 -0.06409382 -0.14871275
0.119184434 -0.0879427 0.05389373 -0.1046283 0.0021175952 -0.05520315 0.025835164 0.008700926
-0.000911989 0.08264221 0.0021550914 0.079062425 0.071259305 -0.079357274 -0.07019986 -0.05880204
0.0051881284 0.047187 -0.100006 -0.03874263 0.076235294 0.043723363 -0.002170209 0.08013617
-0.074816756 0.08712954 0.020058762 -0.039894268 0.12792803 0.047287997 -0.076839834 -0.048246678
0.016865894 0.015178576 0.015361104 0.06320158 0.14704394 0.1054826 -0.045657452 0.084566645
0.13681814 0.10670334 -0.049316056 0.09010324 0.12572753 -0.017489254 -0.038676467 0.054263372
0.057958547 -0.043933727 -0.03291633 0.021279467 -0.046055768 0.05665815 0.0002724494 0.07476009
0.0786044 0.14506356 0.09418966 0.06060569 0.13880838 -0.075536564 0.007987302 -0.059433352
0.034428418 -0.061249364 -0.027840488 -0.052977644 -0.06167337 0.08348235 -0.06964479 -0.05005028
